Results/checkpoints/abr_actor100.pt (torch, 801538 bytes, 12 tensors)

actor_conv1.weight f4 [128, 1, 4]
0	0x3ee02106	0.43775195
1	0x3eeb12a1	0.4591265
2	0xbd48db27	-0.049037125
3	0x3f2b2278	0.6684947
4	0xbdc3398b	-0.0953246
5	0x3e0fb8bf	0.14035319
6	0xbe372ca0	-0.17888117
7	0x3eba32da	0.36366922
8	0x3f01a026	0.5063499
9	0xbe92728b	-0.28603014
10	0x3f0799bc	0.52968955
11	0x3e84f251	0.25966123
12	0x3edd3b22	0.43209177
13	0x3e140d0c	0.14458102
14	0x3ea35e2d	0.31907788
15	0x3c899b4c	0.016797684
16	0x3edbe4e9	0.42948082
17	0x3db6b81d	0.089218356
18	0xbe5c9421	-0.21540882
19	0x3e612810	0.21987939
20	0xbd63da54	-0.055628136
21	0x3daa0872	0.08302392
22	0xbd3f35f8	-0.046682328
23	0x3ecc0988	0.39851022
24	0xbee1cb3f	-0.44100377
25	0xbe866f25	-0.26256672
26	0xbe4de7d9	-0.20107974
27	0xbef59ffb	-0.47973618
28	0x3daea9bf	0.0852847
29	0xbee771c6	-0.4520399
30	0x3f04fa14	0.5194409
31	0xbece4d66	-0.40293425
32	0x3ee5d7ef	0.44891307
33	0x3e07ff46	0.13280973
34	0xbda0f31b	-0.07858869
35	0x3f05d306	0.5227512
36	0x3dd9ce8b	0.10635098
37	0x3ed88c1e	0.422944
38	0x3dddb9c3	0.10826447
39	0xbc1babd1	-0.009501413
40	0x3e40941e	0.18806502
41	0xbdb1ffef	-0.086913936
42	0x3e90dfd3	0.28295764
43	0x3f2ba98a	0.6705557
44	0x3eac97ae	0.33709472
45	0xbe3de642	-0.18544868
46	0x3eaf2cb9	0.34213808
47	0x3e8d14f4	0.27555048
48	0x3e3b5bd5	0.1829675
49	0xbeb96f48	-0.36217713
50	0xbf11bfa1	-0.5693303
51	0xbecdc24c	-0.401873
52	0xbec681ed	-0.38771
53	0x3ed07fb1	0.4072242
54	0x3e0c09d4	0.13675624
55	0x3e4ca9b8	0.19986618
56	0x3e4c15aa	0.19930139
57	0x3c8478b8	0.016170844
58	0x3eda6dd0	0.42661905
59	0xbed11ac8	-0.40840745
60	0xbc80d3c4	-0.015725978
61	0xbec1de69	-0.37864998
62	0x3da020d9	0.07818765
63	0xbea1ff69	-0.31640175
64	0x3e57fd98	0.21092832
65	0xbd9b0ceb	-0.07570823
66	0x3ef4a4ad	0.47781888
67	0xbe7f22da	-0.24915639
68	0xbe8dbaeb	-0.2768167
69	0xbe867646	-0.2626211
70	0x3f04c304	0.5186007
71	0x3edaba0c	0.42720068
72	0x3f0170b9	0.50562626
73	0xbeba0eae	-0.36339325
74	0xbee62fde	-0.44958395
75	0xbeeb526d	-0.45961323
76	0xbe792309	-0.24329771
77	0x3e95578b	0.29168352
78	0x3e9a5502	0.3014298
79	0x3f334553	0.70027655
80	0xbe2aed1d	-0.16692014
81	0xbe741fd6	-0.2384027
82	0x3eaa7d83	0.33298883
83	0xbe62370a	-0.22091308
84	0x3e9a007b	0.30078492
85	0xbdf28106	-0.118410155
86	0x3e890778	0.2676351
87	0xbf12e20d	-0.57376176
88	0xbe8cee95	-0.27525774
89	0x3e18d26f	0.14924024
90	0x3db100aa	0.08642705
91	0xbe9775bf	-0.2958202
92	0x3ee4f7ea	0.44720393
93	0x3edf1492	0.4357038
94	0xbe88210a	-0.26587707
95	0xbe6afd9e	-0.2294831
96	0x3f0a3741	0.5399056
97	0xbd6b78de	-0.057488315
98	0xbdc3ea36	-0.095661566
99	0xbec3087a	-0.38092405
100	0xbe53367f	-0.20626257
101	0x3e4c5194	0.19952995
102	0x3be6fd91	0.0070492704
103	0xbeada8d5	-0.3391787
104	0x3c402840	0.011728346
105	0xbeaede6e	-0.34154075
106	0xbed93086	-0.42419833
107	0xbe8cf83a	-0.27533132
108	0xbf10d682	-0.5657731
109	0xbec45d43	-0.38352403
110	0x3efe120f	0.49623153
111	0x3e9eec6c	0.3103975
112	0x3e1dc71c	0.15407985
113	0xbeeec466	-0.46634215
114	0xbea82254	-0.3283869
115	0xbe2a6c14	-0.16642791
116	0x3d9c1768	0.07621652
117	0xbee16125	-0.44019428
118	0xbe5cbec7	-0.21557151
119	0xbe9954dd	-0.29947558
120	0x3ab59e00	0.0013856292
121	0xbe3e8450	-0.1860516
122	0xbd0deaf0	-0.034647882
123	0xbead7924	-0.33881485
124	0xbe658a24	-0.22415978
125	0xbe1435e8	-0.14473689
126	0xbd463b00	-0.04839611
127	0xbec16cc9	-0.3777831
128	0x3eeba7a1	0.46026328
129	0xbd90ac8e	-0.07064162
130	0x3ef42bd7	0.47689697
131	0x3ea7cc58	0.3277309
132	0xbec546ad	-0.38530484
133	0x3ebd7b2d	0.37008038
134	0xbdea7271	-0.11447609
135	0xbe8a3b08	-0.26998162
136	0xbefdc7e5	-0.4956657
137	0xbf106260	-0.5640011
138	0x3d59ca86	0.053171657
139	0xbe94f570	-0.29093504
140	0x3e2ff7af	0.17184328
141	0xbeda634f	-0.4265389
142	0x3eab93af	0.3351111
143	0xbf11c63f	-0.56943125
144	0xbd356118	-0.04428205
145	0x3e0d5332	0.13801268
146	0x3ea167c5	0.31524482
147	0x3f1bd455	0.6087087
148	0x3f0e8be2	0.55682194
149	0xbe9bbc07	-0.3041689
150	0x3e6f33c3	0.2335959
151	0xbe13d9f1	-0.14438607
152	0x3cec508c	0.028847001
153	0xbe8e8cd1	-0.2784181
154	0x3f0ef243	0.5583841
155	0xbeafae77	-0.34312794
156	0x3ea0c15a	0.31397516
157	0x3e514e4c	0.20440024
158	0x3e5c9589	0.21541418
159	0xbe9b9e88	-0.30394387
160	0x3f1be2e9	0.6089311
161	0x3e534b2c	0.20634145
162	0x3e21a74c	0.15786475
163	0xbec613cf	-0.38686988
164	0x3e82dce3	0.25559148
165	0xbd2b5962	-0.04183329
166	0xbe32bbe1	-0.17454483
167	0x3f2142d7	0.62992615
168	0x3dd8e72d	0.10590968
169	0xbe8d2ece	-0.27574772
170	0xbe80a979	-0.25129297
171	0xbcc93d35	-0.024565319
172	0x3eafbad1	0.34322217
173	0xbcc47d3d	-0.0239855
174	0xbe496661	-0.1966796
175	0xbdc4c38d	-0.09607611
176	0xbed614d1	-0.41812757
177	0x3e11c687	0.14235888
178	0x3ea5ac4d	0.32358018
179	0xbf196889	-0.59925133
180	0x3e36c5d6	0.17848906
181	0x3e99c20a	0.30030853
182	0x3e213af3	0.15745144
183	0xbda2e92b	-0.079546295
184	0x3e9e730c	0.3094715
185	0x3e96ce8d	0.2945446
186	0x3e798ff9	0.24371327
187	0x3da318b1	0.07963694
188	0xbe3e6dfe	-0.18596646
189	0x3c546da0	0.01296559
190	0xbe1a1a0e	-0.15049002
191	0xbeb975ef	-0.3622279
192	0x3ebbd63e	0.3668689
193	0x3ee8a6c4	0.45439732
194	0xbc2831a5	-0.010265742
195	0xbc842fc0	-0.01613605
196	0x3d198fbd	0.037490595
197	0xbc1782f9	-0.009247535
198	0x3e309650	0.1724484
199	0x3eb37778	0.35052085
200	0xbec91c34	-0.3927933
201	0xbdf6dab3	-0.12053432
202	0x3f01f965	0.5077117
203	0x3ee96f1f	0.4559259
204	0xbccbb9a0	-0.024868786
205	0xbe9a5808	-0.30145288
206	0xbe9c9f42	-0.30590254
207	0xbee550fa	-0.44788343
208	0xbdcbea1e	-0.09956764
209	0x3e7ed293	0.24885015
210	0x3ed6df58	0.41967273
211	0x3edf6a73	0.43635902
212	0xbed3d4a3	-0.41373166
213	0xbe8d103c	-0.27551448
214	0xbc565ace	-0.013083173
215	0x3f3c1372	0.7346717
216	0x3d9090a3	0.07058837
217	0xbe05f8d5	-0.13083203
218	0x3e50dd3a	0.20396891
219	0xbe445c01	-0.19175722
220	0xbe841a1f	-0.2580118
221	0x3ede2581	0.43387988
222	0xbe51c85b	-0.20486586
223	0xbdb17079	-0.086640306
224	0xbef72b4e	-0.48275226
225	0x3eb8bd61	0.36081985
226	0x3ed8bb98	0.42330623
227	0x3e7ee079	0.24890317
228	0xbe8055c2	-0.25065428
229	0xbecaac95	-0.39584795
230	0xbea2d908	-0.31806207
231	0x3eeb75e8	0.45988393
232	0x3eb29ac4	0.34883702
233	0x3f04f2b0	0.5193281
234	0x3ec87492	0.39151436
235	0x3ebf9d02	0.37424475
236	0xbba07180	-0.0048963428
237	0xbec2b086	-0.38025302
238	0xbedb556c	-0.4283861
239	0xbeef7302	-0.46767431
240	0x3e5197e4	0.20468098
241	0xbe7b6028	-0.245484
242	0xbdce1528	-0.10062629
243	0xbe935450	-0.28775263
244	0xbe24e358	-0.1610235
245	0xbed2b2b5	-0.41151968
246	0xbed30b60	-0.41219616
247	0xbc2b5be6	-0.010458922
248	0xbe4afc57	-0.19822823
249	0x3e8b3f4d	0.27196732
250	0xbe61914d	-0.22028084
251	0xbf15e9f9	-0.5856014
252	0xbdb4ac68	-0.088219464
253	0xbe7830d0	-0.2423737
254	0xbe1ca460	-0.15297079
255	0xbef3b5fc	-0.4759978

actor_conv1.bias f4 [128]
0	0x3e21a020	0.15783739
1	0xbea55eb4	-0.32298815
2	0xbe7332b8	-0.23749816
3	0xbeb5529b	-0.35414585
4	0x3edd09c0	0.431715
5	0xbed3c7fb	-0.4136351
6	0x3ed5cf19	0.41759565
7	0x3d34883e	0.044075243
8	0xbd502429	-0.050815735
9	0x3ea01526	0.31266135
10	0xbd7366b1	-0.059424106
11	0x3e9cdd04	0.30637372
12	0x3ec9398c	0.39301717
13	0xbee08f7c	-0.4385947
14	0x3e488fae	0.1958606
15	0x3e23ec2a	0.16008058
16	0x3df25ecd	0.11834488
17	0x3d9999a2	0.07500006
18	0x3e7c8c7b	0.24662964
19	0xbda2eefa	-0.079557374
20	0xbce67d61	-0.028135957
21	0x3ef8bb0f	0.48580214
22	0x3ea9eab4	0.33186877
23	0x3c9ff773	0.019527173
24	0xbed4f817	-0.41595528
25	0x3e17e0b6	0.14831814
26	0xbeae5448	-0.34048676
27	0x3ec3647d	0.38162604
28	0xbe9b6a14	-0.3035437
29	0xbd1a4feb	-0.037673872
30	0xbde344f0	-0.11097133
31	0x3e71cd8e	0.23613569
32	0x3ef25692	0.47331673
33	0x3e1d59d5	0.153663
34	0x3ea40a87	0.32039282
35	0x3ecc5818	0.3991096
36	0x3ecfae98	0.40562892
37	0xbda7a6d9	-0.081861205
38	0xbcd4fb02	-0.025998596
39	0x3e68260e	0.22670767
40	0xbb2e4437	-0.0026590952
41	0x3e6e6556	0.23280844
42	0xbde94e51	-0.11391891
43	0xbe9eb879	-0.31000116
44	0x3e87f5cb	0.26554713
45	0x3d7c98f2	0.061669298
46	0x3e64040f	0.22267173
47	0x3f00773e	0.5018195
48	0x3eababe9	0.33529595
49	0x3ef0dded	0.47044316
50	0x3cf9be2d	0.03048619
51	0xbedc36e4	-0.43010628
52	0xbe75e8d1	-0.24014594
53	0xbd87459c	-0.06605074
54	0xbee2818f	-0.4423947
55	0xbe498cd7	-0.19682632
56	0xbecff03e	-0.40612978
57	0xbec74fd5	-0.38928095
58	0xbe0b1a47	-0.13584243
59	0xbefc5f9c	-0.49291694
60	0xbe9d22d0	-0.30690622
61	0x3e69b8c9	0.22824396
62	0x3ed9af5f	0.4251661
63	0xbe184d0c	-0.14873141
64	0xbd6b1bd7	-0.057399597
65	0x3e725ff8	0.23669422
66	0xbe4fc612	-0.20290402
67	0xbe74c152	-0.23901871
68	0x3e9ae21a	0.30250627
69	0xbedea2f3	-0.43483695
70	0x3e301360	0.17194891
71	0x3ed7da91	0.4215894
72	0x3e23d9f1	0.16001107
73	0x3e7268b2	0.2367275
74	0xbe951796	-0.29119557
75	0xbbe20b00	-0.006898284
76	0x3c9b6083	0.018966919
77	0x3e008335	0.12550052
78	0x3e42a951	0.19009902
79	0x3edcefd5	0.43151727
80	0xbe93495b	-0.28766903
81	0x3e07c95e	0.13260409
82	0xbdc9a1ac	-0.098452896
83	0xbeca832a	-0.39553195
84	0x3d0f3550	0.034962952
85	0xbee15734	-0.44011843
86	0x3eba4c14	0.36386168
87	0x3d6c0190	0.057618678
88	0xbe6030a4	-0.21893555
89	0x3e870537	0.26371166
90	0xbef2491a	-0.47321397
91	0xbde767dc	-0.112991065
92	0xbd538b57	-0.051646557
93	0xbed9893c	-0.42487514
94	0xbe4f0ef3	-0.20220546
95	0xbd843781	-0.06455899
96	0x3ec8bf8c	0.3920864
97	0x3ef7bfee	0.48388618
98	0x3e9c8247	0.30568144
99	0xbe98dd1e	-0.298562
100	0xbe99951f	-0.29996583
101	0x3ef49d84	0.47776425
102	0x3e6a3ab8	0.22873962
103	0xbc54e3a4	-0.012993727
104	0x3e426a6e	0.18985912
105	0xbebc83c5	-0.36819282
106	0xbd958cef	-0.073022716
107	0x3eeb1d29	0.45920685
108	0xbca7bf99	-0.020477103
109	0x3ca772bb	0.02044045
110	0xbe892e10	-0.26792955
111	0xbdd58b13	-0.10426917
112	0x3e342f99	0.17596282
113	0xbe9011b6	-0.28138512
114	0xbca3d9aa	-0.020001251
115	0x3e7c318c	0.24628276
116	0xbefa69d4	-0.48908865
117	0x3e17a871	0.14810349
118	0xbe75f83d	-0.24020477
119	0xbe7a527c	-0.24445528
120	0x3e498910	0.19681191
121	0x3ecd8775	0.40142408
122	0xbdfa91df	-0.12234854
123	0xbe1aef2f	-0.15130304
124	0xbeeacb9c	-0.45858467
125	0xbd70692b	-0.058694046
126	0xbec955d3	-0.3932329
127	0xbdea5d08	-0.114435256

actor_conv2.weight f4 [128, 1, 4]
0	0x3df4807a	0.119385675
1	0xbee7ad57	-0.45249435
2	0x3eed15dc	0.4630574
3	0x3ece4b15	0.40291658
4	0xbf22784e	-0.6346482
5	0xbebe2e73	-0.37144813
6	0x3cd713b9	0.026254522
7	0xbe6ae795	-0.22939904
8	0xbd5ae501	-0.05344105
9	0xbe448a34	-0.19193345
10	0x3ef0f4ea	0.47061855
11	0xbe7cf371	-0.2470224
12	0x3ee3d355	0.4449717
13	0x3d9073e7	0.070533566
14	0x3e147341	0.14497091
15	0x3ef616bf	0.4806423
16	0xbd85be14	-0.06530395
17	0xbe7d417b	-0.2473201
18	0xbd4940ad	-0.049133945
19	0x3ef8d513	0.48600063
20	0xbeafa503	-0.3430558
21	0x3dd3c423	0.103401445
22	0xbef5bff1	-0.47998002
23	0x3e7a8a93	0.24466924
24	0x3e673704	0.2257958
25	0x3d25669e	0.040381067
26	0x3e7e6c90	0.24846101
27	0xbcd6c0d9	-0.026215004
28	0x3e8a98c9	0.2706969
29	0xbec30e9d	-0.38097087
30	0xbd8fabcd	-0.0701519
31	0x3e88dafa	0.26729566
32	0x3f055707	0.5208592
33	0x3e90c130	0.2827239
34	0xbeabac7b	-0.3353003
35	0x3eecd0de	0.46253103
36	0xbe468d84	-0.19389921
37	0xbe5f056a	-0.21779409
38	0xbf05d75a	-0.52281725
39	0xbe6da4fb	-0.23207466
40	0x3eb6531a	0.35610276
41	0x3da7e468	0.08197862
42	0xbe8685b1	-0.26273873
43	0x3e54642f	0.20741342
44	0xbe371829	-0.1788031
45	0x3ed93e12	0.42430168
46	0xbee3a57d	-0.44462195
47	0xbe60ebb6	-0.21964917
48	0xbed03d79	-0.406719
49	0xbe05c779	-0.13064374
50	0x3e554923	0.2082868
51	0x3f299614	0.66244626
52	0x3dc49e2c	0.096004814
53	0x3f01fa80	0.5077286
54	0x3e06cb6c	0.13163537
55	0x3ebbef5d	0.36706057
56	0x3ecb8035	0.39746252
57	0x3ed5b746	0.4174139
58	0xbe9f46a8	-0.31108594
59	0x3f0ebeae	0.55759704
60	0x3e866166	0.26246184
61	0xbe942e1d	-0.28941432
62	0xbea97ea2	-0.33104426
63	0xbf000c3f	-0.50018686
64	0x3de3cb81	0.111228
65	0xbeaf0727	-0.34185144
66	0x3e88dc44	0.2673055
67	0x3e5e40e0	0.21704435
68	0xbedc3c81	-0.4301491
69	0x3e3d6e3f	0.18499087
70	0xbadb7444	-0.0016743024
71	0x3eae2d7f	0.34019086
72	0x3ea1b48f	0.31583068
73	0xbef913b0	-0.48647833
74	0x3efcdea2	0.49388605
75	0x3f018a74	0.5060189
76	0x3e7d870c	0.24758548
77	0xbee15974	-0.4401356
78	0xbe37e48b	-0.17958276
79	0xbe1ae6dc	-0.15127128
80	0xbdb1a6e5	-0.08674411
81	0x3e9f67a1	0.3113375
82	0x3e67d95e	0.22641513
83	0x3eff029f	0.49806687
84	0xbe51793c	-0.20456403
85	0x3e311356	0.17292532
86	0x3e6e0ccd	0.2324707
87	0xbed5ca87	-0.4175608
88	0xbeed1588	-0.4630549
89	0xbe88116e	-0.26575798
90	0x3ea63056	0.32458752
91	0xbeeee91f	-0.46662232
92	0xbec5bc68	-0.38620305
93	0x3ea230b4	0.31677783
94	0x3ea0e54f	0.3142495
95	0x3f02f953	0.5116169
96	0xbeba55b8	-0.36393523
97	0xbeb7cbd9	-0.3589771
98	0x3e8c042a	0.27346927
99	0x3f0486a2	0.51767933
100	0x3ea6e83d	0.3259906
101	0x3de92c5d	0.11385415
102	0x3e525266	0.20539245
103	0x3f0fb053	0.56128424
104	0xbea76a78	-0.32698417
105	0xbe7a247f	-0.24427985
106	0x3ea282c0	0.3174038
107	0xbeb99587	-0.36246893
108	0xbe80498c	-0.25056112
109	0x3ec88df4	0.39170802
110	0x3e4cc3d3	0.19996576
111	0x3e88186f	0.2658114
112	0xbe6f1a57	-0.23349892
113	0xbd039340	-0.03212285
114	0x3ef53949	0.47895268
115	0xbead5fc0	-0.33862114
116	0x3c936902	0.017994408
117	0x3e830bb7	0.25594875
118	0xbea7cf4e	-0.32775348
119	0x3f11229b	0.5669343
120	0xbe7fccf4	-0.24980527
121	0xbdf5e638	-0.12006801
122	0xbe0a8830	-0.13528514
123	0xbea6d31e	-0.32582945
124	0xbed75c92	-0.42062813
125	0x3ec50c1b	0.38485798
126	0x3e56074d	0.20901223
127	0xbec646d5	-0.38725916
128	0xbe8c644c	-0.2742027
129	0x3f069b3e	0.5258063
130	0x3e71a917	0.23599659
131	0x3e990d92	0.29893166
132	0xbe992a10	-0.29914904
133	0xbe607574	-0.21919805
134	0xbd9a93b8	-0.07547706
135	0xbdbb44e0	-0.09143996
136	0xbe9bdf57	-0.30443832
137	0x3dd1fcda	0.10253306
138	0x3dfe1ba5	0.124076165
139	0x3ae32da1	0.0017332324
140	0x3dc35c4f	0.09539091
141	0xbe4a33a1	-0.19746257
142	0x3e30b318	0.17255819
143	0x3e9839d5	0.29731622
144	0xbe6993d5	-0.228103
145	0xbef13ac6	-0.47115153
146	0x3e9f4605	0.31108108
147	0x3e686874	0.22696096
148	0xbe6565a0	-0.22402048
149	0x3eff6b07	0.49886343
150	0xbe4b0e51	-0.1982968
151	0x3ed27a29	0.41108826
152	0x3e6e93e0	0.23298597
153	0xbed69839	-0.41913012
154	0x3eb389df	0.35066125
155	0xbef58e72	-0.4796024
156	0xbe8217e4	-0.25408852
157	0xbd8718a8	-0.065965
158	0xbea246bd	-0.31694594
159	0x3f157b00	0.5839081
160	0xbde4fbd1	-0.11180843
161	0x3e3476eb	0.17623489
162	0xbee78d4b	-0.45224985
163	0x3ea9f7d9	0.33196905
164	0xbd96db42	-0.07366039
165	0xbe950793	-0.2910734
166	0x3e08da79	0.1336459
167	0x3eb28f8a	0.34875137
168	0x3ee8010b	0.45313296
169	0xbea7a193	-0.3274046
170	0xbe896694	-0.26836073
171	0x3da21fda	0.079162315
172	0x3e1d5aa2	0.15366605
173	0x3e5fc2e3	0.21851687
174	0x3e92574e	0.28582233
175	0xbe061856	-0.13095221
176	0x3e84cd4b	0.25937876
177	0x3eb2cb51	0.34920743
178	0xbe3c0314	-0.18360549
179	0x3edf691d	0.43634883
180	0x3e3ed89f	0.18637322
181	0x3ee3460f	0.44389388
182	0xbe938e2b	-0.28819403
183	0xbe85bd8f	-0.26121184
184	0xbe1056e9	-0.14095654
185	0xbb3896a4	-0.002816596
186	0x3eb08f76	0.34484452
187	0xbe9dfbe1	-0.3085623
188	0x3e8581ae	0.260755
189	0xbe448dbb	-0.19194691
190	0x3ea65f26	0.32494467
191	0x3cb776c8	0.022395507
192	0xbeaa9713	-0.33318385
193	0xbe10a2e7	-0.14124642
194	0xbe7eed06	-0.24895105
195	0x3ec48aec	0.3838724
196	0xbe80ae44	-0.25132954
197	0x3b7fedc1	0.0039051624
198	0x3e4218f2	0.18954828
199	0xbe716acc	-0.23575896
200	0x3e86ce0f	0.26329085
201	0xbec91352	-0.39272553
202	0xbe89c5b5	-0.2690865
203	0xbec67d51	-0.38767484
204	0xbe4cc167	-0.19995652
205	0xbe6aef16	-0.22942767
206	0x3cda1333	0.026620483
207	0xbe2e01c5	-0.16992863
208	0x3e542247	0.20716201
209	0x3ee34a57	0.44392654
210	0x3e45f093	0.19330053
211	0xbe4937ca	-0.19650188
212	0xbeb9aff7	-0.36267063
213	0x3e8f2f3f	0.27965733
214	0xbe252a4a	-0.16129413
215	0x3eb064bc	0.34451854
216	0x3eb53bf9	0.35397318
217	0x3e63ed41	0.22258474
218	0x3f009340	0.50224686
219	0x3f0f8159	0.56056744
220	0x3dd9ceee	0.10635172
221	0xbec3b549	-0.38224247
222	0x3ef5bc34	0.4799515
223	0xbe819e1a	-0.25315934
224	0xbe51a70e	-0.20473883
225	0x3ee33943	0.44379625
226	0x3ed7861a	0.420945
227	0x3e65d989	0.22446264
228	0x3d33ae7d	0.043867577
229	0xbecd4397	-0.4009063
230	0xbcee5d1b	-0.02909713
231	0x3f0e53e3	0.5559675
232	0x3db232f5	0.087011255
233	0x3c1aa096	0.009437701
234	0xbe04ef05	-0.12981804
235	0xbe73836c	-0.23780602
236	0x3e85e8bb	0.26154122
237	0xbd36ed22	-0.04465974
238	0x3ea4d916	0.32196873
239	0xbdcfdd97	-0.10149687
240	0x3e7a3da9	0.24437584
241	0x3e774ccb	0.24150388
242	0x3df9ebc7	0.12203174
243	0x3ecf4565	0.4048263
244	0x3ea1b77e	0.31585306
245	0x3eeeb5ba	0.4662302
246	0x3ecfcaf7	0.40584537
247	0xbd8a3a5a	-0.06749411
248	0xbe990eb2	-0.29894024
249	0x3e5ea336	0.21741948
250	0x3dddfe45	0.10839514
251	0xbd516230	-0.05111903
252	0xbd86ded7	-0.06585472
253	0x3d412f12	0.04716403
254	0x3ecbaa91	0.3977857
255	0x3e74f4e0	0.23921537

actor_conv2.bias f4 [128]
0	0x3e18ece2	0.14934114
1	0x3e039083	0.12848096
2	0xbe7d6a2c	-0.24747533
3	0x3da35122	0.07974459
4	0x3efaa789	0.48955944
5	0x3eb4b001	0.3529053
6	0xbec468ff	-0.38361356
7	0x3ee54d6c	0.4478563
8	0x3d2542f0	0.04034704
9	0x3e8a13d9	0.26968268
10	0x3ec4d1a5	0.38441196
11	0x3ee00968	0.43757176
12	0xbe814e78	-0.2525518
13	0x3ee37424	0.44424546
14	0xbe9b48dd	-0.30329028
15	0x3dbe3071	0.09286583
16	0xbea58a1d	-0.32331935
17	0xbc77a57c	-0.015115138
18	0xbbf8de4a	-0.0075948583
19	0xbda474ed	-0.08030114
20	0xbc8b6ebe	-0.01702058
21	0x3c49bee7	0.012313581
22	0x3f082e60	0.5319576
23	0x3e9b354e	0.30314106
24	0x3e856bd6	0.26058835
25	0x3e50f2f9	0.20405187
26	0x3ed5605e	0.41675085
27	0xba8bf305	-0.0010677284
28	0xba476765	-0.00076066545
29	0x3dd7b538	0.105326116
30	0xbedf43f2	-0.43606526
31	0xbead554b	-0.33854136
32	0x3d88ad78	0.066737115
33	0xbe4851f4	-0.19562513
34	0x3b7d187c	0.003861933
35	0xbcf6e5f0	-0.03013894
36	0x3d536a6d	0.051615167
37	0x3ea5259b	0.32255253
38	0xbe40c045	-0.18823345
39	0x3ec7b871	0.39007905
40	0x3eba4d68	0.3638718
41	0xbe989ace	-0.29805607
42	0xbede9d87	-0.4347956
43	0xbed2bcc0	-0.4115963
44	0xbe8233b3	-0.25430068
45	0xbe4301d5	-0.19043668
46	0xbbf78a06	-0.0075542955
47	0xbdbe30e2	-0.092866674
48	0xbe11fcee	-0.14256641
49	0xbdc109cb	-0.09425696
50	0xbe088ed3	-0.13335733
51	0x3ef8d4e7	0.48599932
52	0xbe40854d	-0.1880085
53	0xbe8dbce4	-0.27683175
54	0x3e5489b6	0.20755658
55	0x3a5a90b5	0.0008337603
56	0x3ec9d3a3	0.39419279
57	0x3ea0c5ca	0.314009
58	0x3ee555de	0.44792074
59	0xbecbfc62	-0.3984099
60	0x3ea8e2d1	0.32985547
61	0x3ed869a8	0.4226811
62	0xbe178414	-0.14796478
63	0x3eefd121	0.4683924
64	0x3ecf1475	0.40445295
65	0x3c5be6f8	0.013421766
66	0x3e818628	0.25297666
67	0xbd50119e	-0.05079805
68	0xbef2f179	-0.47449854
69	0x3e14fd74	0.1454981
70	0x3e383b1c	0.17991298
71	0xbe7f87ce	-0.24954149
72	0x3e546d83	0.207449
73	0xbedaae56	-0.42711133
74	0x3edc8b1d	0.43074885
75	0x3f02634d	0.5093277
76	0x3e4c4929	0.19949783
77	0xbe81bc40	-0.25338936
78	0x3e6abcd2	0.22923592
79	0x3d3ecabf	0.046580072
80	0x3e50ffe0	0.20410109
81	0x3e2bc358	0.16773736
82	0x3ec28af8	0.3799665
83	0xbe2bae41	-0.16765691
84	0xbd334582	-0.04376746
85	0x3e17ddac	0.14830655
86	0x3dd810c3	0.10550072
87	0x3ed377c4	0.4130231
88	0xbe143bfa	-0.14476004
89	0xbc9987a7	-0.018741442
90	0x3d59b507	0.053151157
91	0xbe07fb48	-0.1327945
92	0x3ec3a6bf	0.38213155
93	0x3d3410d1	0.04396135
94	0xbec83246	-0.39100856
95	0xbd5ddf30	-0.054167926
96	0xbe84bbd5	-0.25924554
97	0xbb02d953	-0.001996596
98	0xbcdc9620	-0.026927054
99	0xbed6e09d	-0.4196824
100	0xbd178c92	-0.036999293
101	0xbc352abb	-0.011057551
102	0xbe08c49b	-0.13356249
103	0x3ecbd364	0.39809716
104	0xbddf6f98	-0.10909957
105	0x3ea38625	0.31938282
106	0x3dd48c3e	0.103783116
107	0xbeb0b24d	-0.34511033
108	0x3dfc887d	0.123307206
109	0x3ee26d11	0.44223836
110	0xbea77324	-0.32705033
111	0xbe7d11e8	-0.24713862
112	0x3ee0908f	0.4386029
113	0x3ecd80c4	0.40137303
114	0xbe7c1ca3	-0.24620299
115	0x3e9a5da8	0.3014958
116	0xbbcbda35	-0.0062210807
117	0xbec4659d	-0.38358775
118	0x3c4f0c4f	0.012637212
119	0x3e20b4e8	0.1569401
120	0xbe199478	-0.14998043
121	0x3e383c8f	0.17991851
122	0xbe9c1771	-0.30486634
123	0x3eb74bd1	0.3580003
124	0x3ee5510b	0.44788393
125	0x3ea0e61e	0.31425565
126	0x3e2df5bb	0.1698827
127	0x3e1fdfaf	0.15612672

actor_fc_2.weight f4 [128, 1]
0	0xbf393a6e	-0.7235478
1	0xbe8101ae	-0.25196594
2	0xbdc38480	-0.09546757
3	0xbf0534c4	-0.5203364
4	0xbf3d1634	-0.73862004
5	0x3f49fadf	0.78898424
6	0x3f4659e0	0.7748089
7	0xbf687f06	-0.9081882
8	0x3ea3118b	0.31849322
9	0x3ef22f61	0.47301772
10	0x3f7fe6d0	0.99961567
11	0x3f2428c3	0.641247
12	0x3f7bd11d	0.98365957
13	0xbecc9369	-0.39956215
14	0x3f433756	0.7625631
15	0x3f6ecc73	0.93280715
16	0xbf56e6b8	-0.839458
17	0xbf4d7e30	-0.8027067
18	0x3e956b46	0.29183406
19	0x3f276cb3	0.65400237
20	0xbefe5e48	-0.49681306
21	0x3de1d5d8	0.110271156
22	0x3c8ebb21	0.017423214
23	0x3e96bcb5	0.29440847
24	0xbf03c20c	-0.5146797
25	0x3f134969	0.5753389
26	0x3f2a0d58	0.6642661
27	0xbf305ff9	-0.6889644
28	0xbdcfff8c	-0.101561636
29	0xbe0e8d07	-0.13920985
30	0x3ea460a9	0.32104996
31	0x3f7e7036	0.9938997
32	0x3e96047f	0.29300305
33	0xbe68ace0	-0.22722197
34	0x3f795830	0.9740019
35	0xbec2d534	-0.38053286
36	0xbe94ab9c	-0.29037178
37	0x3d8bd3f0	0.06827533
38	0xbf38a8b2	-0.7213241
39	0x3e18aef9	0.14910497
40	0xbf2db092	-0.6784755
41	0x3dd5671d	0.10420058
42	0x3e25fab0	0.16208911
43	0x3e0dbe28	0.1384207
44	0xbf56f127	-0.8396172
45	0xbf65bf0f	-0.8974466
46	0x3f07eac2	0.53092587
47	0x3f7c5706	0.9857029
48	0xbf60230d	-0.87553483
49	0x3ecfe7af	0.40606448
50	0xbf3cb3f0	-0.7371206
51	0x3d806450	0.06269133
52	0x3f890f74	1.0707841
53	0x3f5171de	0.8181437
54	0xbf3b2bfa	-0.7311398
55	0x3f38168a	0.7190939
56	0x3f2410c6	0.64088094
57	0xbac90c00	-0.0015338659
58	0x3f83dfd0	1.0302677
59	0xbecb5a8c	-0.3971752
60	0xbe915f16	-0.28392857
61	0xbf159d32	-0.58442986
62	0x3e51509a	0.20440903
63	0x3ea72ffa	0.3265379
64	0x3e2709f7	0.16312395
65	0xbf1f4fc1	-0.6223107
66	0xbee67c38	-0.45016646
67	0x3ec787f3	0.3897091
68	0xbf6077b2	-0.8768264
69	0xbe5c87d6	-0.21536192
70	0xbcb57740	-0.02215159
71	0xbecf71a4	-0.40516388
72	0x3ee2d11f	0.44300172
73	0xbd0a3cd2	-0.03374941
74	0x3f55d97f	0.83535
75	0xbdb5e2d0	-0.08881152
76	0xbf21924a	-0.63113844
77	0x3f4d3efe	0.80174243
78	0x3e31f77f	0.17379569
79	0xbeb83f7c	-0.35985935
80	0xbf28baf6	-0.6591028
81	0x3e4b99da	0.19882908
82	0xbf742920	-0.9537525
83	0x3e86ee60	0.2635374
84	0x3f1feaa8	0.6246743
85	0xbf609036	-0.8772005
86	0xbf27989c	-0.6546724
87	0xbf380b86	-0.71892583
88	0x3f7bf129	0.98414856
89	0x3f66eff4	0.9020989
90	0x3da813c9	0.08206899
91	0x3f79c1f7	0.9756159
92	0xbed129e1	-0.40852264
93	0xbf7887ce	-0.9708222
94	0x3ed5a60c	0.41728246
95	0x3eb5b19d	0.3548707
96	0x3f85e663	1.0460933
97	0xb997c000	-0.00028944016
98	0x3f534386	0.8252491
99	0x3f2df7af	0.6795606
100	0x3f489e75	0.78366786
101	0xbf7bcb8e	-0.98357475
102	0x3f6b92ee	0.9202107
103	0xbf53afde	-0.8269023
104	0x3f77429c	0.9658601
105	0xbdceada1	-0.10091711
106	0xbf62df20	-0.8862171
107	0x3ea02aa4	0.31282532
108	0xbe8c270f	-0.2737355
109	0xbf513c60	-0.8173275
110	0xbed2dd5a	-0.41184503
111	0x3dd4ef06	0.103971526
112	0x3f585756	0.84508264
113	0xbe8a16e0	-0.26970577
114	0x3f2567ca	0.64611495
115	0x3e0f3cae	0.13987991
116	0x3d8d8182	0.06909467
117	0x3e447784	0.19186217
118	0xbf28013a	-0.6562687
119	0xbf58709c	-0.8454683
120	0xbe715e45	-0.23571117
121	0xbf6e8dfc	-0.931854
122	0xbf0bcdcf	-0.54610914
123	0x3d213027	0.039352562
124	0xbf289a9e	-0.6586093
125	0xbed46024	-0.414796
126	0xbe37ffb8	-0.17968643
127	0xbdebefc0	-0.11520338

actor_fc_2.bias f4 [128]
0	0xbf0d50d4	-0.5520146
1	0x3de57392	0.11203684
2	0xbe0fbaa8	-0.14036047
3	0x3eb4c1b9	0.3530405
4	0x3e31ca4c	0.17362326
5	0xbeccbcb8	-0.3998773
6	0xbe93c2b9	-0.288595
7	0xbc3cd680	-0.01152575
8	0xbf1f913e	-0.62330997
9	0x3da0a481	0.07843877
10	0xbd901974	-0.07036105
11	0x3ec3863d	0.38188353
12	0x3e722f84	0.23650938
13	0x3f3ffd43	0.7499582
14	0xbcb95821	-0.022625031
15	0xbf23c519	-0.6397262
16	0x3f1090fc	0.5647123
17	0xbf2d03b6	-0.6758379
18	0xbdb7bf1f	-0.08972
19	0xbe7c14ce	-0.24617311
20	0xbec2468c	-0.37944448
21	0xbebd59e0	-0.36982632
22	0x3f66f3e0	0.90215874
23	0x3f123b54	0.5712178
24	0x3eaaa630	0.33329916
25	0x3f6fff4c	0.9374893
26	0xbf684585	-0.9073108
27	0x3e93b2ff	0.288475
28	0x3f16b2a9	0.58866364
29	0x3f1174bf	0.56818765
30	0xbf4bd5df	-0.79623216
31	0x3eb5659f	0.35429093
32	0xbf11f774	-0.5701821
33	0xbd200be0	-0.039073825
34	0xbe4724a6	-0.19447574
35	0xbf55c03c	-0.8349645
36	0xbf7433bc	-0.9539144
37	0xbf286c00	-0.65789795
38	0x3f04c014	0.5185559
39	0x3ee67bf0	0.45016432
40	0xbf5ea8d6	-0.86976373
41	0xbebf92a6	-0.3741657
42	0x3c27f882	0.01025212
43	0xbf5d5548	-0.86458254
44	0x3f1a682c	0.60315204
45	0x3f7d6149	0.9897657
46	0x3e362091	0.1778586
47	0xbf21aab6	-0.6315111
48	0x3eb8b535	0.3607575
49	0x3eb9b252	0.3626886
50	0x3f58c96d	0.8468235
51	0xbf0835bc	-0.5320699
52	0xbf46b371	-0.77617556
53	0x3ee1fc6a	0.4413789
54	0x3e3d5116	0.18487963
55	0xbe892edf	-0.26793572
56	0xbea21d89	-0.3166316
57	0xbf03ff66	-0.5156158
58	0x3f4e388a	0.8055502
59	0xbe30ae18	-0.17253911
60	0x3f353ad8	0.70792913
61	0x3f63d9ab	0.8900401
62	0x3e03e93f	0.12881945
63	0x3e5e06fe	0.21682355
64	0xbd08234a	-0.03323678
65	0x3f350d9e	0.70723903
66	0xbf66adb2	-0.9010879
67	0x3ec9883e	0.39361757
68	0xbe26d6d0	-0.16292882
69	0x3ee74738	0.45171523
70	0xbb91f300	-0.0044540167
71	0xbebd9384	-0.37026608
72	0xbdc5a91e	-0.09651397
73	0x3f02cd45	0.51094466
74	0xbf1434fe	-0.5789336
75	0xbf21d140	-0.63209915
76	0xbe655f50	-0.2239964
77	0xbe9c5808	-0.30535913
78	0x3ecafd1e	0.39646238
79	0x3f2b96bf	0.67026895
80	0xbddb5680	-0.10709858
81	0x3f6a096b	0.9142062
82	0xbed5ec80	-0.41781998
83	0xbf0f8ef1	-0.56077486
84	0xbea822af	-0.3283896
85	0xbf30607e	-0.68897235
86	0xbf337066	-0.7009338
87	0xbf641998	-0.8910155
88	0xbf44c7c7	-0.76867336
89	0x3e885395	0.26626268
90	0x3f1a0f59	0.6017967
91	0x3f6da938	0.9283633
92	0x3f56f3b5	0.8396562
93	0xbd6be760	-0.057593703
94	0x3e3d5a92	0.18491581
95	0xbf18eed9	-0.5973945
96	0x3ec4271d	0.3831109
97	0xbf75769c	-0.9588411
98	0x3ef0ad38	0.47007155
99	0x3e419af4	0.18906766
100	0x3e9a8ac6	0.30184
101	0x3ed41573	0.41422614
102	0xbecc2e96	-0.39879292
103	0x3f6d16b6	0.9261278
104	0x3ef587c7	0.47955152
105	0x3f1dcd89	0.61641747
106	0x3e81ec02	0.25375372
107	0x3f1fde69	0.62448746
108	0x3f2b45e0	0.66903496
109	0x3f0c9874	0.54920125
110	0x3f45d20c	0.7727363
111	0xbe386471	-0.18007065
112	0x3f283923	0.65712184
113	0x3e9db08b	0.30798754
114	0x3f1a7e74	0.603492
115	0x3f782ee8	0.96946573
116	0x3e72b61f	0.23702286
117	0xbebd9ab4	-0.37032092
118	0xbdcbc4a0	-0.099496126
119	0x3eadbdc2	0.33933836
120	0x3e8ad87d	0.27118292
121	0xbe8bdcf4	-0.2731701
122	0x3f472b3c	0.77800345
123	0x3f14004b	0.5781295
124	0xbf1f03ee	-0.6211537
125	0xbda6dfc0	-0.08148146
126	0xbdc49860	-0.09599376
127	0xbf20716e	-0.6267308

actor_fc_3.weight f4 [128, 1]
0	0x3e155b00	0.14585495
1	0xbeac50a0	-0.33655262
2	0xbf0429b6	-0.51626146
3	0xbed71058	-0.42004657
4	0xbecd486e	-0.40094322
5	0x3f8e4e41	1.1117631
6	0x3ec4638c	0.38357198
7	0x3f8d510d	1.104036
8	0x3e8c635c	0.27419555
9	0x3e99df97	0.30053398
10	0x3f03fb21	0.5155507
11	0x3e7666eb	0.24062698
12	0xbf5aaa49	-0.85416085
13	0xbf1762f2	-0.59135354
14	0xbeb2d339	-0.34926775
15	0x3c764e00	0.015033245
16	0x3ec364be	0.38162798
17	0x3f071e58	0.52780676
18	0x3f67848c	0.90436625
19	0x3e2356f9	0.15951146
20	0xbec1d6be	-0.37859148
21	0xbf4c50de	-0.79810894
22	0xbf3b7f44	-0.73241067
23	0xbf18eb1c	-0.5973375
24	0x3e9a6bc8	0.30160356
25	0x3f2a5ee5	0.6655105
26	0x3f5d619b	0.8647706
27	0xbea1f39c	-0.31631172
28	0xbe1f72a7	-0.1557108
29	0xbed145e8	-0.40873647
30	0xbb6f7800	-0.0036540031
31	0x3ea45a4c	0.3210014
32	0x3d724586	0.059148334
33	0x3deae5ca	0.1146961
34	0x3e01ba48	0.12668717
35	0x3ec77e9b	0.3896378
36	0xbe9b576c	-0.30340135
37	0xbf2e980f	-0.68200773
38	0x3eaba578	0.3352468
39	0xbdf27ea0	-0.11840558
40	0xbf0c886c	-0.54895663
41	0x3f053504	0.5203402
42	0x3ceeeb4c	0.029164933
43	0xbe14f4b0	-0.14546466
44	0xbef03014	-0.4691168
45	0xbe5b5b26	-0.21421489
46	0xbf7701ed	-0.96487314
47	0x3e87db90	0.265347
48	0x3c75de80	0.015006661
49	0x3f3b6bad	0.73211175
50	0x3d9f3d87	0.07775407
51	0x3da3be00	0.07995224
52	0x3ec0fd67	0.3769333
53	0x3f6b64c8	0.91950655
54	0xbf17a6c7	-0.5923886
55	0x3f1964cc	0.5991943
56	0x3eb91667	0.36149904
57	0xbf497ba2	-0.78704274
58	0x3eb2458c	0.34818685
59	0xbf198822	-0.5997335
60	0xbea12af4	-0.31478083
61	0xbf159f8a	-0.5844656
62	0xbf4935d1	-0.7859774
63	0x3f47011c	0.7773607
64	0xbf6df48a	-0.9295126
65	0x3f0000fc	0.500015
66	0xbf66672e	-0.9000119
67	0xbe70e1e1	-0.23523666
68	0x3d734bd8	0.059398502
69	0x3f5adcc9	0.8549314
70	0xbed141ab	-0.40870413
71	0x3ecf02f1	0.40431932
72	0x3e6fd4c2	0.23421004
73	0x3f32a4c2	0.6978265
74	0x3d738380	0.05945158
75	0x3eececb3	0.46274337
76	0xbf2841a0	-0.65725136
77	0xbf37e41a	-0.7183243
78	0x3f82df16	1.022433
79	0xbf4a4c74	-0.7902291
80	0xbe951e4f	-0.29124686
81	0xbe633b64	-0.22190624
82	0x3f8d4987	1.1038064
83	0xbea6f306	-0.32607287
84	0xbf42e4d8	-0.7613044
85	0xbeb0dfce	-0.3454575
86	0x3f207e70	0.6269293
87	0x3efee7bb	0.4978617
88	0x3f710f3a	0.9416386
89	0xbe89fc7c	-0.26950443
90	0x3f0c6957	0.54848236
91	0xbf70e800	-0.94104004
92	0x3eebcce5	0.4605476
93	0x3eeb3ed4	0.45946372
94	0x3f435136	0.76295793
95	0xbf2d5d39	-0.6772037
96	0xbe88b164	-0.26697838
97	0x3e77bc70	0.24192977
98	0xbf35ead8	-0.7106147
99	0xbf4ba4a4	-0.79548097
100	0xbf764870	-0.9620428
101	0x3d64a680	0.05582285
102	0x3f3b7a9d	0.7323397
103	0x3ea6d755	0.3258616
104	0x3d1b9d70	0.03799194
105	0x3eea7cf3	0.45798454
106	0xbf2f1d08	-0.68403673
107	0x3dd7e990	0.105425954
108	0xbe7e62c0	-0.24842358
109	0xbef82ec0	-0.48473167
110	0x3f7b4506	0.98152196
111	0xbf2d3ece	-0.6767396
112	0x3e0cced5	0.13750775
113	0xbf60f34e	-0.87871253
114	0xbd0af6c0	-0.033926725
115	0xbee3836c	-0.44436204
116	0x3ed41325	0.41420856
117	0xbf0fc0f4	-0.561538
118	0x3f23d9a2	0.64003956
119	0xbf454ca6	-0.7707008
120	0x3f37266b	0.71542996
121	0xbf404d4c	-0.75117946
122	0x3f28f95c	0.6600549
123	0xbf010dd7	-0.5041174
124	0xbb18ac00	-0.002329588
125	0xbe3ae230	-0.18250346
126	0x3f4b19f9	0.79336506
127	0x3ea7cbe8	0.32772756

actor_fc_3.bias f4 [128]
0	0xbf61969c	-0.88120437
1	0x3e214ef0	0.15752769
2	0xbf309ad2	-0.6898624
3	0x3f3f74b9	0.7478748
4	0x3e5d03e9	0.21583523
5	0xbdd84d6f	-0.10561644
6	0xbf029a76	-0.5101694
7	0x3eb2e8c2	0.34943205
8	0xbf195152	-0.5988971
9	0x3eebe679	0.46074274
10	0x3f0fa068	0.56104136
11	0x3f1d7bbc	0.6151693
12	0x3ea15c0e	0.31515545
13	0xbf60182c	-0.87536883
14	0x3f3bd43a	0.7337071
15	0xbe9ed59c	-0.31022346
16	0xbe94d98e	-0.2907223
17	0xbcd9d013	-0.026588475
18	0x3f3e8f99	0.7443786
19	0x3f3b0686	0.7305683
20	0x3e55412c	0.20825642
21	0x3f075393	0.528619
22	0xbf6e975a	-0.93199694
23	0xba001a37	-0.0004886719
24	0xbf627aa0	-0.8846836
25	0x3eadb9a4	0.33930695
26	0xbf38fbc1	-0.72259146
27	0xbeb67aac	-0.35640466
28	0x3f2f2785	0.68419677
29	0x3f734311	0.9502421
30	0xbf19b288	-0.6003804
31	0xbf0e1532	-0.5550109
32	0x3ddef13c	0.108858556
33	0x3ec2e80f	0.38067672
34	0xbe26c800	-0.16287231
35	0xbe971385	-0.2950708
36	0xbf2826e8	-0.65684366
37	0x3ee569c3	0.44807252
38	0x3f7af320	0.9802723
39	0xbef7d938	-0.48407912
40	0x3ef22c63	0.4729949
41	0x3ef72381	0.48269275
42	0x3f488c1e	0.783388
43	0xbde92c30	-0.11385381
44	0x3e053b6b	0.13010947
45	0x3f2c4d82	0.6730577
46	0x3f251557	0.64485687
47	0x3f779029	0.96704346
48	0xbe92b950	-0.28657007
49	0x3eca31d5	0.39491144
50	0x3f300d31	0.6877013
51	0xbf2dc6e2	-0.67881596
52	0x3e513d78	0.20433605
53	0xbd868402	-0.06568147
54	0x3f257c46	0.6464275
55	0xbee4d563	-0.4469405
56	0x3d95a504	0.07306865
57	0x3f190f10	0.5978861
58	0xbf6a86a4	-0.91611695
59	0xbf58281e	-0.84436214
60	0xbf031e7e	-0.512184
61	0x3f24d067	0.64380497
62	0x3f2e0e5c	0.6799066
63	0xbf31744c	-0.6931808
64	0x3e858298	0.26076198
65	0xbf07a646	-0.5298809
66	0xbeeda56c	-0.4641527
67	0x3f5ac3ba	0.85454905
68	0x3ef1e275	0.47243086
69	0xbe03e795	-0.1288131
70	0x3e4d7f8a	0.20068184
71	0x3e4c238d	0.19935437
72	0x3e7165c9	0.23573984
73	0xbe7ab199	-0.2448181
74	0xbf16c134	-0.58888555
75	0x3f2823f8	0.65679884
76	0x3e4ddbcd	0.20103379
77	0x3ef1f7f7	0.47259495
78	0xbe7fc9de	-0.2497935
79	0x3f057d5e	0.5214442
80	0x3f38536e	0.72002304
81	0x3f1a8441	0.60358053
82	0x3e90b542	0.2826329
83	0x3f78ee9f	0.97239107
84	0xbb0f5400	-0.0021870136
85	0x3e65c106	0.22436914
86	0x3f72eb38	0.94890165
87	0x3f782729	0.96934754
88	0xbea384b6	-0.31937188
89	0x3f614220	0.87991524
90	0x3ec21f92	0.3791471
91	0xbde53f90	-0.11193764
92	0x3f604cc0	0.8761711
93	0xbf049d90	-0.5180292
94	0x3f28b8c8	0.65906954
95	0x3f7d8d68	0.99043894
96	0xbf309052	-0.68970215
97	0xbf171054	-0.5900929
98	0xbf7dac8c	-0.9909141
99	0xbe384810	-0.1799624
100	0xbf688008	-0.9082036
101	0xbeab7ae4	-0.33492196
102	0x3e9ff1aa	0.31239063
103	0x3f36a82a	0.7135035
104	0x3f084920	0.5323658
105	0x3f0fc09c	0.56153274
106	0x3ee6ab70	0.4505267
107	0xbf1ec79c	-0.6202333
108	0xbf4b4340	-0.7939949
109	0x3e098220	0.13428545
110	0x3f73c306	0.9521946
111	0x3e3eadc0	0.18620968
112	0xbdc4a328	-0.09601432
113	0xbf2dc1bc	-0.6787374
114	0xbefdde84	-0.49583828
115	0xbf455752	-0.77086365
116	0x3f4e6962	0.8062955
117	0xbe26d708	-0.16292965
118	0xbf622712	-0.88340867
119	0x3e5a0b39	0.21293344
120	0x3d9b5627	0.07584792
121	0xbdfd0710	-0.12354863
122	0x3ebc31e4	0.36756814
123	0x3f0d3f41	0.5517464
124	0xbf70beb8	-0.94041014
125	0xbf441e96	-0.7660917
126	0xbcd3c944	-0.025852807
127	0xbf6d58e6	-0.92713773

fc1.weight f4 [128, 1536]
0	0xbcf128f0	-0.029438466
1	0x3c1c80cf	0.009552195
2	0xbca357de	-0.01993936
3	0xbcaac519	-0.020845937
4	0xbb132fa4	-0.0022458816
5	0x3d898730	0.06715238
6	0x3dddd3e8	0.108314335
7	0x3cd41c23	0.025892323
8	0xbc15c428	-0.009141006
9	0x3d2294bb	0.03969262
10	0x3cf2a173	0.029618
11	0x3b86b3eb	0.0041108034
12	0xbc9e8d57	-0.019354505
13	0xbcc830b5	-0.024437288
14	0x3d220916	0.039559446
15	0x3c512848	0.012765951
16	0x3c0f59f2	0.008749472
17	0xbd186017	-0.037201013
18	0xbc89ad67	-0.016806317
19	0xbcfa6069	-0.03056355
20	0xbc64cb60	-0.013964504
21	0x3c813a6d	0.01577493
22	0xbc2fed2c	-0.0107376985
23	0x3c950a8c	0.018193506
24	0xbbe8ca8e	-0.0071042245
25	0x3d9c28ba	0.076249555
26	0x3dc058a2	0.09391905
27	0x3d9ce545	0.07660917
28	0xbc5423c7	-0.012947983
29	0x3de713a2	0.112830415
30	0x3bfa528a	0.007639234
31	0x3bdd7c61	0.006759212
32	0x3c828565	0.015932748
33	0xbc4c9a20	-0.012487918
34	0xbb15629b	-0.002279437
35	0xbb67681d	-0.003530986
36	0x3c8a0559	0.016848253
37	0x3d7f2cc0	0.062298536
38	0x3bae63ab	0.00532194
39	0xbc8a6df9	-0.016898142
40	0xbb582815	-0.0032982875
41	0xbcc68f3d	-0.024238223
42	0xbbe2c938	-0.00692096
43	0xbb6fbac5	-0.003657983
44	0x3ca5e3b3	0.020250177
45	0xba4a1faa	-0.0007710407
46	0x3be03e1d	0.006843342
47	0xbcbcf8ad	-0.023067797
48	0xbc91f18a	-0.01781537
49	0x3bc80d65	0.0061051124
50	0x3aae3cb1	0.0013293234
51	0xbcaa5069	-0.020790296
52	0xbd2c33df	-0.042041656
53	0x39701928	0.00022897555
54	0x3d3024ab	0.04300372
55	0xbb035fd3	-0.002004613
56	0x3c31f684	0.010861997
57	0xbcff8b1f	-0.031194268
58	0x3b5135f6	0.0031923032
59	0xbc642750	-0.013925388
60	0x3c91cdc7	0.017798318
61	0x3ca465f6	0.02006815
62	0x3bb579f7	0.005538221
63	0x3c9868c9	0.018604653
64	0xbd136234	-0.035982326
65	0xbce19e0e	-0.027541187
66	0xbc5ee7ec	-0.013605099
67	0x3d1f1d16	0.038846098
68	0x3d6e9bfa	0.05825422
69	0xbc099cc4	-0.008399192
70	0x3ba2413d	0.0049516247
71	0x3c613a22	0.01374677
72	0xbd03ec0f	-0.032207545
73	0x3b46820a	0.0030289912
74	0xbc6191e5	-0.013767694
75	0x3bfdb48c	0.00774247
76	0x3cef9cf2	0.029249642
77	0x3d0386ef	0.032111105
78	0x3bf63daf	0.0075146775
79	0x3cbd2b1e	0.023091849
80	0xb97392ba	-0.00023228946
81	0xbbcbd3a6	-0.006220299
82	0xbd014c15	-0.031566698
83	0xbc620102	-0.013794186
84	0xbce48f26	-0.02790029
85	0xbcc0603f	-0.023483394
86	0xbb923b1d	-0.0044626133
87	0xbac5c201	-0.0015087725
88	0xbcc457e8	-0.023967698
89	0x3c138b6b	0.009005408
90	0x3d0ad485	0.03389408
91	0x3c8c7f4b	0.017150542
92	0x3c729b14	0.014807481
93	0xbb3c6509	-0.0028746745
94	0xbbece773	-0.0072297393
95	0xbd14996e	-0.036279134
96	0xbb2de9bf	-0.0026537029
97	0xbcaf69fe	-0.021412846
98	0x3c9d1e6d	0.019179547
99	0x3d59c51c	0.053166494
100	0x3b4d0836	0.0031285412
101	0x3cb80216	0.022461932
102	0x3cd0b9b7	0.02547918
103	0x3b05bbb0	0.002040606
104	0xbaddec68	-0.0016931416
105	0xbbcea2fc	-0.0063060503
106	0x3c8b8f3d	0.017036075
107	0xbcafd0b3	-0.02146182
108	0x3ae209c0	0.0017245337
109	0xbd1cd5ea	-0.03828994
110	0xbcaf1449	-0.021371977
111	0xbbb90f56	-0.00564758
112	0x3c9e706d	0.019340718
113	0x3c0a3401	0.00843525
114	0xbd13df94	-0.036101893
115	0x3d143ce3	0.03619088
116	0xbcaefbe9	-0.021360354
117	0xbc82b5cd	-0.01595583
118	0xbd029ec1	-0.03188968
119	0xbd40c0a0	-0.0470587
120	0x3ce554b5	0.027994493
121	0xbcc993ca	-0.024606604
122	0xbbcd6900	-0.0062686205
123	0x3df2127f	0.11819934
124	0x3e01372b	0.12618701
125	0xbb1b7b03	-0.0023724444
126	0x3c78035b	0.015137519
127	0xbb81aebe	-0.0039575985
128	0xbc98f113	-0.01866964
129	0xbd80887c	-0.06276032
130	0xbb9b9d9c	-0.004749013
131	0xbbd55ffc	-0.0065116864
132	0x3c815518	0.015787646
133	0xbabbc870	-0.0014326703
134	0x3c05812c	0.008148473
135	0xbcddfe9c	-0.027098946
136	0x3c7f9e93	0.015601772
137	0x3cab32b1	0.020898195
138	0xbce562e3	-0.028001254
139	0xba7c2344	-0.0009618292
140	0xbcb15b08	-0.021649852
141	0x3c3198e8	0.010839678
142	0xbcb69eb8	-0.02229248
143	0xbc45a83f	-0.012064039
144	0x3cd0d9a4	0.025494404
145	0xbcc798d1	-0.02436486
146	0x3c9a29d2	0.01881877
147	0x3b093aea	0.0020939657
148	0x3ca63572	0.020289157
149	0xbc533bda	-0.012892688
150	0x3c894ad8	0.016759321
151	0x3b49c160	0.0030785426
152	0x3b009ca0	0.0019624606
153	0x3c8eaa3e	0.017415162
154	0xbcc6aea3	-0.024253195
155	0xbc03d5ae	-0.008046551
156	0x3d07d35d	0.033160556
157	0xbba34f39	-0.0049838093
158	0xbc8a7f91	-0.016906532
159	0x3c27f701	0.010251761
160	0xbc83eef0	-0.016105145
161	0xbc426b61	-0.011866421
162	0xbce5f3e1	-0.028070392
163	0xb99ec61f	-0.0003028372
164	0xbcb4997f	-0.022045849
165	0x3c0482f8	0.008087866
166	0x3c1ee841	0.009698928
167	0x3ca87b15	0.020566503
168	0x3c355c4f	0.011069371
169	0xbcb840a2	-0.022491757
170	0xba8f5196	-0.0010934349
171	0x3b3e5c22	0.0029046615
172	0xbb2496dd	-0.0025114336
173	0xbc9eb525	-0.019373486
174	0xbc938fc7	-0.018012894
175	0x3cb25fc9	0.02177419
176	0xbb9cc34e	-0.0047840243
177	0x3bf9b5cc	0.007620549
178	0x3bea771d	0.0071553127
179	0xbc9ba375	-0.01899884
180	0xbcd05c26	-0.025434565
181	0xbcdc8ac8	-0.026921645
182	0xbc9c5dd6	-0.019087713
183	0x3b2d4aca	0.0026442283
184	0xbc7b3bed	-0.015334112
185	0x3d2c42f2	0.04205603
186	0x3d5e84a7	0.054325726
187	0x3ba8dbfb	0.005153177
188	0x3c5713a9	0.013127246
189	0x3be10e4f	0.006868161
190	0x3d3de5c2	0.046361692
191	0x3d4244bd	0.047428835
192	0x3d28b08d	0.041183997
193	0x3bb90841	0.005646736
194	0xbd090461	-0.03345144
195	0xbc221e0a	-0.009894857
196	0xbc7b8302	-0.015351059
197	0xbc118a3b	-0.008883054
198	0xbc754534	-0.014970113
199	0xbbc4444b	-0.0059895865
200	0x3d0fc7c8	0.035102636
201	0xbc8b2623	-0.016985958
202	0xbd46d53f	-0.04854321
203	0xbd092bb1	-0.033488933
204	0xbd565d04	-0.0523348
205	0x3c1a471f	0.009416371
206	0xbcba405a	-0.022735763
207	0xbc85e8e0	-0.016346395
208	0xbc1aa966	-0.009439802
209	0xbb181d0f	-0.002321068
210	0x3c68d134	0.014210034
211	0xbc595345	-0.013264482
212	0x3aae5305	0.0013299888
213	0xbc7a6ea1	-0.015285165
214	0xbbaa2d9f	-0.0051934267
215	0x3c9b8d31	0.018988224
216	0xbcfb0de6	-0.030646276
217	0x3c65653b	0.014001186
218	0x3e0d6ce0	0.13811064
219	0x3dd59f32	0.10430755
220	0xbcac296f	-0.02101585
221	0xbcd5e6d5	-0.026111046
222	0x3b9c4d20	0.004769936
223	0xbcf9e00b	-0.03050234
224	0xbc08eacb	-0.00835676
225	0xbc9d2e9c	-0.019187264
226	0xbce1d00d	-0.027565027
227	0xbc4cdf1b	-0.012504364
228	0xbbffd149	-0.007806931
229	0xbca3749a	-0.01995306
230	0x3c2ac4ee	0.010422928
231	0xbcdeeeef	-0.027213542
232	0xbb789f04	-0.0037936578
233	0xbc3aad2e	-0.011393828
234	0xbcec44dd	-0.02884143
235	0xbc5c6008	-0.01345063
236	0x3b33acf5	0.0027416323
237	0x3b6ebf1e	0.0036429833
238	0x3c6d7177	0.014492384
239	0x3a4ea5ed	0.0007883001
240	0xbc917005	-0.01775361
241	0xbcb51e05	-0.022109041
242	0xbc8f0977	-0.017460568
243	0xbce1442e	-0.02749833
244	0xbc91fb00	-0.017819881
245	0xbcf092d9	-0.029366897
246	0x3b1b29c9	0.002367603
247	0x3c249a2a	0.010046521
248	0xbb924498	-0.0044637434
249	0xbc8dd9da	-0.017315794
250	0xbd6d2d93	-0.05790479
251	0xbcb2761d	-0.021784836
252	0x3c2ce6c3	0.010553065
253	0xbaab1bc7	-0.0013054543
254	0x3d0b5fce	0.034026913
255	0x3cc5001a	0.0240479

fc1.bias f4 [128]
0	0xbc010c52	-0.007876473
1	0xbc9e4010	-0.019317657
2	0x3ba2a500	0.004963517
3	0xbce504c5	-0.027956376
4	0x3cd6a20a	0.026200313
5	0x3c85d348	0.016336098
6	0x3d13fa0c	0.036127135
7	0xbca582e7	-0.02020402
8	0x3bc73140	0.006078869
9	0x3cc6477b	0.024204006
10	0x3b4ce7da	0.0031266124
11	0x3c9eef98	0.019401357
12	0x3bc82cfa	0.0061088772
13	0xbcb868be	-0.022510882
14	0x3d24e637	0.040258612
15	0x3c5a26df	0.013314932
16	0x3cfa39cb	0.030545136
17	0x3b22f8dc	0.002486757
18	0xb84ec1e4	-4.9294802e-05
19	0x3c38a86f	0.011270626
20	0x3c704028	0.014663734
21	0x3cf1b522	0.029505316
22	0xbca8f171	-0.02062294
23	0xbc6acf4b	-0.014331649
24	0xbc897824	-0.01678092
25	0xbb5e161f	-0.0033887697
26	0x3cb89a0d	0.022534395
27	0x3c4f568c	0.012654912
28	0x3a87847e	0.0010339168
29	0xbc372eca	-0.011180589
30	0x3d3903ab	0.045169514
31	0xbc94a2b9	-0.018143998
32	0x3c106fc0	0.008815706
33	0x3ccb6cd0	0.02483216
34	0xbace01ff	-0.0015717148
35	0xbc6c3fc5	-0.014419501
36	0x3c4f1772	0.012639867
37	0x3bfe837e	0.00776714
38	0xbb8c4ba8	-0.00428148
39	0xbc8b6419	-0.017015504
40	0x38eab307	0.00011191336
41	0x3cf31844	0.029674657
42	0xb954c61e	-0.000202917
43	0x3d0d223b	0.034456473
44	0x3cc39f5b	0.023879698
45	0xbb3aa299	-0.0028478263
46	0x3cb47c4e	0.02203193
47	0xbb2f43ca	-0.0026743286
48	0x3cabb0a4	0.020958252
49	0xbc936de9	-0.017996745
50	0xbabfc0d4	-0.0014629611
51	0xbb66b3d8	-0.003520241
52	0x3cb38114	0.021912135
53	0xbc04f08f	-0.008113994
54	0x3b982a20	0.0046436936
55	0xbb366413	-0.0027830645
56	0x3b33f3fb	0.0027458656
57	0xbcd54c02	-0.02603722
58	0x3bf6b133	0.007528448
59	0x3d06c82a	0.032905735
60	0xbc1a0d50	-0.009402588
61	0xbb5bfe67	-0.0033568384
62	0x3bf621e7	0.0075113657
63	0xbc667e1c	-0.014068153
64	0xbc13146f	-0.00897704
65	0x3caca15b	0.021073034
66	0x3c9c5c8d	0.0190871
67	0xbc6adeda	-0.0143353585
68	0xbcb4baab	-0.022061666
69	0x3cc54f13	0.024085557
70	0x3c5869e3	0.013208839
71	0x3c797358	0.015225254
72	0x3c0ad0b0	0.008472607
73	0xbc20e84e	-0.009821011
74	0x3b1b24a2	0.0023672958
75	0x3cc7fb0a	0.024411697
76	0xbc5c2e07	-0.013438708
77	0xbccdd33c	-0.025125138
78	0xbcafbb4b	-0.021451613
79	0x3d07df90	0.03317219
80	0xbc01c128	-0.007919587
81	0x3c2415f6	0.0100150015
82	0x3ba4f3de	0.005033954
83	0xbcc2e368	-0.023790076
84	0x3aa26313	0.0012389146
85	0xbb689cde	-0.003549389
86	0xbc21c67a	-0.009873981
87	0xbc61f406	-0.01379109
88	0xbb512331	-0.0031911845
89	0x3c8a6241	0.016892554
90	0x3c55e2ff	0.013054608
91	0xbc145b42	-0.009054961
92	0xbc5e30be	-0.013561426
93	0x3c9c8881	0.019108059
94	0xbc628bd2	-0.013827281
95	0xba193fe7	-0.0005846009
96	0xbc99db5b	-0.018781355
97	0x3c1624cd	0.009164047
98	0x3cfbb1c0	0.030724406
99	0x3a262581	0.0006337986
100	0x3cd62233	0.026139354
101	0x3c126e75	0.008937468
102	0x3cd28629	0.025698738
103	0x3b11707b	0.0022192288
104	0xbcab8247	-0.020936145
105	0x3a9a002a	0.0011749316
106	0xbb4246fd	-0.0029644363
107	0xb9deac47	-0.00042471496
108	0x3c1c7bfa	0.009551043
109	0x3c75040c	0.014954578
110	0x3c8a11cd	0.016854191
111	0xba8e06d4	-0.0010835775
112	0xbbbeabd3	-0.005818823
113	0xbb587122	-0.0033026417
114	0xbc96ad07	-0.018393053
115	0x3c068fa0	0.008212954
116	0xbc9181b8	-0.01776205
117	0x3d0879d1	0.0333193
118	0x3c49930c	0.012303125
119	0xbca8eba8	-0.020620182
120	0x3d0216bb	0.03175996
121	0xbcbf2601	-0.023333551
122	0xbca77c16	-0.020444911
123	0xbc2af5d1	-0.010434584
124	0x3c5bf0c7	0.013424105
125	0xbc20b1b9	-0.009807997
126	0x3d1b55f4	0.03792377
127	0x3aa8b450	0.001287112

fc3.weight f4 [6, 128]
0	0x3d07529e	0.033037774
1	0xbdc763e4	-0.097358495
2	0x3d70394a	0.058648385
3	0x3c7bdcc2	0.015372457
4	0xbcaf76a9	-0.021418886
5	0xbc710a3d	-0.014711914
6	0x3e2dadc5	0.16960819
7	0xbbac5882	-0.0052595744
8	0xbd6d086e	-0.057869367
9	0x3d39b0f6	0.04533478
10	0x3d8219b4	0.06352559
11	0xbe6612ca	-0.22468105
12	0x3e1ae7e6	0.15127525
13	0xbd882606	-0.066478774
14	0x3dd85cac	0.10564551
15	0x3e2806d6	0.16408858
16	0x3e374df8	0.17900836
17	0xbe66acfd	-0.22526927
18	0xbe85cfc3	-0.26135072
19	0x3dc3dd6d	0.09563718
20	0x3d933bd2	0.07189144
21	0xbdcbed85	-0.09957413
22	0x3cc17a0b	0.023617765
23	0xbe819a91	-0.25313237
24	0x3d05a4da	0.032627918
25	0x3cfca30a	0.030839462
26	0xbc2b5ea2	-0.010459574
27	0x3d8041d6	0.06262557
28	0x3c6bbbf3	0.014388072
29	0x3db57bd7	0.08861511
30	0x3e1eaba9	0.1549517
31	0x3d8fab71	0.07015122
32	0x3d01b319	0.03166494
33	0xbe3c2e2f	-0.18376993
34	0x3d6e64e2	0.058201678
35	0xbe488447	-0.1958171
36	0xbcc8c4ab	-0.024507841
37	0xbe24790f	-0.16061805
38	0xbcd91967	-0.02650137
39	0xbe539087	-0.20660602
40	0xbe3c92e6	-0.18415412
41	0xbd1a8ede	-0.037733905
42	0xbe1081ac	-0.14111966
43	0x3d640d6e	0.05567687
44	0xbe9c77ca	-0.30560142
45	0xbd96581b	-0.073410235
46	0xbd908e6a	-0.07058413
47	0xbd8f3b57	-0.0699374
48	0xbe1e0cb5	-0.15434535
49	0xbe7e86ee	-0.24856159
50	0xbe589252	-0.21149567
51	0xbc396360	-0.011315197
52	0xbc820340	-0.01587069
53	0x3cadf13d	0.021233195
54	0xbd995d7c	-0.07488534
55	0xbe9298f0	-0.28632307
56	0xbe837820	-0.25677586
57	0xbce14bb9	-0.027501928
58	0xbe34ab4d	-0.17643471
59	0x3d97e6e3	0.07417085
60	0xbdde2613	-0.10847106
61	0x3d8ca8b4	0.06868115
62	0xbd56a963	-0.052407634
63	0xbdabacda	-0.08382578
64	0x3d760ec3	0.06007267
65	0x3dc419f7	0.09575265
66	0x3dfd6011	0.12371839
67	0xbc926e4f	-0.017874865
68	0x3d30fc02	0.043209083
69	0xbe1a0c6f	-0.15043806
70	0xbe72e098	-0.23718488
71	0x3dec045c	0.11524269
72	0x3d76a175	0.06021257
73	0xbe8c788d	-0.27435723
74	0x3ccd23c9	0.025041478
75	0x3d200b0b	0.03907303
76	0x3c9d06fe	0.019168373
77	0xbd5555b6	-0.052083693
78	0x3d9b63e2	0.075874105
79	0xbe2d0977	-0.16898142
80	0x3d8931e7	0.06698971
81	0x3d4c11d6	0.049821697
82	0xbd323bf4	-0.043514207
83	0x3c8788d6	0.01654474
84	0xbd15eb3e	-0.036601298
85	0xbcb6a122	-0.022293631
86	0x3c0f2c12	0.0087385345
87	0x3c8b27e0	0.016986787
88	0x3cdbc575	0.026827553
89	0x3d83819b	0.06421205
90	0xbd715141	-0.05891538
91	0x3e054169	0.13013233
92	0xbcc820c5	-0.024429688
93	0x3c102760	0.00879845
94	0xbe7116b7	-0.23543821
95	0x3db7795b	0.089586936
96	0xbca6191a	-0.020275641
97	0x3d415c4d	0.047207166
98	0x3d793e7b	0.0608506
99	0xbe4c3ba6	-0.19944629
100	0xbe8f2381	-0.27956775
101	0x3d39b677	0.045340028
102	0x3dbdb4c9	0.09262998
103	0xbd0837ef	-0.033256467
104	0x3c9db138	0.019249544
105	0x3d5b3be3	0.05352391
106	0x3dac9c70	0.084282756
107	0xbe576ae1	-0.21036865
108	0xbe1feedc	-0.15618461
109	0x3b13037c	0.0022432497
110	0x3ddeb014	0.10873428
111	0xbe30c3a8	-0.17262137
112	0xbe7b4d17	-0.24541126
113	0xbc90b341	-0.0176636
114	0x3d01b2b1	0.031664554
115	0xbd59cdd3	-0.053174805
116	0x3d39d2d4	0.045367077
117	0xbe28491f	-0.16434143
118	0x3cb989c7	0.022648705
119	0x3d406bbe	0.04697775
120	0xbe7df4ea	-0.24800459
121	0xbcd5923a	-0.026070703
122	0x3c9076d4	0.017634787
123	0xbe3ef083	-0.18646435
124	0xbdb3b904	-0.08775523
125	0xbcc4fd5a	-0.024046589
126	0x3deaada6	0.11458902
127	0x3dc86807	0.09785467
128	0xbca4115e	-0.020027813
129	0xbda5c948	-0.08095032
130	0x3d840818	0.06446856
131	0x3d54c089	0.05194143
132	0xbd7e956e	-0.062154226
133	0x3cb5d0de	0.022194322
134	0xbd08ab37	-0.03336641
135	0xbc843489	-0.016138332
136	0xbcbee8cd	-0.023304367
137	0x3c50e737	0.012750438
138	0xbc3bcc2b	-0.011462252
139	0xbe00fd16	-0.12596545
140	0xbd5d75c0	-0.054067373
141	0x3d91eb86	0.07125001
142	0x3db9ac28	0.09066039
143	0x3d28a3a1	0.041171674
144	0xbd7640ab	-0.060120266
145	0xbc57d094	-0.0131722875
146	0x3d0753f6	0.033039056
147	0xbd5acf4c	-0.05342035
148	0x3cc0fa67	0.023556901
149	0xbd23f8bf	-0.040032145
150	0x3da14cb1	0.07875956
151	0xbde94f0b	-0.113920294
152	0xbd1eb788	-0.038749248
153	0xbd23c879	-0.039986107
154	0x3bae1988	0.005313102
155	0x3d488b5e	0.048961036
156	0xbd4c5ec8	-0.049895078
157	0xbdad2657	-0.08454578
158	0x3cfb3490	0.030664712
159	0x3c97927f	0.018502472
160	0xbd0d3916	-0.03447827
161	0xbcc6e4a8	-0.024278954
162	0x3d8b1512	0.06791128
163	0xbcdbb74d	-0.026820803
164	0xbd30400d	-0.043029834
165	0xbdeecea4	-0.11660507
166	0x3d97a500	0.07404518
167	0x3cde237d	0.027116532
168	0xbcf79ada	-0.030225206
169	0xbda3e85d	-0.08003304
170	0x3d0c0ed9	0.034193847
171	0xbcfac383	-0.030610805
172	0x394d9894	0.00019607163
173	0xbd4560b1	-0.048187915
174	0xbd951d82	-0.07281019
175	0xbc2358af	-0.009969874
176	0x3c863c90	0.0163863
177	0xbd5a2b37	-0.05326387
178	0xbb42b58a	-0.0029710256
179	0xbcbbd1f0	-0.022927254
180	0xbd501bfc	-0.050807938
181	0x3c4c30b8	0.012462787
182	0x3d91e6f3	0.07124128
183	0xbc987544	-0.018610604
184	0xbd20d565	-0.03926601
185	0xbc80e44f	-0.015733866
186	0xbd23bc47	-0.039974477
187	0x3cf9ed26	0.030508589
188	0x3bbf8200	0.0058443546
189	0x3d69f120	0.05711472
190	0x3c9f16d5	0.019420067
191	0x3d1c2dfa	0.038129784
192	0x3d98c2e1	0.07459045
193	0xbbb7956e	-0.00560253
194	0xbcef566c	-0.029216014
195	0x3d799738	0.06093523
196	0xbd8e14f6	-0.06937592
197	0x3badd316	0.0053047044
198	0x3c411c7a	0.0117865745
199	0xbb5d89fe	-0.0033804174
200	0xbd9d6c61	-0.07686687
201	0xbda35601	-0.07975388
202	0xbdb06718	-0.086134136
203	0xbcb864ff	-0.022509096
204	0xbd39e1a4	-0.045381203
205	0x3caa0be3	0.020757621
206	0xbd381eb6	-0.044951163
207	0xbdc01050	-0.09378111
208	0x3d254b27	0.040354874
209	0xbd4e07a3	-0.05030025
210	0x3d6cad5c	0.057782516
211	0xbd535979	-0.051599
212	0xbd3e6be9	-0.04648963
213	0x3da22541	0.07917262
214	0xbd72e692	-0.05930192
215	0xbd0dd7e7	-0.03462973
216	0x3d8014c5	0.062539615
217	0xbd18a4b8	-0.037266463
218	0xbd534a99	-0.051584814
219	0x3dc955ac	0.09830794
220	0xbdfe3121	-0.12411714
221	0xbd385ace	-0.045008473
222	0xbd82606a	-0.06366046
223	0xbd6fda67	-0.058557894
224	0x3c3ae4a0	0.0114070475
225	0xbd2866d4	-0.04111369
226	0xbd774970	-0.06037277
227	0x3cce4b49	0.025182383
228	0x3c8ab349	0.016931193
229	0xbcf9da11	-0.03049949
230	0x3d5c7bf3	0.053829145
231	0x3b555add	0.003255538
232	0x3da304d9	0.07959909
233	0x3d0122b8	0.03152725
234	0x3cfb57ac	0.030681454
235	0xbd7a2c9d	-0.061077703
236	0xbdaaa549	-0.08332307
237	0xbd5db50e	-0.054127745
238	0xbd1f4f55	-0.038894016
239	0xbd5d82a3	-0.054079663
240	0xbdd76e0e	-0.10519038
241	0xbcb4a77b	-0.022052517
242	0xbdbd9a6c	-0.09257969
243	0xbd61c76e	-0.05512183
244	0xbd44a804	-0.048011795
245	0xbd7d2b2d	-0.061808754
246	0x3da4dd3b	0.08050009
247	0xbd4a0038	-0.049316615
248	0xbdd6d18a	-0.10489185
249	0x3bfd61c8	0.0077326037
250	0xbd138ab4	-0.03602095
251	0xbda52515	-0.080637135
252	0x3d365b09	0.04452041
253	0x3d0fb6f9	0.035086606
254	0xbd8c1d58	-0.068415344
255	0xbd672a26	-0.05643668
