Results/checkpoints/abr_critic100.pt (torch, 798994 bytes, 11 tensors)

critic_conv1.weight f4 [128, 1, 4]
00000000: 8955 a1be 9461 2e3e a127 71bd 93d0 233d
00000010: 3c14 53bf c561 853e d2cd e1be 1fa4 153f
00000020: 4f43 003f 974a cb3e 7093 523e 0c8c 943e
00000030: b8d7 85be 96c8 d6be 9248 b0be 0896 a9bd
00000040: 6be7 49be d83f 86bd 4023 553f 22fb 76bf
00000050: 7b37 063f c894 86bd 3a7a f63d 3090 363f
00000060: 34f1 a6bd af5b 8f3e 2eda ebbd 1b1c 8e3e
00000070: 41de 353f bb8d 293e a0d4 e9be f975 87be
00000080: 9e15 013e 8014 1abf 7ed8 6c3e 29ef ce3e
00000090: e959 c1be 31a2 eebe 8740 493f 8e70 89bc
000000a0: 329f 083f e937 eb3e 12e3 983e c911 3dbf
000000b0: 169c 1a3f 8617 6a3e 8136 22be e1d2 3ebe
000000c0: 3ae9 02c0 0f64 863e cb01 2fbe b642 8fbd
000000d0: cdff 2f3e 0be0 2d3e f909 793d f1a1 ca3e
000000e0: 0039 6ebe c547 1abf 8d81 49bf 6b49 ebbf
000000f0: c919 64bf 0dbf 82bf f719 aa3e e141 37be
00000100: af82 febe 8b95 833f 9f18 ad3e fe69 903d
00000110: 0966 f43e 3435 ff3e 4f3e bb3e 4d87 4b3f
00000120: c5ad 8bbd 91eb 57bd 0304 9f3e 47cc 51bf
00000130: c6b4 6e3e 8454 273f 866b cbbd 5c63 8bbe
00000140: f8ec c4be 18c5 a73d d0f0 d9be 0c50 b3be
00000150: 60c4 66bd 8799 c0bd 23da aa3e 4cbe 82bf
00000160: 5c5a 263f 0789 36bf 9546 713f d5ce f7bd
00000170: d751 d83e 3dc9 94be f8fd 52be 0c0b 0e3f
00000180: 6115 e23e cb4a ca3e 78a8 9cbe 233d 103f
00000190: 1a21 d53e 0c82 a33e b4a2 d2be 1194 e83e
000001a0: 68f7 9b3c 20c1 d53e dcf0 513f e797 28bf
000001b0: 12c7 b93e afc5 acbe 8ea4 dcbe 89a9 dd3e
000001c0: a2ed 81bd c750 cb3e b61e 993e b245 54bf
000001d0: da08 023f f6e4 a03e 1b7d f03d d2a6 013f
000001e0: 491b 13bc 465d b2be f504 84bf e10c 9abf
000001f0: dc59 25bf ea22 a93e 2b7c 32bf 71a5 2c3f
00000200: 6bd5 873e 0b3e 02bf ee5b b23e 27fb 0f3f
00000210: 009e 1b3e 2454 253f ba95 5a3f 3738 37bf
00000220: 2962 7dbf 49bb bcbe 12bf 853e 04e0 133f
00000230: 5fd4 c1bf b8f7 3b3e 686d 62be 8552 1fbe
00000240: f79d f6be 62e5 993e 81fe 363f b15d 99be
00000250: 6bf6 18be 696b cb3d 485d 5ebe e622 843f
00000260: c377 653d 7fec 0c3f ae25 313e cdc9 00bf
00000270: 3d4b 4fbf c44d 34bd ddc2 c93e f840 d43e
00000280: e9d0 853e 601d 3f3e aa88 2d3e 3629 013e
00000290: 0136 afbd 8e77 9ebe a7bb d93e 08fa fb3e
000002a0: 5ee1 6dbf d4e4 a4be 51f0 ec3b 1195 ba3e
000002b0: 94b0 e3bc fd2b ae3e 898a 1fbd 05f5 85bf
000002c0: cee8 7b3e 6b41 11bf 2305 14bf 5135 943f
000002d0: ff47 57bf a002 543f 6fc5 a7be 8def abbd
000002e0: dcdb 783e 89f7 2bbe 79c3 ba3e c79b ac3e
000002f0: 1165 363e 920d e13e d5a5 0a3f 4d1a f8be
00000300: 5234 ef3d cf64 523d e4e5 a4bd ff5d 91bf
00000310: 40c4 39bd 10d4 843d a009 3fbd be41 f0be
00000320: 3d18 b13e 74ec 88be e68b 01bf 8a24 bebf
00000330: 7076 593d 28d9 f8bd a469 54be 5a65 d3be
00000340: 28c7 f53e a0f5 ef3e a2a5 28bf 6d99 dd3e
00000350: bc7f 153f b107 243f f147 003f 1c27 873e
00000360: 05ec af3e 69cf 30be f8f8 48be 730b ff3e
00000370: 6b4d 4b3e 5ff1 153f 4f5d 863e 6973 a63e
00000380: 45e8 7d3e bed5 a4be 2ddf 3cbe 056f ee3c
00000390: e6be a0be 431d 6fbe cfa7 65be 00a1 7b3f
000003a0: 8c9f a5be 20ae c13c 98f1 e23d f06c a3bd
000003b0: 1ccb 0d3f b2d4 e13d 7ebf 61be 8ef9 37bf
000003c0: 00f8 b539 1025 f9bd 20b4 adbe d01e 94bd
000003d0: e657 2d3f b3f3 2cbe 4fed ff3e f4c3 9e3d
000003e0: 8858 76be f4b6 4a3e 3a29 37bd 1c99 0e3f
000003f0: 4b29 aebd 7fa7 7a3d c955 633e 4966 b73e
-0.3151057 0.1702941 -0.058875684 0.039993834 -0.8245275 0.26051155 -0.4410234 0.58453554
0.50102705 0.39705345 0.20564055 0.29013097 -0.26141143 -0.4194991 -0.34430367 -0.08280569
-0.19717185 -0.06555146 0.8325691 -0.9647695 0.52428406 -0.065713465 0.120350316 0.7131376
-0.081514746 0.27999637 -0.11516224 0.27755818 0.7104226 0.16557972 -0.45670033 -0.26457193
0.12605903 -0.6018753 0.2312946 0.4041684 -0.37763909 -0.46608117 0.78614086 -0.016777303
0.5336791 0.45941094 0.2986074 -0.73855263 0.6039442 0.22860536 -0.15841104 -0.18635131
-2.045485 0.26248214 -0.17090528 -0.06995146 0.17187424 0.16979997 0.060800526 0.39576676
-0.23263931 -0.6026576 -0.78713304 -1.838178 -0.89101845 -1.0214554 0.33222935 -0.17896225
-0.4970908 1.0280012 0.33807847 0.070514664 0.47734097 0.49845278 0.36570975 0.7950333
-0.06820253 -0.052714888 0.31057748 -0.8195233 0.23311147 0.65363336 -0.09932618 -0.27224243
-0.38462043 0.081918895 -0.42566538 -0.35022008 -0.05633962 -0.09404283 0.3336955 -1.0214324
0.6498163 -0.7130284 0.94248325 -0.12099997 0.4224994 -0.29059783 -0.20604694 0.55485606
0.44156936 0.39510188 -0.3059728 0.5634329 0.41626817 0.31935155 -0.41139758 0.45425466
0.01903887 0.41748905 0.8200815 -0.65856785 0.3628469 -0.3374457 -0.43094295 0.43293408
-0.06344153 0.39710066 0.29906243 -0.82918847 0.50794756 0.31424683 0.11742612 0.5064517
-0.008978673 -0.34836787 -1.0314013 -1.203518 -0.6459024 0.3303445 -0.69720715 0.67439944
0.26530012 -0.5087592 0.34835762 0.56242603 0.15196991 0.64581513 0.85384715 -0.7157015
-0.98977906 -0.36861637 0.26122338 0.57763696 -1.5142936 0.18356216 -0.22112048 -0.15558822
-0.48167393 0.30057818 0.7148209 -0.29954293 -0.14937751 0.09932596 -0.21715271 1.032315
0.056022417 0.55048364 0.1729953 -0.50307924 -0.8097418 -0.044019476 0.3940648 0.41455817
0.26135948 0.1866355 0.16946664 0.12613377 -0.08555222 -0.30950588 0.4252598 0.49214196
-0.9292201 -0.32205832 0.0072307964 0.36441854 -0.02779416 0.34017935 -0.038950477 -1.0465399
0.24600527 -0.56740445 -0.5782034 1.1578771 -0.8409423 0.82816505 -0.32767817 -0.083953
0.2430262 -0.16793646 0.3647726 0.337126 0.17811991 0.43955666 0.5415929 -0.48457566
0.11679901 0.05136567 -0.08051661 -1.135681 -0.045353174 0.0648576 -0.04664004 -0.46925157
0.34588805 -0.267429 -0.50604093 -1.4854901 0.053091466 -0.12150794 -0.20743424 -0.41288263
0.48003507 0.46867085 -0.65877736 0.43281117 0.5839803 0.64074236 0.50109774 0.26397026
0.34359756 -0.1726662 -0.19626224 0.49813423 0.19853751 0.5857143 0.26243064 0.32509926
0.24795635 -0.32194322 -0.1844451 0.029105673 -0.31395644 -0.23351006 -0.22427295 0.9829254
-0.32348287 0.0236426 0.110812366 -0.079797626 0.55388045 0.110268965 -0.22045705 -0.71865165
0.00034707785 -0.12165272 -0.33926487 -0.072324395 0.6771225 -0.16889839 0.4998574 0.07752219
-0.2405721 0.19796354 -0.04471705 0.55702376 -0.0850397 0.061194893 0.22200693 0.35820225

critic_conv1.bias f4 [128]
00000000: ffa6 113f cc3d 9abb 8bd8 233e 36df c4be
00000010: 9f70 07bd 9dd4 ff3d 8698 40be 4f33 d2bd
00000020: 84ae 6c3d a2c1 cbbd cf1e e5be ace8 153f
00000030: 99ad 883e b500 563e ab27 3e3f 2836 423e
00000040: 3b53 7d3e 92fc b6be 5d43 773e dba0 293f
00000050: 48ba bebe cee1 ad3e 3080 b93e 5025 90be
00000060: 70df 523e 7d5c cdbe 1f80 e83e 14ab 46be
00000070: b8da b83d f919 123e eb49 153f 807c a53c
00000080: 3509 2c3e ebfb 043f 41e2 41bd a089 373e
00000090: 646f 063f bbb5 b13e 9478 f93e cecb 62bd
000000a0: 95bc a3be 394f 65be fdcc ac3e eba3 2e3f
000000b0: c271 1fbd 927d e6bd 1e14 babe d129 1e3f
000000c0: 4e3e fd3e b471 6ebe 0e6b 003f 0c3f 35be
000000d0: 69b4 b13e 586d 3e3d 98c8 ffbe 1ac9 e43d
000000e0: e847 01bf a699 84be 4627 97be d60f 293e
000000f0: ccad debe 074c 813e 6a4f 97be 1d83 30bd
00000100: 61b0 cb3d 796f 053f a05c a63e 5b24 153f
00000110: 4ade de3e 838e 0a3e fd17 293f 3ec2 ec3e
00000120: d90f f53e 1685 05bf b583 54bd 319f 5d3e
00000130: 8e0c 4f3e 5a5d 433d d0fe 7fbe 6c67 1a3e
00000140: 8ad4 36be c8a5 1a3f cc19 1f3e d4ee c43e
00000150: a872 22be 5c54 a93e 6bf4 133f 04a5 0c3e
00000160: 624b 88be c6d0 97bd 80a2 59bd 87cb 45bd
00000170: cd98 90be 9595 c83e 9af0 043f a1a2 9c3e
00000180: a005 b73c 124a c0be 555d 31be 8644 c7bd
00000190: 5a35 c7be 5113 153e e3f3 1b3f 67b0 163f
000001a0: f84a d1be 0633 8a3e 0516 6a3e 7152 dfbe
000001b0: d603 8a3e 7e7a dbbe 9afc b0bc 1474 3abe
000001c0: 05e3 bd3e 149a bebc 30ee 2cbe 820b 843e
000001d0: 7412 c5be 2f45 563e 0220 bc3e 500a f03e
000001e0: 7228 a3bc 9693 7bbc 2c87 82be c905 7f3e
000001f0: b683 c33e 3e73 7d3e 72ec f1be 1bd4 96be
0.5689544 -0.004707074 0.16000573 -0.38451546 -0.03306639 0.12491725 -0.18808183 -0.102636926
0.05778362 -0.09949042 -0.44750068 0.58558154 0.26694945 0.20898707 0.7427928 0.18965971
0.24738781 -0.3573957 0.24146791 0.6626107 -0.37251496 0.33961338 0.36230612 -0.28153467
0.20593047 -0.40109625 0.4541025 -0.19401199 0.09026092 0.1426772 0.58315915 0.020200968
0.16800387 0.51946896 -0.047334913 0.17923594 0.5251372 0.34708962 0.48724806 -0.055370145
-0.31979814 -0.22393502 0.33750144 0.6821887 -0.038926847 -0.112544194 -0.36343473 0.61782557
0.49461597 -0.23285562 0.5016335 -0.17699832 0.34707955 0.046490997 -0.49957728 0.111711696
-0.50500345 -0.25898474 -0.2952215 0.16509947 -0.43491971 0.25253317 -0.29552776 -0.04309379
0.09945751 0.5212322 0.32492542 0.582586 0.43528968 0.13530926 0.6605223 0.46241945
0.47863653 -0.521562 -0.051883418 0.21642758 0.20219633 0.04769645 -0.24999547 0.15078515
-0.17854515 0.6040921 0.15537184 0.3846346 -0.1586405 0.33072174 0.5779483 0.13734823
-0.26620013 -0.07412867 -0.053133488 -0.048289802 -0.28241578 0.39176622 0.5192963 0.30592826
0.02234155 -0.3755651 -0.1732076 -0.09729867 -0.38907892 0.1455815 0.60919017 0.5886292
-0.4087751 0.26992053 0.22859962 -0.43617585 0.26956052 -0.42866892 -0.021604825 -0.18208343
0.37087265 -0.02326683 -0.16887736 0.2579003 -0.3849064 0.20924829 0.3674317 0.46882868
-0.019916747 -0.015355011 -0.25493753 0.2490455 0.38186425 0.24750993 -0.47250706 -0.294587

critic_conv2.weight f4 [128, 1, 4]
00000000: e3e8 243e 1d3d 853e 69c1 c83e ff0b bcbd
00000010: b545 c13d c0ff 043e 0115 123f 8f4a 023e
00000020: 8093 533c 9c5a 8abe 20cd 31bd 2864 4cbe
00000030: b401 c0bc 9507 d7be 63f5 3ebf 3112 bc3e
00000040: 5b10 dd3e 3c76 1d3e bd70 9cbe e79e 023f
00000050: 456d b53e eb43 cb3e 2e0a f73e 2bd7 21bf
00000060: a8c4 4c3f 3506 d93c 9344 c83c c8a8 933e
00000070: e8e3 adbd d5f4 ee3e b1b8 8dbe 7715 02bd
00000080: 9167 9d3d 2eec 523d 0528 3c3f dda0 ecbd
00000090: 5a52 8fbf b29c abbd 421c 103e 0c4c 583e
000000a0: 40b6 203f d1bd 32bf 0fd7 e4be 52fc 44bf
000000b0: 1953 903e 42fd 7abd 9581 72bf ed2a 4cbf
000000c0: 6c0f 223f 1c8f c9be afe1 ecbe cc56 8cbf
000000d0: ccea 863e a005 acbe f4c0 cd3e f20d f8be
000000e0: e8af 833f 2ac7 fb3c dfa5 2d3c ba43 b8bc
000000f0: 71a4 f53e 3c4d 573d 2e94 003f 0597 253f
00000100: 272f e0bd 661c 41be fd72 223e de58 a5be
00000110: c577 3dbf 4fc7 1d3e fdca c83e 65ba 76be
00000120: 7a2d 7bbe 1c6d 7ebe b941 1cbe 191b ecbe
00000130: 24cd 993d dd19 a23d 264e bf3e 5859 fd3e
00000140: e8e6 af3e d5a5 14be e597 c73e d6f3 1d3f
00000150: 53a1 0d3f 0c5a afbd 90ef f8bd 717c 1d3f
00000160: 0c90 58bd e447 a2bd 572f 0ebd 3467 abbd
00000170: b0a7 21be 37d1 f8bd d085 23be 6503 e23e
00000180: c908 7abc f011 133e 9155 5f3e f1a9 b93e
00000190: ed30 eebf 3773 273e 87dd 583e b684 2b3e
000001a0: c56c 25be 50f0 3ebe 2800 053f d28c 223f
000001b0: a450 493c e445 1e3e bb16 143e 51f0 3f3f
000001c0: e5e5 e43e 2a0c 0b3f 9eaf d83c 247e b13d
000001d0: 9d14 48bf 6b21 b8bf 4780 d4bf 7fed 063f
000001e0: 1950 bbbf fdef 283d 7193 10be 1d79 d03e
000001f0: 462f 133f 25dc 1c3f 6344 de3d 51f9 6d3e
00000200: 459c 0c3b 55d4 1f3e 6509 153e 0446 4e3f
00000210: 4988 38be 2b48 523b 15ec f03e 69e5 e8bd
00000220: 1189 63be 14f0 1b3f b95c d03e 920b 193e
00000230: 7d38 cfbe 1a43 2a3d 35df d03d 981c 4f3f
00000240: 0048 08bf a76b 0c3f 2a11 133e 8f87 86be
00000250: fb75 89bf efe6 8ebe a07c 363b 7e2a f93e
00000260: 2949 023f 655c 1fbc 263d 66bc f6b9 8cbd
00000270: a120 873e 1a8b 06bf 43c1 643e ea5b b53e
00000280: 1783 853d cd2f 553e aa3b 873d f509 163f
00000290: 1b5f 093f 63c6 d03c 4984 bb3c ef9f 153f
000002a0: 423a 203f 3efb 903e 48f3 bcbe 0478 6a3e
000002b0: 9fe4 163f c598 7c3b 5d48 b0be d9d7 153f
000002c0: 15fb e33e 152b 86be 5da8 093d 5457 9fbe
000002d0: 1c6b 403e e5b4 3f3e e14b 9abd 93b3 81be
000002e0: 9451 643f cf1c 983e 9ea9 c93d 9045 b83e
000002f0: 7a75 253e f2bd 053e 1ad1 e03d 7b40 353f
00000300: 9f3b cc3e f6b0 0fbd abb9 51bd 6802 81bd
00000310: f4af ce3d b299 f93d de93 ca3e 9f6f ee3d
00000320: 9bbb 3e3f f4d1 25be e21a 63bc 0aef 0bbd
00000330: c299 7d3e 5cec 833e a8a5 f9bd c3e9 a43e
00000340: 1807 1ebe 13d3 463d 95e4 d73c 16ed 2b3f
00000350: e668 13bf 7d21 e6bd d3a2 fdbd eefb 8cbe
00000360: 200f 9f3d ed7e fd3d a3ad 583f e7a8 05bf
00000370: 32bb 083f fc20 023e c775 193f c3b9 843e
00000380: 387b 103e e12f fc3d 6847 2d3e 8852 a0be
00000390: a0a5 133f 66a0 a0be eaae 283f 9781 68be
000003a0: b435 8cbe d913 ed3e 9b23 263f 037a 8f3e
000003b0: 8928 c03d f7fa 0c3e 1671 423f a94a d03d
000003c0: f063 17bd d020 e4bd 002b 03be 1014 30be
000003d0: b186 103f a158 963e c766 79bd 97d6 e93c
000003e0: a0e3 d0be 7006 2dbe 000b fbbc c806 f9be
000003f0: 5ea1 26bf 7ef9 243e ce87 9c3e c26b 263f
0.16104464 0.26023188 0.3921006 -0.091819756 0.09437124 0.12988186 0.570633 0.12723754
0.012913585 -0.27022254 -0.043408513 -0.19960082 -0.023438312 -0.41997972 -0.7459318 0.3673263
0.4317654 0.15377134 -0.30554762 0.51023716 0.3543493 0.39700255 0.48249954 -0.63218945
0.79987574 0.026492218 0.024446761 0.28839707 -0.08490735 0.46671167 -0.2767997 -0.03175875
0.07685769 0.05149477 0.73498565 -0.1155412 -1.1197007 -0.08379497 0.1407328 0.2112276
0.6277809 -0.69820887 -0.44695327 -0.7694751 0.28188398 -0.06127668 -0.94728976 -0.79753
0.6330478 -0.39366996 -0.46265933 -1.0963988 0.2635101 -0.33598042 0.40186274 -0.4844814
1.0288057 0.030734617 0.010598629 -0.022493232 0.4797702 0.05256389 0.50226104 0.6468356
-0.109464936 -0.1885849 0.15864177 -0.32294363 -0.7401088 0.15408061 0.39217368 -0.24094541
-0.24529067 -0.2484631 -0.15259446 -0.46114424 0.075098306 0.07915089 0.3736431 0.49482226
0.34355855 -0.14516385 0.38983074 0.6170019 0.55324286 -0.08562097 -0.12155068 0.6151801
-0.05287175 -0.07923868 -0.034713116 -0.08369294 -0.15786624 -0.121492796 -0.15969014 0.44143215
-0.015260884 0.14362311 0.21809985 0.36262468 -1.8608681 0.16352545 0.21178256 0.16749844
-0.16154774 -0.1864636 0.51953363 0.63496125 0.012287293 0.15456349 0.14461796 0.7497607
0.44706646 0.54315436 0.026450928 0.086666375 -0.78156453 -1.4385198 -1.6601647 0.5270614
-1.4633819 0.041244496 -0.14118744 0.40717402 0.5749401 0.61273414 0.108528875 0.23239638
0.0021455449 0.15608342 0.14554365 0.80575585 -0.18020739 0.0032086472 0.47055116 -0.113718815
-0.22220255 0.60913205 0.40695742 0.1494582 -0.40472785 0.0415679 0.10198823 0.80903006
-0.53234863 0.54851764 0.14362016 -0.26275298 -1.073913 -0.27910563 0.0027845278 0.4866523
0.50892884 -0.009726618 -0.014052665 -0.06871407 0.2639208 -0.52556 0.22339348 0.35421687
0.06519144 0.20819016 0.06603177 0.58608943 0.53660744 0.025485223 0.022890227 0.58447164
0.62588894 0.28316683 -0.3690436 0.22897345 0.589426 0.0038543206 -0.3443021 0.5853248
0.44527498 -0.26204744 0.03360783 -0.31121314 0.18790859 0.1872135 -0.07534004 -0.25332317
0.8918698 0.2970948 0.09846805 0.35990572 0.16158095 0.1306074 0.10977383 0.70801514
0.39889237 -0.035080872 -0.051202457 -0.06299287 0.10092154 0.12187518 0.3956594 0.11642384
0.74505013 -0.16193372 -0.01386139 -0.034163512 0.24765685 0.25766265 -0.121897995 0.32209596
-0.15432394 0.04854114 0.026354114 0.6715864 -0.5758194 -0.11236856 -0.12384572 -0.27535957
0.07766557 0.12377725 0.8463995 -0.5221085 0.5341064 0.12707895 0.5994534 0.25922975
0.14109504 0.1231382 0.1692177 -0.31312966 0.576746 -0.31372374 0.658919 -0.22705685
-0.27384722 0.46304205 0.6489808 0.28022775 0.093827315 0.1376761 0.75953805 0.1017049
-0.036960542 -0.11139071 -0.12809372 -0.17195153 0.5645552 0.29364493 -0.06088903 0.028544707
-0.40798664 -0.16896987 -0.030644894 -0.48637986 -0.65089977 0.16110799 0.3057236 0.65008175

critic_conv2.bias f4 [128]
00000000: c78d 9c3e fb97 92be deb6 b7be 9751 803e
00000010: d2f1 ad3e 4a90 ca3e fc2d 9ebe 49c0 f93e
00000020: 07dc 8bbe ef20 a53e 9d61 15bd 8993 9d3e
00000030: 9f4d 393d 03c5 e23e a357 a2be 56da f2be
00000040: 2915 053f 016e b23e e685 3b3f 67a7 7dbe
00000050: a73f a0be 9a3e d73d 4dea 8db9 48cf 003f
00000060: 729a 8f3e cc39 1b3f 6bb6 e33e d715 a3be
00000070: 6449 9fbe d3b7 ef3e 250c cb3e 253a 5cbe
00000080: ceaa adbe 1442 3cbf 94ff 9d3e 5d30 07bf
00000090: 9021 5e3e 763b a83e d742 5cbf 97a7 553d
000000a0: bac2 993e 0f2e 91be ec11 6a3e 45a1 9b3e
000000b0: 6a47 3b3f d8b6 9cbe d423 d2be 7272 85be
000000c0: d91e 2bbf c0f9 8f3e b612 babe 9dee a83e
000000d0: 376f 76bf 1351 fe3e 3323 b23e f784 013f
000000e0: e1d1 d73e 8eac 4dbe 2ba7 e53e a17c dcbe
000000f0: 804a b3bb 1746 933e 9089 c3bd 65c2 13be
00000100: aa34 eb3e dbf4 623e 50ad 91bd 08d6 9c3e
00000110: de3f 883e 66d0 043f 2b71 9e3e 704d 45bf
00000120: b297 f0bd dc44 923e 9c67 54bd 3aa8 0bbf
00000130: 6c81 65be 1a30 6d3e 3763 15bf a626 a43e
00000140: c369 bf3e 38d1 87be 6c14 793e 64d4 e03e
00000150: c4fd a53c eb82 9c3e 14d1 cdbe 7e36 9f3e
00000160: ccb5 c6be 8969 043f 24d9 9a3e d85e 19be
00000170: 0c84 33bf d0cb 37bf b91e 11be 46c3 f73e
00000180: c4fb 3a3f 6a04 5bbe daac dd3e ec81 cfbe
00000190: 9b59 9bbe 5c04 a53e eeec f3be 8817 c6be
000001a0: 039a 74be f219 aa3e a6cc ef3e e490 143f
000001b0: 0289 9b3e 8ee7 b43e cbf7 933e 08c3 fb3d
000001c0: 7493 c5be a42b 953e 0a02 94be 3321 9fbe
000001d0: 0451 6fbf b21b 583e f23e 9e3e 3089 d4be
000001e0: db87 1abe ce7d d33e be2b f5be 48cf af3e
000001f0: 32ab f8be c732 133f 7631 e13e 1f39 293f
0.30576918 -0.28631577 -0.35881704 0.25062248 0.33973557 0.3956321 -0.30894458 0.48779514
-0.27316305 0.3225169 -0.036470044 0.30776623 0.04524004 0.44290933 -0.31707487 -0.47432202
0.5198541 0.3484955 0.7325119 -0.2477089 -0.31298563 0.10509987 -0.00027068183 0.50316286
0.2804752 0.60635066 0.4447511 -0.318526 -0.3111068 0.46819934 0.39657703 -0.21506555
-0.33919376 -0.7353833 0.30859053 -0.5280817 0.2169249 0.32857865 -0.8603949 0.05216178
0.30031377 -0.28355452 0.22858399 0.30396476 0.73155844 -0.3060825 -0.4104296 -0.26063877
-0.66843945 0.28120232 -0.363424 0.32994547 -0.9626345 0.4967123 0.3479248 0.50593513
0.42152312 -0.20085356 0.44854102 -0.43063834 -0.0054715276 0.28764412 -0.09547722 -0.14429624
0.45938617 0.22163717 -0.07113135 0.30632043 0.26611227 0.5188049 0.30945715 -0.77071285
-0.117476836 0.2856816 -0.051856622 -0.5455357 -0.22412652 0.2316288 -0.58354515 0.32060736
0.37385377 -0.2652681 0.24324197 0.4391204 0.020262606 0.30568632 -0.40198576 0.31096262
-0.38810575 0.51723534 0.3024379 -0.14977586 -0.7012336 -0.7179537 -0.14171876 0.4839117
0.73040414 -0.21388403 0.43295938 -0.4052881 -0.303418 0.32229888 -0.476417 -0.38689828
-0.23886876 0.3322292 0.46835822 0.58033586 0.30377966 0.35332912 0.2889999 0.12293059
-0.3858906 0.29134858 -0.28907806 -0.31080016 -0.93482995 0.21104315 0.30907398 -0.41510916
-0.15090887 0.4130692 -0.47884935 0.3433783 -0.48568112 0.57499355 0.43983048 0.66102785

critic_fc_2.weight f4 [128, 1]
00000000: a785 3f3f 624c 9e3f 401a abbd ffc1 97be
00000010: 5b6d 973f d50d d83e 91f5 53bf 8fdf 173e
00000020: fdec f1be 947b 03bf 3a57 c3bd 6e0b 07bf
00000030: f17d 04be 123b 5dbf 4483 eebd bb14 efbe
00000040: 94cb d63e 314b a13e f04b 3dbf fb16 1ebf
00000050: a6c4 13be 798d 3cbe 9e80 323f fe68 133f
00000060: 22db 80bd 5670 863e 12a4 3a3f e0a1 43bf
00000070: 5293 48bf 3690 89be 009a 213f e00e c5bd
00000080: cdfe fa3e 6835 1ebe 4982 65bf dd4b abbe
00000090: 13a0 b73e 65fd 92be d414 cabe e21b 1a3f
000000a0: e9de a2be 89bd 023d a072 1e3d 11d1 043f
000000b0: c427 1bbf aaed 2dbe e2d9 59bf 9ac5 96bf
000000c0: 5718 fa3e 1ea6 f3be 4843 e2be 5443 103f
000000d0: 1ed4 f43e 78fd 8e3f 7a01 8a3e bea8 fe3e
000000e0: 985e 4bbe 441e 72bf 7514 233f abb8 193f
000000f0: 3820 20bf 2621 a53e e735 d8bd b410 a1be
00000100: 97b2 863e a003 f23d 79e0 48bf 36a4 1fbe
00000110: 5a1c 0d3f 41c1 e8be 1dd0 1fbe f818 dfbe
00000120: 0626 c53e 80da 333d 880f b1be cca1 e7bd
00000130: c5be 063f 6e3f 9ebd 2af7 41bf cad3 d53e
00000140: 7269 0bbf 5776 9c3f ec2c a13e c501 91be
00000150: b4d4 273f 0638 c73e ad79 c7be 44a8 43bf
00000160: ab17 bcbe 3426 003f 782f 173f d3ce 17be
00000170: 98e9 483f a45b f6be 27ca d2be d3cf 4a3f
00000180: 3224 2dbf 9db7 4ebe a8b4 7bbf 126f 1a3f
00000190: 8037 723c af24 8f3f 7867 46be e2aa 193f
000001a0: 2799 4a3f 6f03 833f 3160 893e e0fd 53be
000001b0: be2f 6ebf ba2b 58bf 8010 e2be 7f26 653f
000001c0: f0d4 82bd 0834 763e 1367 df3d 72f2 7cbf
000001d0: fba7 03bf f495 543f f087 543e 5d8d cdbe
000001e0: f467 c5be 4ed2 10bf 1851 8dbd 044b 83be
000001f0: 5f85 fb3e bf03 1ebe c43e ecbe 0822 eebe
0.7481331 1.236706 -0.08354616 -0.29640195 1.1830248 0.42198053 -0.8279658 0.14831375
-0.4725112 -0.5136044 -0.095381215 -0.52751815 -0.12938668 -0.8641826 -0.11646131 -0.46695504
0.41952193 0.3150268 -0.73943996 -0.61753815 -0.14430484 -0.18413343 0.69727504 0.5758208
-0.06291796 0.2625758 0.729066 -0.76418877 -0.7834979 -0.26867837 0.6312561 -0.09621978
0.49022523 -0.1545006 -0.89651924 -0.33456317 0.35864314 -0.2870895 -0.39469016 0.60198796
-0.31810692 0.031919036 0.038683534 0.5188151 -0.6060755 -0.16985193 -0.8509809 -1.1779053
0.48846695 -0.47587675 -0.44191957 0.56352735 0.47818083 1.1171103 0.26954252 0.49738115
-0.19860303 -0.9457743 0.6370309 0.60047406 -0.6254916 0.32251853 -0.10557156 -0.31458056
0.26308128 0.11817098 -0.7846752 -0.15589985 0.55121386 -0.4545994 -0.15606733 -0.43573737
0.38505572 0.04390955 -0.34582162 -0.11310157 0.5263484 -0.07726942 -0.7576777 0.41763145
-0.5445777 1.2223614 0.31479585 -0.28321663 0.65558934 0.3890993 -0.3896002 -0.7642863
-0.36736807 0.50058293 0.59056807 -0.14824991 0.78481436 -0.4811679 -0.41169855 0.79223365
-0.67633355 -0.2018723 -0.98322535 0.6032573 0.01478374 1.118307 -0.19375408 0.6002637
0.7913994 1.0235423 0.268312 -0.20702314 -0.930416 -0.8444172 -0.44153214 0.89511865
-0.06388271 0.24043286 0.10908332 -0.9880744 -0.5142819 0.8304131 0.20754981 -0.40146914
-0.38555872 -0.565709 -0.06900233 -0.2564317 0.49125192 -0.15431117 -0.46141636 -0.4651034

critic_fc_2.bias f4 [128]
00000000: af0f d5be a80f 17bf 68a9 72be 365b 8b3f
00000010: 9cd7 21bf 9d9e 063d 990b 103f fdce 2a3e
00000020: d10e a23f 702d 2ebf 7016 da3e 8d70 173f
00000030: c886 84b7 b0f1 05bf c944 ef3e ef34 a13f
00000040: eceb 5b3d 341e 403e b0f7 d0be f132 9ab7
00000050: 11de 133f 4ad3 3c3f b527 74be b033 4dbe
00000060: efbe c7b7 731f 343e 523e 05bf c5d2 523f
00000070: b429 6dbf 57a2 893f eeb0 d2be 730e e33e
00000080: 4532 16bf 9911 1e3f d984 3e3f 27aa 603f
00000090: d815 a03b 2719 933f 5716 363f 8497 e4be
000000a0: 2cb8 953f 1a8d bd3e dc19 5cbf fee7 7bbe
000000b0: 8042 8fbc b829 82b7 6c46 753f daa4 3c3f
000000c0: e1eb 3abe 8b49 a23f 00cc c1bb 9cdc aa3e
000000d0: d80f 823d 8267 10bf 939f 9abd dc5d d3bd
000000e0: a427 90be 86a9 53bf e123 8abe 432f 2ebe
000000f0: c458 03bf 30bc 233e f47b e8b7 1031 adbd
00000100: 6d87 3f3e 1ec2 23bf a251 823f e671 1f3f
00000110: 4d1a 01bf 8666 55b7 fe81 80b7 689c 9abe
00000120: 0050 15bf 4001 25bf 7ae8 53bf 0b40 e73e
00000130: 036f cebd a8fd 02b8 ce91 4fbf 086e 173d
00000140: 1095 09bf e6a6 18bf 8588 dd3d a75c 423f
00000150: ad40 023f caa2 b9be 7331 2f3f 2a99 05bf
00000160: 11e1 4a3f 6878 e7be b3a1 4cbf 29ae 173f
00000170: a48b abbe 6ead 49b9 c24a 423f a5d8 e7be
00000180: 4eb2 31bf 3ca4 4e3f b08d 91be ff1b c8be
00000190: 8497 a8be 1839 f6be a84b 64be c51c 88be
000001a0: 853a 27bf 9a85 07be 7427 0f3e d43a 25bf
000001b0: 3069 eebe 14ba 233f 2c2a f9be 6ba6 3ebf
000001c0: bc2d eebe cd77 7d3e 97f4 4c3e 7703 133f
000001d0: c1d8 b23f 6f58 f0be cc95 2fbe d602 9a3f
000001e0: a824 eebe 37d4 563f 31e6 88b5 924e 7abf
000001f0: bac9 22be b5dc 1d3f 8dc3 993f eed0 41bf
-0.41613528 -0.59008265 -0.23697436 1.088721 -0.6321962 0.03286611 0.56267697 0.16680522
1.2660772 -0.6803808 0.42595243 0.59156114 -1.5798389e-05 -0.5232191 0.46732166 1.2594279
0.05369179 0.18761522 -0.4081397 -1.8381952e-05 0.5776072 0.737599 -0.23843272 -0.20039248
-2.3811559e-05 0.17590122 -0.5204822 0.8235286 -0.9264176 1.0752667 -0.41150612 0.4434696
-0.58670455 0.617456 0.7442146 0.8775963 0.0048854165 1.1492051 0.7112784 -0.44646847
1.169683 0.37021714 -0.8597696 -0.24600217 -0.017487764 -1.5516634e-05 0.9581058 0.73689044
-0.18254043 1.2678694 -0.0059142113 0.33371437 0.06350678 -0.5640794 -0.075499676 -0.10320637
-0.28155243 -0.8268055 -0.26980498 -0.17010216 -0.5130732 0.15989757 -2.7714275e-05 -0.084566236
0.18704005 -0.63968074 1.0181162 0.6228317 -0.50430757 -1.271966e-05 -1.5319321e-05 -0.30197453
-0.58325195 -0.6445503 -0.82776606 0.45166048 -0.100797676 -3.123065e-05 -0.81081855 0.03697017
-0.53743076 -0.59629667 0.10817055 0.75922626 0.5087994 -0.3625701 0.6843483 -0.52186835
0.79249674 -0.4520905 -0.79934233 0.5925012 -0.33504975 -0.00019233461 0.7589532 -0.45282474
-0.69412696 0.8071935 -0.2842841 -0.3908386 -0.32928097 -0.48090434 -0.22294486 -0.2658445
-0.6532367 -0.13234559 0.13979894 -0.6454289 -0.46564627 0.6395581 -0.48664987 -0.74472684
-0.46519268 0.24752732 0.20015179 0.5742716 1.3972398 -0.4694247 -0.17146987 1.2032115
-0.46512341 0.83917564 -1.0199784e-06 -0.9777614 -0.15897265 0.616649 1.2012802 -0.75709426

critic_fc_3.weight f4 [128, 1]
00000000: 0309 933f bea2 ad3b 14d7 323f 447f a0be
00000010: b0be 913d b0d6 b2bd 2c83 04bf 6451 7a3f
00000020: 3a42 91bf 8c5e 51bf 48ca f1be c000 0abf
00000030: aaad 293e 781b bfbf 60d4 a2bf 3254 2cbf
00000040: d8e7 e2be 601a a53d 8b61 b3bd 0b11 c13e
00000050: c827 8ebf 68f7 473e 0c56 803e 0ecc b9be
00000060: 80a9 693d 155c e8bd 13cd 4dbf d8c0 b0be
00000070: 4040 b1bd 4217 1bbf 9d07 033d 761d c0bf
00000080: 30d1 8cbd 5980 573d 5cfb 90bf 94a4 04bf
00000090: cd53 90bf b005 21bf 5233 72bf 9f27 d8be
000000a0: 58ba 513d 1801 753e 120e 71bf ac94 0bbf
000000b0: 37c7 133f 6135 82bf c7f6 12bf 9f40 1c3f
000000c0: 66c2 5ebf aef7 86be a9e7 38bf 26fd 55bf
000000d0: 4fde e03d 06c8 24bf cc8d 793f 90b5 ea3c
000000e0: c36a 143f 1394 79bf 43f5 293e 80de a9bd
000000f0: 1ac3 25bf aabc 75bf 3265 3fbf fd06 513f
00000100: 0d48 e43e aeda 93bf 1071 ea3e 08d8 53bf
00000110: 4651 3ebf 96b0 0a3f 6895 edbe df70 933f
00000120: fe3a 3d3f 1ca1 083d 758f b3be d690 833d
00000130: 4a53 48bf aebd 073f be5e 2cbf 0014 1b3e
00000140: 007b 4fbc dd9c 6abf e2e7 9f3d 6970 a5be
00000150: b0d2 cabe 9f09 bfbc 34cd 9cbf b1e6 85be
00000160: 7687 5abe 4b01 a0bf dad2 babf a185 3abf
00000170: a62a 163f 95f4 573f f9c1 8ebf c4e0 c33e
00000180: 908e bfbd 7bc3 4f3f c8d1 943c a088 20bd
00000190: 6963 a53d 8ff1 39be 0489 23bf 38aa 70bf
000001a0: 3e08 7dbf b43a e9be 5f1d 80bf 8ce1 a3be
000001b0: 1ec2 3abf 22cf 0f3f 3870 10bf f002 dfbe
000001c0: e462 0cbf c8f8 04be defd 5bbf 8042 513f
000001d0: 6c8d d2be b3f8 923f 9066 5b3f c21c a53e
000001e0: be25 0e3f c0b2 87bd 6a3c e6be 604f 3fbe
000001f0: 3a73 88bf 5852 16be b5c5 0f3f 4c27 bdbf
1.1487125 0.0052989414 0.69859433 -0.31347096 0.07116449 -0.08732355 -0.5176265 0.9778044
-1.1348336 -0.8178489 -0.4722464 -0.53907394 0.16570154 -1.4930258 -1.2721062 -0.6731597
-0.44317508 0.08061671 -0.08758839 0.37708315 -1.110589 0.19527972 0.2506565 -0.36288494
0.057046413 -0.11345688 -0.80391043 -0.34522128 -0.08654833 -0.60582364 0.031989682 -1.5008991
-0.06875837 0.052612636 -1.1326709 -0.51813626 -1.1275574 -0.62899303 -0.9460956 -0.42217728
0.051203102 0.23926198 -0.94162095 -0.5452373 0.5772585 -1.017254 -0.574078 0.61036104
-0.8701538 -0.2636084 -0.72228485 -0.835894 0.10979902 -0.6436771 0.9748199 0.028651029
0.57975405 -0.9749157 0.16597466 -0.08294392 -0.64750826 -0.95991004 -0.74763787 0.8165129
0.4458622 -1.1551111 0.45789385 -0.8275151 -0.74342763 0.541757 -0.4640305 1.151882
0.7391814 0.03335677 -0.35070387 0.0642411 -0.7825209 0.53023803 -0.67332065 0.15144348
-0.012663603 -0.91645604 0.078079 -0.32312325 -0.39613867 -0.023320017 -1.2250123 -0.26152566
-0.21340737 -1.2500395 -1.4595597 -0.7286015 0.58658826 0.8435758 -1.1152946 0.3825742
-0.093533635 0.81157655 0.018166438 -0.039192796 0.080756016 -0.18158554 -0.63880944 -0.94009733
-0.988407 -0.455526 -1.0008963 -0.32008016 -0.7295245 0.56175435 -0.5642123 -0.4355693
-0.54838395 -0.12985528 -0.85934246 0.81742096 -0.4112352 1.1482147 0.8570337 0.32248503
0.5552634 -0.06625891 -0.44967967 -0.18682623 -1.0660164 -0.14679849 0.5616105 -1.4777617

critic_fc_3.bias f4 [128]
00000000: 35b9 88be 8016 16bc 6f93 fbbe ae48 b4b6
00000010: 1041 62bf 784b 73be 186e cbbe 4ab2 2abf
00000020: 984b 2db7 7e44 68bf dc61 e5be 400d 9dbe
00000030: 9fdb e8bd 30b6 1eba 313a 10b7 ef08 32b6
00000040: cc2b 91be 18ca debe 10bd 9eb7 4c00 3e3e
00000050: 4405 803e 64a7 39bf 5025 febe 8b72 b7b6
00000060: 7c6c d2be 48e1 35b8 0c57 43b7 34c8 a4be
00000070: 6835 febe bbca 7bb7 7ebe 19bd 2405 573e
00000080: 907b 22bf 5cd3 66bd 6ec3 8bb8 4953 47b8
00000090: d0d9 15b8 2651 38bf e463 edbe 6767 f3b7
000000a0: 17dd 61bd 224c 53bf e0e9 0cbf 8ddf e7b9
000000b0: 76e0 b53d be72 13b7 35cf 56b6 e837 dabe
000000c0: ece5 12b6 fe58 81b8 5f43 1fb8 5cf3 9abe
000000d0: 8d96 98bd 471f 1bb8 1693 2bbf 3551 f5bc
000000e0: df64 c5be 6730 093f 382f f1bd 7415 3ebf
000000f0: cb7d 96b6 e4d5 3abf 8817 79bf 05a6 bdbc
00000100: f359 393e 5674 9eb7 5c80 2dbf 50bd 42bf
00000110: 90e4 c8bd de66 a83d 849c aebe 6750 5dbe
00000120: c770 01bf 6e98 09bd d764 a0b8 eefa 88bd
00000130: 3433 34bf acca 15bc d0a7 bbb8 188b 28bf
00000140: d870 16bf e979 2fb7 dd2b a6bd da7e 93b7
00000150: 083b 4fbf d243 f9b8 8b1e 48b8 ebdb f7b6
00000160: 19d3 f7b6 e2b4 86b7 1d17 f0b8 d503 a5b7
00000170: a653 47bf e3ed 11bf a143 553e 06c3 2fbf
00000180: 6c85 4cbf d9f3 0ebf c6aa 97bc 80a7 97bc
00000190: 64de 6abd 0e9f 50b7 a770 93b7 2c3a 4aba
000001a0: b8dd bbbe 7ac5 04bf 81f5 5eb8 68b0 1cb8
000001b0: a8e5 64bf ecb0 16bf b878 9abe 260f 4cbf
000001c0: 9ee9 29bf d0d4 a7bd 29af 61b6 a4b2 0ebf
000001d0: 5a4f 64bf 0e56 30be 1e57 19bf c044 5dbe
000001e0: cba2 ccbe 386f 00be 5b17 acb7 300c fdbe
000001f0: 8558 8cb8 005f dfbc 03c0 383e 5c4c 23b8
-0.26703802 -0.009160638 -0.4913592 -5.372879e-06 -0.8838053 -0.23759258 -0.39732432 -0.666783
-1.0329204e-05 -0.9072951 -0.44801223 -0.3067417 -0.113700144 -0.000605437 -8.596618e-06 -2.6529267e-06
-0.28353727 -0.4351356 -1.8923107e-05 0.18554801 0.25004017 -0.7252104 -0.49637842 -5.4671596e-06
-0.41098392 -4.3363572e-05 -1.1643173e-05 -0.32183993 -0.4965012 -1.5007968e-05 -0.037535183 0.20998055
-0.6346979 -0.05635391 -6.664438e-05 -4.7522863e-05 -3.5727222e-05 -0.7199882 -0.46365273 -2.9016008e-05
-0.05514249 -0.82538044 -0.55044365 -0.00044226312 0.08880703 -8.788598e-06 -3.2009095e-06 -0.42620778
-2.1889527e-06 -6.1677754e-05 -3.79713e-05 -0.30263793 -0.0745059 -3.698401e-05 -0.6702131 -0.02994595
-0.3855352 0.5358948 -0.117765844 -0.74251485 -4.4849926e-06 -0.7298262 -0.9730153 -0.023150453
0.18100719 -1.888924e-05 -0.67773986 -0.7607012 -0.0980922 0.08222745 -0.34103787 -0.21612702
-0.5056271 -0.033592634 -7.6481774e-05 -0.06688486 -0.7039063 -0.009142559 -8.9481124e-05 -0.6583724
-0.58765936 -1.0459197e-05 -0.08113835 -1.7582835e-05 -0.8094945 -0.00011885878 -4.771216e-05 -7.3867755e-06
-7.3857486e-06 -1.6058275e-05 -0.00011448397 -1.9671317e-05 -0.7786201 -0.5700361 0.2082658 -0.6865696
-0.79891086 -0.5584083 -0.018514048 -0.018512487 -0.057340994 -1.2434799e-05 -1.7576223e-05 -0.0007714357
-0.36692595 -0.51863825 -5.3157568e-05 -3.735759e-05 -0.8941293 -0.5886371 -0.30170226 -0.79710615
-0.66372097 -0.08194888 -3.362957e-06 -0.55741334 -0.8918358 -0.17220327 -0.59898555 -0.21608257
-0.3996795 -0.12542427 -2.0514874e-05 -0.4942336 -6.692208e-05 -0.02726698 0.18041997 -3.8933344e-05

fc1.weight f4 [128, 1536]
00000000: c516 493a c88c 8cbc dbc3 11bc 666c bfbc
00000010: 9cf0 b8bc bf59 703c 2883 8d3c 712e 523c
00000020: 2f80 8d3c 5c6f 55bb c4dc 73bc 0549 e3bc
00000030: 8639 57bc f60d adbc 91c9 df3a 4a94 c23c
00000040: e07e b4bb 9e91 a6bc eff0 6cbc 84b5 37bc
00000050: 2d09 a8bc ea64 54bc d27e 683c a803 96bc
00000060: b182 95bc 37b9 c1ba 021f 2e3c 47fd 663c
00000070: 8a69 e93b 8dcf 71bc 155d 80bc 8fe9 a5bc
00000080: f4b0 653c 53c0 833a 47e7 8b3a 5822 f3bc
00000090: 84e5 e2bc f2cf 89bc b1d1 3cbc 6dff 833a
000000a0: cdf1 ac3b dd78 803b 57fe 61bc fbce 87bc
000000b0: e10e 0ebc 7ba7 dfbc 8c6a e1bb 25bb bf3c
000000c0: 3db1 873c 6549 2c3c 6f2f fabc 780e 66bc
000000d0: 25cc f0bb df98 6e3c e7c4 babc cfe9 813c
000000e0: 0c5f 82bc 89cf 2cbc 9577 7d3c ac08 d2bc
000000f0: 1ce6 7e3b c58f a93c 6c83 333b 4651 943c
00000100: ddec a8b9 e3db bbbc 01b6 08bc bfec 7fbc
00000110: d9aa 9c3b f02d cfbc 9d5f adbb 110d 78bc
00000120: 2517 8f3c 89ad a53b e7e6 6a3c 57ff f63b
00000130: a0b5 373c 6df7 bbba 981c 393c b303 f3bb
00000140: c2bc d7bc e067 88bc f001 9d3c c291 403c
00000150: 6195 eabc f26e c2bc 0161 663a 036c 483c
00000160: 08c0 f2ba fdd6 a7bc 35e3 f8bb 3d8e fdba
00000170: d2e2 29bc 61cc 453c 0a0d d5bc e5a1 a93a
00000180: b8a8 e33b 7d56 1ebb 5b7f cbbc 54b5 c03b
00000190: a01d c63b 15d4 ccbc 88d2 04bc 5801 d5bb
000001a0: c2f9 883c 46c9 e5bc 2b61 8d3c 992b babc
000001b0: 1a5c cdbc 96c6 f5bb 1370 81bc a958 453b
000001c0: 7356 8fbb 81ea 0b3c 90fc 64bb 8a74 cabc
000001d0: bf37 a9bc d233 cdba aa18 83bc 4e8f ebbc
000001e0: f0a8 cfbc 8c3f b9bc 5d87 9bbb bbf1 8bbc
000001f0: f0ca 1f3c cf0e a8bc 2877 053c 8730 07bc
00000200: 1977 683b eacb 3cbc 4cce 4e3c e950 15bc
00000210: 129e 87bc e25d 49ba a6b7 0c3c 4da1 08bd
00000220: d39d bb3c 37f2 02bd 707d 31bc 2964 533c
00000230: 938a 2b3c 83eb c0bc 4106 803c 31a6 cbbc
00000240: c85c 9c3c 4a23 9fbc a292 e2bb 78b8 503c
00000250: 1172 46bc 898a 98b9 7442 6fbb cf8a 09bc
00000260: 7358 78bc a660 4abc 1a7f d0bc 6a2b b6bc
00000270: a0fa 743b 9a00 85bc 1b69 a23c 2b0c f8bc
00000280: 1528 5cbc 4a7a 853c 31d4 093c cb12 f1bc
00000290: 61e2 8d3c 54f3 c3bc 0e46 86bc bc22 193c
000002a0: 3eb3 56bc 8b91 493c 0a77 b43b 4421 403c
000002b0: 1b10 63bb 58a1 583c 07a7 2bbb cb66 fa3a
000002c0: 0e6f ac3b 40ec a0bc 24d3 2d3b 3e9d bdbc
000002d0: 9693 eb3a 2c93 b2bc 4e61 4d3c c075 cdbc
000002e0: d31b fdbc 1661 a0bc e6b7 a6b9 7a4c 033c
000002f0: 6089 2b3c 34bb 89bc d05c 6ebb 7fbc b939
00000300: b6e8 29bc e425 233b 3e90 853c 64e7 80bc
00000310: cedd 923c f6e9 8fbc 4e92 cabb 5d15 3b3c
00000320: 31da 62bc 26e1 b3bc b7f9 233c 14c0 55bc
00000330: 9be1 2ebc be77 293c 09f9 dabb 2f1b 133b
00000340: 326c 943b 8eba 4bbc f9fc 1c3b 76d6 b93b
00000350: 2606 883c fa0d 3dbb df1f 85bb e556 1d3c
00000360: 4ef6 e6bb 7d29 3d3c 0713 9ebc 0c0f b1bc
00000370: 68c4 e7bc a2c3 8bbc 46a6 bbbb 3cdf 4c3c
00000380: 2e92 313c 64e6 c2bc 0df5 c5bc c603 aabc
00000390: b4b5 763b 1275 d7bc 7125 9ebb b73e 8c3b
000003a0: c7dd eebc a9ce eabc 80d7 78bc 9c0c 20bc
000003b0: aef9 aabc b509 353c aa77 633c db6f 343c
000003c0: 29b4 2f3c 9e72 4e3c 9241 c1bc bb84 9ebc
000003d0: 94f3 893c d658 c1bc e8b9 c33b 3443 973c
000003e0: bc43 1b3c 2add 3dbc 96e1 903c cb36 763c
000003f0: 94d4 493c c363 00bc beec c3bb a028 d43b
0.00076709344 -0.017156973 -0.008896793 -0.023367118 -0.022575669 0.014669835 0.017274454 0.012828455
0.017273037 -0.0032567596 -0.014884178 -0.02774478 -0.013136273 -0.021124821 0.0017073621 0.02375235
-0.0055082887 -0.020333108 -0.01446174 -0.01121271 -0.020512188 -0.012963513 0.014190393 -0.01831229
-0.018250795 -0.001477993 0.01062751 0.014098472 0.007123177 -0.014758957 -0.015669385 -0.020252971
0.01401924 0.0010051824 0.0010673784 -0.029679462 -0.027697332 -0.016822789 -0.011524604 0.001007063
0.0052778483 0.003920658 -0.0137935495 -0.016578188 -0.00867054 -0.02730154 -0.0068791565 0.023404667
0.016564006 0.0105155455 -0.030540196 -0.014041536 -0.0073485547 0.0145628145 -0.022798968 0.015858559
-0.015914463 -0.010547527 0.015470405 -0.0256389 0.003889448 0.020698437 0.0027391566 0.01810516
-0.00032219934 -0.022931999 -0.008344174 -0.0156204095 0.004781109 -0.02529046 -0.005290939 -0.015139834
0.01746709 0.0050560874 0.014337278 0.007537763 0.011212736 -0.0014340706 0.011298321 -0.0074162125
-0.026335124 -0.016651094 0.019165963 0.011753501 -0.028635683 -0.023734543 0.00087882584 0.012232783
-0.0018520365 -0.020488257 -0.0075954446 -0.0019344758 -0.01036902 0.0120726535 -0.026007194 0.0012941925
0.006947603 -0.0024160438 -0.024841001 0.005880991 0.006046012 -0.025003472 -0.008106835 -0.0065004043
0.016720656 -0.028050076 0.017258247 -0.022725867 -0.025068332 -0.00750048 -0.015800511 0.003011266
-0.004374319 0.008539797 -0.0034940578 -0.024713773 -0.020656465 -0.0015655702 -0.016002972 -0.028754856
-0.02534911 -0.02261331 -0.004746361 -0.01708304 0.009752974 -0.020514874 0.008146085 -0.008251316
0.0035471378 -0.011523226 0.012622427 -0.009113529 -0.016554866 -0.0007681531 0.008588707 -0.033356953
0.022902405 -0.031969275 -0.010833129 0.012902298 0.01047005 -0.0235498 0.015627982 -0.02485952
0.01908721 -0.019426007 -0.0069144526 0.012739293 -0.0121121565 -0.00029094916 -0.0036508115 -0.008394911
-0.015157807 -0.012352144 -0.025451232 -0.022237498 0.003738083 -0.016235638 0.019825509 -0.03027924
-0.013437291 0.016293664 0.008412407 -0.029427906 0.01731986 -0.023919739 -0.016390827 0.00934666
-0.013104258 0.012302767 0.0055073546 0.011726681 -0.003464705 0.013222061 -0.0026192085 0.0019104121
0.005262262 -0.019643903 0.0026523555 -0.023146268 0.0017973061 -0.021798693 0.012535406 -0.025080562
-0.030897057 -0.019577544 -0.00031799002 0.008013839 0.0104697645 -0.016812898 -0.0036371239 0.0003542639
-0.010370424 0.002489441 0.016304132 -0.015735336 0.01792803 -0.017567616 -0.0061819917 0.011418668
-0.013845966 -0.021957945 0.010008267 -0.013046283 -0.010673906 0.01034349 -0.0066825193 0.0022446623
0.0045294994 -0.012434615 0.0023954494 0.0056713177 0.016604494 -0.0028847442 -0.004062637 0.009603237
-0.007048405 0.011545536 -0.019296182 -0.02161362 -0.028291896 -0.017061058 -0.0057266084 0.012504395
0.010838075 -0.0237915 -0.0241647 -0.020753752 0.0037644925 -0.02630094 -0.0048262407 0.004279937
-0.029158486 -0.028662996 -0.015188098 -0.009768631 -0.02087101 0.011049678 0.013883511 0.011012997
0.010724106 0.012600569 -0.023590837 -0.0193504 0.01683978 -0.02360193 0.0059730895 0.018464662
0.009476598 -0.011588374 0.017685693 0.015027712 0.012318749 -0.007836285 -0.0059791496 0.0064745694

fc1.bias f4 [128]
00000000: f120 bcbc 47bc 71bc 22d9 98bd 02a2 0ebb
00000010: 1e7c 1c3d fb2f 98bc 70ec 513c 692e 8b3c
00000020: 0f24 803d 3647 45bd 79cf 0a3c e44f edbc
00000030: 3cab 813c 1b20 6b3d b8a9 8ebc f0c9 2bbc
00000040: 6e66 193d e296 6c3e 3d77 5abc 05cc dfbc
00000050: d5c6 e73e 4b7c 603d b4b9 87be 8e8e 9f3c
00000060: 42ca a6bc a779 45bc c4ae ff3c 4b02 343c
00000070: 198d d9bc 283b 873d f1a5 213d c86b 363d
00000080: 32d6 0cbe 92fe 893d 82c4 f6ba dc8e e1bd
00000090: e530 30bb 378b 153d d5fe 903b 2df4 433b
000000a0: 51dd 253b f34d a3bb 7015 35bc 5989 db3c
000000b0: 3966 203c fd19 a93c d9eb 11bc 7342 6cbc
000000c0: adc3 3c3c a475 183c 3cdf e93c 3a63 55b8
000000d0: 014a 8ebc c58a 093d 13c0 a0bb 7497 b33b
000000e0: c6fc b23d 7078 afbc 761f 533d bb7a c1bc
000000f0: c652 273d a954 da3d abf5 933e 5cb9 8b3e
00000100: 424e ecbd 4936 1bbb 22ca e7bc 1018 c13c
00000110: 977f 39bc 7fc6 f53c f437 4e3b 7fcd fabc
00000120: bcf9 ad3b eeea b9bc 0e46 0ebc 3fb4 123d
00000130: 918f 38be 7458 803b 177b 893e 4747 913c
00000140: ec62 433d 6c2c 873c 43d8 3a3d 8314 e13b
00000150: e5c1 533d de2a 133e 9e29 afba 9eab cbbc
00000160: 12e1 52bc b9f2 7f3c d50d e8bc f74e 4ebc
00000170: 8d59 783c 2798 3b3c bb54 12bc e3ac 443d
00000180: 3043 d03b c859 003c 3f8d 55bc d15e 4539
00000190: 1a73 a83c f3d5 6f3c cca3 84bc 6ea2 013e
000001a0: 6ce5 22bb 6358 9ebc 4c3b 063c 5ba3 b9bb
000001b0: 5159 b3bc 3dee 04bc d25b f23c 6b21 833d
000001c0: 1237 66bc 16d9 03bc a0f7 053c 7367 003f
000001d0: 548a e0bc 5efe f63b 4994 5fbb 9eae e53c
000001e0: 141b 873e 43d7 f53d 0876 173d 15b3 073e
000001f0: 31ef b4ba f006 05bc 6d15 113d 774f dbbc
-0.022964926 -0.0147543615 -0.0746329 -0.0021764045 0.038204305 -0.018577566 0.012812719 0.016989904
0.06256878 -0.048163615 0.008472317 -0.028968759 0.015828721 0.057403665 -0.017414913 -0.010485157
0.0374512 0.23104432 -0.013334093 -0.027318964 0.45268884 0.054806035 -0.26508868 0.019477155
-0.020360116 -0.01205293 0.031211264 0.010986875 -0.026556538 0.0660308 0.039464895 0.044536382
-0.13753584 0.067380086 -0.0018826874 -0.110135764 -0.0026884612 0.03650972 0.0044249096 0.0029900179
0.0025308917 -0.0049836575 -0.011052474 0.02679889 0.009789997 0.020642275 -0.008906328 -0.01442014
0.011521262 0.009305391 0.02854883 -5.087557e-05 -0.017369272 0.033579607 -0.0049057095 0.005480701
0.08739619 -0.021419734 0.051543675 -0.023618093 0.040850423 0.10660679 0.28898367 0.27289855
-0.11538364 -0.002368348 -0.028294627 0.023571044 -0.011321924 0.030001877 0.0031466456 -0.030615566
0.0053093117 -0.022695031 -0.0086836945 0.035816427 -0.18023516 0.0039167944 0.26851723 0.017734183
0.04770176 0.016500674 0.0456164 0.0068689003 0.051698584 0.14371821 -0.0013363843 -0.024862107
-0.012871044 0.015621834 -0.028326908 -0.012592069 0.015158069 0.01144985 -0.008931334 0.04801644
0.0063556656 0.0078339055 -0.013034164 0.00018822706 0.020562697 0.014638412 -0.016191386 0.12659618
-0.0024855984 -0.019329255 0.008192848 -0.0056652254 -0.021893175 -0.008113441 0.029584799 0.06402858
-0.014051216 -0.008047363 0.008176714 0.5015785 -0.02740971 0.007537647 -0.0034115484 0.028037366
0.26387846 0.120039485 0.036977798 0.13251908 -0.0013804195 -0.00811933 0.035420824 -0.02677129

fc3.weight f4 [1, 128]
00000000: 27e0 6e3d 7a7b c2bf 8204 83bf 4da0 4e3d
00000010: d460 8ebe 7638 b2be d747 9b3d b9b0 953d
00000020: 2619 babf 2b72 3ebf cf0c 693d b895 473b
00000030: e56a 9d3d 355f aabf 7d8d babf 104f d1bf
00000040: 8190 3fc0 c350 6a3f c3db 9b3d 6bcc 233d
00000050: 57f4 673f 6296 bfbf 41a9 2440 9a06 2eba
00000060: 6a82 843d 1c19 b03c 8075 81be 3f0f 9dbe
00000070: 4a3f 303d 3d2a 0ec0 ac06 84be bd4f a4bf
00000080: bcac 10c0 7a5b e7bf 1d63 25bf ce0e 78bf
00000090: 3d05 b8bf e54b 79be f6c3 b03c 671a 9f3d
000000a0: 6711 43bf 6de7 17bf e2a7 75be a78c 02bf
000000b0: b9bc 5abf aa83 3cbe 1a54 ecbe 7b70 aeba
000000c0: 1286 7e3d 6889 bbbf d407 83be fbac 7d3d
000000d0: 5257 353d f15e c3bf 0daf 033d 9d95 1a3d
000000e0: a26f d8bf d8cd 033d 84d5 dbbf 5c91 f53c
000000f0: 2fe0 00c0 6a0c dbbe 6037 a63f 0bdf a43e
00000100: 8391 65bf 6b67 9cbe 99fd c53c 2a81 8dbe
00000110: b61d 7a3c 7ad1 09bf 38c7 97be 5aa5 993d
00000120: cf08 96be 19ad eabe 02ec 2d3b 4a71 8abe
00000130: 1804 17c0 c3e1 b3bf 22f8 b03e a91d 133d
00000140: d9bb 61bf 5a56 a33d be95 16bf 2ea2 623a
00000150: 5bc6 8bbf f476 b2bf 5553 603c ee73 853d
00000160: ef4a 943d b691 843c 42b0 e33c 4673 df3c
00000170: f9a3 02bd 73d5 96be a696 2d39 6f01 72be
00000180: cee9 563d aee3 4e3d 173a 70be f981 a6bd
00000190: 8fa8 88be edf2 ab3a 1f9d aabf 3dd3 bbbf
000001a0: 5617 a639 53d3 983d 8c80 aa3d 2445 903d
000001b0: ee77 dabf afc7 a5bd b645 99be 66ae 22bf
000001c0: 6be5 da3b 7b49 833c 3e88 cd3a 6f39 773f
000001d0: 4671 31bf 113e 9a3b 9b84 493d 6311 8cbe
000001e0: d51b bb3e 6ea2 dcbf e848 6cbe 6098 dcbf
000001f0: 95f0 073d 06cd 2f3c 8186 40bf 1c3d cabe
0.058319237 -1.5193932 -1.0235751 0.050445843 -0.2780825 -0.348087 0.07582062 0.07309098
-1.4538925 -0.74392956 0.05689698 0.003045423 0.07686404 -1.3310305 -1.4574429 -1.6352253
-2.9931948 0.9152948 0.076102756 0.03998987 0.9060721 -1.4967768 2.5728304 -0.0006638557
0.06470187 0.021496348 -0.25284958 -0.30675694 0.043029107 -2.221328 -0.2578634 -1.2836834
-2.2605429 -1.8074791 -0.6460436 -0.9689759 -1.4376599 -0.24345358 0.021577816 0.07768708
-0.7619843 -0.593375 -0.23989823 -0.5099587 -0.8544422 -0.18409601 -0.46157914 -0.0013308668
0.06213958 -1.4651308 -0.2559191 0.061932545 0.04427273 -1.5263349 0.032149363 0.03774034
-1.6909068 0.03217873 -1.7174535 0.02997654 -2.013683 -0.4278291 1.2985649 0.32201418
-0.8967516 -0.30547652 0.024168776 -0.27637607 0.015265873 -0.5383526 -0.2964418 0.075022414
-0.29303595 -0.45835188 0.0026538377 -0.27039558 -2.3596249 -1.4053272 0.3456431 0.035916958
-0.8817726 0.07975455 -0.5882224 0.00086453825 -1.0919908 -1.3942552 0.013691743 0.065162525
0.07240855 0.016182762 0.027794007 0.027276646 -0.031894658 -0.29459724 0.00016554687 -0.2363336
0.052469067 0.0505101 -0.2345966 -0.08130259 -0.266911 0.0013118662 -1.33292 -1.467384
0.00031679374 0.07462182 0.083252996 0.070444375 -1.706785 -0.08094727 -0.29935998 -0.6354736
0.006680181 0.01602625 0.0015680862 0.9657201 -0.69313467 0.004707106 0.049198728 -0.27357015
0.36544672 -1.723707 -0.23074687 -1.7234001 0.03318842 0.010730034 -0.75205237 -0.39499748
