Results/checkpoints/abr_actor20.pt (torch, 801522 bytes, 12 tensors)

actor_conv1.weight f4 [128, 1, 4]
00000000: 67ad df3e 88a3 ea3e 2856 4cbd 86e0 2a3f
00000010: cb80 c5bd 607d 0e3e 42ac 38be 8ce8 b93e
00000020: b685 013f b4c7 92be 11a0 073f d05b 853e
00000030: 3ca6 dd3e e2f1 143e 91ce a33e 4420 923c
00000040: d26b db3e 9712 b53d 315b 5dbe 7d19 603e
00000050: 17a7 65bd 8305 a93d 45ec 41bd 88cd cb3e
00000060: d0cc e1be 8e7a 86be 1024 4ebe 2881 f5be
00000070: 35f8 b23d 658a e6be ad42 053f e4f6 cdbe
00000080: a265 e53e d525 073e 1890 a2bd 8b95 053f
00000090: c0e5 d73d 0d1d d83e 14d4 db3d bdea 2fbc
000000a0: 7fbe 3f3e 15bf b3bd bf70 903e c069 2b3f
000000b0: 6025 ac3e 7fbf 3ebe dec2 ae3e 3c8f 8c3e
000000c0: c8f3 3b3e c537 b9be eaad 11bf 496d cdbe
000000d0: 5b58 c6be 7497 d03e bd42 0c3e 6edc 4c3e
000000e0: ec6f 4c3e 36d0 893c b7ca da3e f7f1 d0be
000000f0: 4edb 7fbc 1cbd c1be 60e4 9f3d dabe a1be
00000100: acb7 573e 2891 9abd e0d3 f43e 26ab 7fbe
00000110: cd01 8ebe 76e6 86be fb85 043f 2343 da3e
00000120: ce98 013f 55b7 b9be dad5 e5be 14d2 eabe
00000130: 67d2 79be f5f0 943e 58e8 993e 9e0b 333f
00000140: 132c 2dbe 7e1e 74be 7919 aa3e 47e8 62be
00000150: 6b4a 9a3e df03 f1bd fc6c 893e 14b2 12bf
00000160: 1891 8cbe 038b 193e e047 b23d 4218 97be
00000170: 1c2d e43e 55c4 de3e 9344 88be 91f4 6bbe
00000180: c75c 093f 3813 78bd 7dec cabd 6f96 c4be
00000190: 6961 52be 871f 4d3e f46b ff3b 1763 adbe
000001a0: 4028 403c 6ede aebe 8630 d9be 3af8 8cbe
000001b0: d2a6 10bf b985 c4be 87ce fd3e 0fd0 9e3e
000001c0: 1cc7 1d3e 66c4 eebe 5422 a8be 146c 2abe
000001d0: 6817 9c3d 2561 e1be c7be 5cbe dd54 99be
000001e0: 009e b53a 5084 3ebe f0ea 0dbd 2479 adbe
000001f0: 8256 65be edfb 13be 852d 46bd a734 c1be
00000200: cd38 eb3e 5361 92bd c9be f33e 7146 a73e
00000210: 29ff c4be f3be bd3e 37d8 e9bd b800 8abe
00000220: 2b9d fdbe 253f 10bf a59c 5b3d 8668 94be
00000230: 44b9 303e 71fc d9be 43ff ab3e 4592 11bf
00000240: 05a8 38bd b670 0c3e 71f5 a03e f993 1b3f
00000250: e47e 0e3f e770 9bbe 7880 6f3e c9b1 13be
00000260: 8bcd f13c be37 8ebe a305 0f3f 20aa afbe
00000270: b44d a03e e831 513e a14d 5c3e 3004 9cbe
00000280: 4a8a 1b3f 9692 523e dd61 213e c670 c6be
00000290: 716e 823e e6c6 2ebd e89a 33be 7e03 213f
000002a0: 2de7 d83d ce2e 8dbe 79a9 80be 353d c9bc
000002b0: 5c42 ae3e 517f dbbc cd7e 4cbe 647f cabd
000002c0: f7a4 d5be 69ac 123e de10 a63e 4739 19bf
000002d0: 4e93 353e d557 993e f371 203e a069 a5bd
000002e0: 8ef7 9d3e 6a5d 963e 87b5 783e c8d3 a03d
000002f0: cbaa 3dbe fc15 613c e158 19be 190a b9be
00000300: 124e bb3e 3136 e83e fbaa 35bc 5d5c 8dbc
00000310: 0d54 163d 5a96 25bc 32b9 2f3e 92f5 b23e
00000320: 3049 c9be 1c62 f8bd 80c3 013f 4cfc e83e
00000330: a0b9 cbbc 0858 9abe 429f 9cbe fa50 e5be
00000340: bd20 cbbd 5dbe 7e3e 20f8 d63e af95 df3e
00000350: c22c d4be 4b7f 8dbe 6efb 5cbc fcde 3b3f
00000360: a390 903d d5f8 05be 3add 503e 015c 44be
00000370: a044 84be 7618 de3e 75c1 51be bfb6 b1bd
00000380: fa7d f7be 4ec6 b73e a40f d83e d9be 7d3e
00000390: bc55 80be a3ac cabe 1ad9 a2be 9661 eb3e
000003a0: ae2b b23e f0bc 043f 8d10 c83e 0a1c bf3e
000003b0: 8071 a0bb 86b0 c2be 6c55 dbbe 0273 efbe
000003c0: e497 513e 2860 7bbe 2815 cebd 5054 93be
000003d0: dc62 24be fa76 d2be 6696 d2be 8160 19bc
000003e0: b736 4abe 7ea6 8b3e 6ac7 60be 0bb2 15bf
000003f0: 68ac b4bd d030 78be 60a4 1cbe fcb5 f3be
0.43686983 0.4582789 -0.049886853 0.66748846 -0.09643706 0.13915014 -0.18034461 0.36310232
0.5059465 -0.28667986 0.52978617 0.2604661 0.4329089 0.14545396 0.31993535 0.017837651
0.42855698 0.08841436 -0.21616818 0.21884723 -0.056067552 0.082530044 -0.047344465 0.39805245
-0.44101572 -0.26265377 -0.20130944 -0.479501 0.08738748 -0.45027462 0.52054864 -0.40227425
0.44804102 0.13198026 -0.0793764 0.5218131 0.10541868 0.42209664 0.1073381 -0.010737118
0.18725012 -0.087766804 0.28211018 0.66958237 0.33622265 -0.18627737 0.34133047 0.2745303
0.18354714 -0.3617536 -0.56905997 -0.4012244 -0.38739285 0.4074055 0.13697334 0.20005962
0.1996457 0.016822916 0.42732784 -0.40809605 -0.015616251 -0.37839592 0.07807231 -0.3159092
0.21066159 -0.075472176 0.47817898 -0.24967632 -0.2773575 -0.26347703 0.5176694 0.42629346
0.50623786 -0.36272684 -0.44889718 -0.45863402 -0.24396668 0.29090086 0.30060077 0.699396
-0.16911344 -0.23839757 0.3322256 -0.2215892 0.301349 -0.117683165 0.2684096 -0.57302976
-0.27454448 0.14994435 0.08705115 -0.29510695 0.44565666 0.43509164 -0.26614818 -0.23042513
0.5365719 -0.060565203 -0.09908388 -0.38396022 -0.20544972 0.20031558 0.0077948514 -0.33864662
0.011728346 -0.34154075 -0.42419833 -0.27533132 -0.5650455 -0.38383272 0.4957163 0.3101811
0.15407985 -0.46634215 -0.3283869 -0.16642791 0.07621652 -0.44019428 -0.21557151 -0.29947558
0.0013856292 -0.1860516 -0.034647882 -0.33881485 -0.22396281 -0.14451571 -0.048383255 -0.37735483
0.45941773 -0.07147469 0.47606495 0.3267093 -0.38475922 0.37059745 -0.11418193 -0.26953673
-0.49533972 -0.5634635 0.053616185 -0.28985995 0.17258173 -0.4257541 0.33593187 -0.56863815
-0.04508211 0.13714871 0.31437257 0.60772663 0.5566237 -0.30359575 0.2338885 -0.14423288
0.029516956 -0.27776903 0.55867976 -0.34309483 0.31309283 0.20429194 0.21513988 -0.30471945
0.6075789 0.2056373 0.15759988 -0.38757914 0.25474885 -0.042670153 -0.17539561 0.62895954
0.10590968 -0.27574772 -0.25129297 -0.024565319 0.34035003 -0.026794108 -0.19970246 -0.09887579
-0.4172742 0.14323582 0.32434744 -0.59853023 0.17731974 0.29949823 0.15668468 -0.08076787
0.30852932 0.29368144 0.24287997 0.07852894 -0.18522184 0.013738152 -0.14975311 -0.36140516
0.36583 0.45353845 -0.011088128 -0.017255956 0.03670125 -0.010106647 0.1716049 0.3495298
-0.3931365 -0.12128088 0.50688934 0.45504987 -0.024868786 -0.30145288 -0.30590254 -0.44788343
-0.09918354 0.24877305 0.4198618 0.43668887 -0.41440398 -0.2763618 -0.01348768 0.7338712
0.07058837 -0.13083203 0.20396891 -0.19175722 -0.25833607 0.43378037 -0.20483954 -0.08677434
-0.483383 0.35893482 0.42199433 0.24779834 -0.2506541 -0.39584836 -0.3180626 0.4597289
0.3479895 0.51850796 0.39075127 0.3732608 -0.0048963428 -0.38025302 -0.4283861 -0.46767431
0.20468098 -0.245484 -0.10062629 -0.28775263 -0.16053337 -0.41106397 -0.4113037 -0.009361387
-0.19747435 0.2727546 -0.2195107 -0.58474797 -0.088219464 -0.2423737 -0.15297079 -0.4759978

actor_conv1.bias f4 [128]
00000000: 0900 213e e2af a5be 7cfd 72be 39c7 b4be
00000010: 5eb0 dc3e d902 d4be 10d5 d53e f4ad 353d
00000020: 110d 54bd eea4 9f3e 70c5 77bd f485 9c3e
00000030: b564 c93e f277 e0be 0d8e 483e 8d26 243e
00000040: f6b2 ef3d f93c 983d 2e30 7d3e fcaa a4bd
00000050: 2385 ebbc 19e3 f83e 6815 aa3e 0691 9c3c
00000060: d5b2 d6be 573f 183e 4854 aebe d0d8 c23e
00000070: 146a 9bbe eb4f 1abd f044 e3bd c203 723e
00000080: 25fe f13e c3a1 1d3e e142 a43e 3a8c cc3e
00000090: e759 cf3e 7bca a7bd eaef d7bc a318 673e
000000a0: 232d 55bb 32c3 6d3e 514e e9bd e52f a0be
000000b0: 782d 883e a770 793d 4d50 633e d893 003f
000000c0: 7350 ab3e 5081 f03e 7a4c f53c e436 dcbe
000000d0: cd50 75be c398 88bd 8f81 e2be 04ac 49be
000000e0: 40c6 d0be a15f c7be cd11 0cbe 9c5f fcbe
000000f0: d022 9dbe 2352 6a3e 13f0 d93e 0c4d 18be
00000100: 3a63 6fbd 7a62 723e fe9c 50be 52c1 74be
00000110: 7f87 9a3e f3a2 debe dc76 303e 6953 d83e
00000120: 1dc3 233e adce 723e 9617 95be 000b e2bb
00000130: 8d70 963c fdae ff3d d1e9 413e ef93 dc3e
00000140: 2004 95be 90a8 073e 831a c6bd 2a83 cabe
00000150: bb92 143d 3457 e1be ff8a ba3e 8972 693d
00000160: 91b5 60be c7b4 863e 1a49 f2be 9d1a e9bd
00000170: ef0a 57bd 3c89 d9be eea6 4ebe 4126 86bd
00000180: 86fa c83e bdf6 f73e 7a04 9c3e 1edd 98be
00000190: 9f3d 9abe e1b4 f43e 8161 6a3e 65cf 63bc
000001a0: 43dd 423e 0874 bcbe 220c 95bd 3388 ea3e
000001b0: 967d afbc 3f74 a23c bf4a 89be 7b7b d6bd
000001c0: 3140 343e 8ab4 90be 9780 acbc 328b 7c3e
000001d0: d469 fabe 3803 173e 4678 74be 7c52 7abe
000001e0: a404 4a3e 9cc1 cd3e 5c64 fcbd d8db 1abe
000001f0: 2555 ebbe cd9a 72bd 8abb c9be 085d eabd
0.1572267 -0.3236075 -0.23729509 -0.35308245 0.43103307 -0.41408423 0.41764116 0.044355348
-0.051770274 0.3118052 -0.060491025 0.30570948 0.39334646 -0.4384151 0.19585438 0.16030331
0.11704056 0.074335046 0.2472541 -0.08040425 -0.028750008 0.48610762 0.33219457 0.019112121
-0.41933313 0.14867912 -0.34048676 0.3805604 -0.3035437 -0.037673872 -0.11097133 0.23634246
0.4726421 0.15393738 0.32082275 0.39950734 0.40498278 -0.08192917 -0.026359517 0.22567992
-0.0032528124 0.23218992 -0.11391891 -0.3128654 0.2659719 0.06089845 0.22198601 0.5022559
0.33459815 0.46973658 0.029943693 -0.43010628 -0.23956604 -0.06669762 -0.4423947 -0.19694525
-0.40776253 -0.38940147 -0.13678665 -0.49291694 -0.30690622 0.22882895 0.42565975 -0.14873141
-0.05844424 0.23670378 -0.20372388 -0.23901871 0.301815 -0.43483695 0.17232841 0.42251137
0.15992399 0.23711653 -0.29119557 -0.006898284 0.018364215 0.12484548 0.1893685 0.43081614
-0.2910471 0.13247895 -0.096730255 -0.39553195 0.036272746 -0.44011843 0.3643417 0.056993995
-0.21944262 0.26309797 -0.47321397 -0.11382029 -0.05250066 -0.42487514 -0.20180866 -0.06550265
0.39253634 0.48430434 0.30472165 -0.298562 -0.30125138 0.4779425 0.22888757 -0.013904427
0.19029717 -0.36807275 -0.07277705 0.45807037 -0.021422189 0.019830821 -0.2681484 -0.10472771
0.17602612 -0.2826274 -0.02105741 0.24662474 -0.48908865 0.14747322 -0.23874006 -0.24445528
0.19728333 0.40186775 -0.123238295 -0.15122926 -0.45963398 -0.05922966 -0.39400893 -0.114435256

actor_conv2.weight f4 [128, 1, 4]
00000000: 6d45 f63d dd7c e7be d560 ed3e 1677 ce3e
00000010: ba2c 22bf 151b bebe 203c e23c 6499 6bbe
00000020: 03be 62bd 0236 46be 2821 f03e e831 7fbe
00000030: 3b2a e43e 48f1 903d 6311 153e 0744 f63e
00000040: 9a10 84bd 124c 7dbe 4102 47bd 12f8 f83e
00000050: 4d28 afbe dc48 d33d 3259 f5be 5bfa 7a3e
00000060: 1340 693e 27c7 233d 10cf 7e3e c0f9 d6bc
00000070: 1ede 8a3e eb27 c3be ccb5 8ebd 92d0 883e
00000080: 6e85 053f 84e6 903e 7544 abbe f706 ed3e
00000090: d050 47be 4066 5fbe 2360 06bf c293 6ebe
000000a0: 179b b63e 035f a83d be41 86be 91cc 543e
000000b0: 0df9 37be da08 d93e acfb e3be 4847 61be
000000c0: 2937 d1be e3fa 06be 8126 553e 772e 293f
000000d0: e914 c63d c409 023f 9646 073e a224 bc3e
000000e0: cacd cb3e 2e89 d53e 1d37 9fbe 679e 0e3f
000000f0: 647a 853e 41bf 95be a968 aabe 23b5 00bf
00000100: ea51 e83d da76 afbe 39fb 873e f8ab 5d3e
00000110: 618e dcbe 2f01 3d3e a6a8 b1ba 5f02 ae3e
00000120: 7424 a23e d5c4 f8be 9d30 fd3e eea3 013f
00000130: 92dd 7c3e b86e e2be ba25 39be a8cc 1cbe
00000140: 6bb6 afbd 6580 9f3e ef75 683e 9a36 ff3e
00000150: 97cf 53be 5375 2e3e bc66 6c3e 475b d6be
00000160: 266d edbe 974a 88be 28dc a53e bc5b efbe
00000170: 424e c5be 3443 a23e f333 a13e c40e 033f
00000180: 902f babe dcd8 b7be 2b38 8c3e bf8d 043f
00000190: fd46 a73e f09e e93d e1ed 523e dec9 0f3f
000001a0: 2fd7 a7be e7b1 7abe 1229 a23e 30f1 b9be
000001b0: b134 80be 5e90 c83e 1a28 4d3e f13f 883e
000001c0: 8e4e 6fbe 6f9e 05bd ea2d f53e 4a45 adbe
000001d0: f55c 9b3c 2f25 833e 7571 a7be 083c 113f
000001e0: f4cc 7fbe 38e6 f5bd 3088 0abe 1ed3 a6be
000001f0: bf35 d7be 140a c53e 2d1a 563e 11a2 c6be
00000200: 1e17 8cbe 8fa9 063f ac2a 723e f739 993e
00000210: 102a 99be 7475 60be b893 9abd e044 bbbd
00000220: 7eae 9bbe bcef d13d ec53 fe3d a7c3 2b3b
00000230: feaa c43d 6b17 4abe 233a 313e 775a 983e
00000240: 458a 69be 9026 f1be 6f88 9f3e 9980 683e
00000250: bcbc 64be 037c ff3e 0a8a 4abe 26ab d23e
00000260: 01cc 6e3e ed23 d7be 3ada b23e 4d63 f6be
00000270: 8cb6 81be f57d 87bd 8ae4 a1be c18e 153f
00000280: 458f e4bd 2c0c 343e e959 e7be 6e07 aa3e
00000290: 1ccb 9abd d9e0 95be 8fe2 083e c5f1 b13e
000002a0: 23d1 e73e 1563 a8be e8b0 89be dd81 a13d
000002b0: 8256 1e3e b8e1 5f3e 897e 923e a377 06be
000002c0: f320 853e 638e b23e 8dc6 3bbe 032c df3e
000002d0: 6052 3d3e 692f e23e fa27 94be 4606 86be
000002e0: 1b39 10be adb2 38bb 13bd b03e 356b 9dbe
000002f0: 36e9 853e d1d6 43be dbbb a63e 9a5c b93c
00000300: 8baa abbe 7580 12be 05df 7fbe e7d6 c33e
00000310: 6ad6 80be d96f 813b f356 423e 7310 72be
00000320: 0b90 873e 8f35 c8be 4aee 88be 5bf7 c5be
00000330: fb98 4dbe 196e 6bbe 7b3a d53c b695 2ebe
00000340: 1ffc 543e 8954 e33e a4c1 463e eadc 48be
00000350: b296 babe 0264 8e3e a9bc 26be d5f6 af3e
00000360: 5995 b53e 5b33 643e 0bb7 003f 8198 0f3f
00000370: 331d dc3d 1048 c3be 6c14 f63e 54e9 80be
00000380: 4b01 51be cb66 e33e 66c0 d73e cb42 663e
00000390: 5652 373d 682b cdbe 8fc3 e9bc 9566 0e3f
000003a0: ca37 b03d 5ceb 163c 30e3 05be 03ff 73be
000003b0: f968 863e 3f2f 3cbd 4f53 a43e ec96 d2bd
000003c0: e9e3 7a3e fc7d 773e ec05 fb3d 4473 cf3e
000003d0: 300b a23e e2e1 ee3e c30b d03e e08d 89bd
000003e0: ab66 9abe 9af4 5c3e 7909 dc3d 3a44 5dbd
000003f0: c978 85bd 5504 423d b0eb cb3e 7c36 753e
0.12024961 -0.4521245 0.4636294 0.4032523 -0.633495 -0.37130037 0.02761656 -0.23007733
-0.05535699 -0.1935654 0.46900296 -0.24921381 0.4456347 0.07077271 0.14557414 0.48098776
-0.06448479 -0.2473605 -0.048586134 0.48626763 -0.34210435 0.10316631 -0.47919613 0.24509566
0.22778349 0.03998485 0.24883676 -0.026242137 0.27122587 -0.38116392 -0.06968269 0.26721627
0.5215672 0.2830087 -0.33450666 0.46294376 -0.19464421 -0.21816349 -0.52490443 -0.23298553
0.356652 0.08221247 -0.26222032 0.20781161 -0.17966099 0.42389566 -0.44527948 -0.21999848
-0.40862396 -0.13181643 0.2081547 0.66086525 0.09671957 0.5079615 0.1321052 0.367467
0.39805442 0.41706222 -0.31096736 0.5571045 0.2606994 -0.29247478 -0.33282974 -0.5027639
0.11343749 -0.34270364 0.26558855 0.21647632 -0.43077376 0.18457483 -0.001355429 0.33986184
0.31668437 -0.4858767 0.49451151 0.5064076 0.24693897 -0.44225097 -0.18080798 -0.15312445
-0.08579715 0.31152645 0.22701238 0.49846345 -0.20684658 0.17036943 0.23086065 -0.41866514
-0.46372336 -0.26619408 0.32394528 -0.46749675 -0.38536268 0.31691897 0.31484947 0.51194406
-0.36364412 -0.35907638 0.27386603 0.5177879 0.32671347 0.11407268 0.20598556 0.561674
-0.3278136 -0.24481927 0.3167196 -0.36316824 -0.250402 0.39172643 0.20034829 0.26611283
-0.2336981 -0.032621797 0.47886592 -0.33841926 0.018965224 0.25614306 -0.32703748 0.56732225
-0.24980527 -0.12006801 -0.13528514 -0.32582945 -0.42033193 0.38484251 0.20908423 -0.38795522
-0.27361387 0.52602476 0.2364909 0.29927036 -0.29914904 -0.21919805 -0.07547706 -0.09143996
-0.30406564 0.10250804 0.124183506 0.0026209147 0.09602927 -0.19735496 0.17307334 0.2975652
-0.22806652 -0.47099733 0.31158778 0.22705306 -0.22337621 0.498993 -0.1977922 0.411462
0.23320009 -0.42019597 0.3493212 -0.48122635 -0.25334585 -0.06615821 -0.31619674 0.5842095
-0.11160139 0.17582768 -0.45185784 0.33208793 -0.07558271 -0.29273108 0.13367675 0.34754768
0.45276746 -0.32888094 -0.2689278 0.078860976 0.15462688 0.21863449 0.28612164 -0.13131575
0.260017 0.34874257 -0.1833746 0.43588266 0.18488455 0.44176796 -0.2893675 -0.2617666
-0.14084284 -0.002818267 0.34519252 -0.30745855 0.26154488 -0.19124915 0.32565197 0.022627164
-0.3352855 -0.14306815 -0.24987419 0.38249895 -0.25163585 0.003950101 0.18978481 -0.23639087
0.26477084 -0.39103362 -0.267443 -0.3866528 -0.20077889 -0.22991218 0.026028862 -0.17049298
0.20799302 0.44400433 0.19409806 -0.19615522 -0.36443096 0.27810675 -0.16282906 0.34368005
0.35465506 0.22285216 0.502793 0.5609208 0.10747757 -0.38140917 0.48062456 -0.25178015
-0.2041065 0.44414362 0.42138976 0.22486417 0.044756256 -0.4007218 -0.028535632 0.5562528
0.08604391 0.0092113875 -0.13074946 -0.23827748 0.26251963 -0.045943495 0.3209481 -0.10282692
0.24501003 0.24169153 0.12256989 0.40517628 0.3164916 0.4665671 0.40633973 -0.06716514
-0.30156454 0.21577683 0.10743994 -0.054020144 -0.065171786 0.047367413 0.39828253 0.23946565

actor_conv2.bias f4 [128]
00000000: f55f 193e 01cd 033e 7811 7fbe cf40 a43d
00000010: 5cc8 fa3e 9294 b43e 1d4d c4be 9b3a e53e
00000020: c451 273d a7eb 893e 95e6 c43e 8ab1 df3e
00000030: 62b8 81be cba4 e33e 6e47 9bbe e5d0 bd3d
00000040: d57f a6be 938c 75bc 2c52 d7bb 78ba a7bd
00000050: 53e9 84bc c00d 243c ce04 083f f968 9b3e
00000060: 0d81 853e 5668 513e c706 d53e b827 02ba
00000070: 2957 f6b9 c2a2 d83d f243 dfbe a07c adbe
00000080: ad7e 893d f451 48be 679f 893b 1757 f1bc
00000090: 6d5a 553d 804e a53e 4611 42be 2cc5 c73e
000000a0: 4e02 ba3e 880c 99be be5a dfbe c3b9 d2be
000000b0: 9338 82be 691c 45be f33c dcbb a66c bcbd
000000c0: ac4c 13be e534 c1bd 5c73 07be a27a f83e
000000d0: 5ee5 3fbe 017e 8ebe 0903 553e a12c ae3a
000000e0: 5d05 ca3e 66f0 a03e 2be9 e43e 6e99 ccbe
000000f0: 0718 a93e eb93 d83e 018c 19be 2400 f03e
00000100: 20c3 ce3e ff4e 633c 7828 813e f658 4fbd
00000110: a543 f2be c656 143e db53 383e a982 7fbe
00000120: 2218 543e 56ae dabe 7127 dc3e 2236 023f
00000130: 282c 4d3e 7f6c 81be cf2c 6a3e 7988 3f3d
00000140: c63a 513e 1918 2c3e 5cbc c23e 1766 2bbe
00000150: 2ed6 2fbd f253 183e 8224 d83d 4596 d33e
00000160: 86b8 14be 443d 9cbc baa1 5a3d 48fb 07be
00000170: 6648 c33e d2b5 353d b7ac c8be 30df 5dbd
00000180: 8df7 84be 9c51 57ba cbe0 d3bc b5a1 d6be
00000190: ef40 16bd 2cd6 1ebc fb3c 08be a23d cb3e
000001a0: 986f dfbd 39c3 a33e f08f d43d d799 b0be
000001b0: 4564 fd3d 8e29 e23e 2473 a7be e0b0 7cbe
000001c0: 0149 e03e f09a cd3e 5d93 7cbe a68b 9a3e
000001d0: 3d89 b7bb 1997 c3be 63a8 533c d12a 213e
000001e0: 7894 19be 76bc 383e fdce 9bbe 9fea b63e
000001f0: f5fb e43e 5389 a03e 0315 2e3e 803f 203e
0.14978011 0.12871172 -0.24909008 0.08020174 0.48980987 0.352696 -0.38340083 0.44771275
0.040849462 0.269376 0.3845717 0.4369014 -0.25335985 0.44461665 -0.30327934 0.09268359
-0.32519403 -0.014987129 -0.006571075 -0.08189863 -0.016224539 0.010013044 0.5313233 0.30353525
0.2607502 0.20449957 0.41606733 -0.0004965025 -0.00046985716 0.105779186 -0.43606526 -0.33884144
0.067136146 -0.19562513 0.0041999104 -0.029460473 0.05208819 0.32286453 -0.18951902 0.39017618
0.36329883 -0.29892373 -0.43623918 -0.4115735 -0.25433788 -0.19249119 -0.006721133 -0.092004105
-0.14384717 -0.09433917 -0.132276 0.4853106 -0.1873984 -0.27830508 0.20801939 0.0013288447
0.39457217 0.3143341 0.44709143 -0.39960808 0.33026144 0.42300352 -0.14994814 0.46875107
0.40383244 0.013873815 0.25226188 -0.05062195 -0.47317234 0.14486226 0.18000738 -0.24952187
0.20712331 -0.42711133 0.4299884 0.5086385 0.20036376 -0.25278088 0.22868656 0.04676101
0.20432577 0.16806068 0.38034332 -0.16738163 -0.042928867 0.14875773 0.10553838 0.41325584
-0.14523515 -0.019072182 0.05337689 -0.1327945 0.38141173 0.04436285 -0.3919427 -0.054167926
-0.25970116 -0.000821376 -0.025864026 -0.41920248 -0.03668302 -0.009694617 -0.13304512 0.3969546
-0.10909957 0.3198488 0.103790164 -0.3449237 0.123726405 0.4417233 -0.32705033 -0.24676847
0.43805698 0.4015727 -0.2466559 0.30184668 -0.005601077 -0.38201216 0.0129185645 0.1573899
-0.14998043 0.18040642 -0.30431357 0.35725877 0.44723478 0.3135477 0.17000203 0.15649223

actor_fc_2.weight f4 [128, 1]
00000000: 6e3a 39bf b621 80be 8084 c3bd f684 04bf
00000010: 3416 3dbf 4df9 493f dd48 463f 067f 68bf
00000020: a13b a33e 5427 f23e 46e1 7f3f cf2e 243f
00000030: dbdd 7b3f 594c cbbe e14d 433f 33a3 6e3f
00000040: 7c88 57bf 307e 4dbf 3356 953e 936f 273f
00000050: 485e febe 7c03 e33d 1fdf 903c 78df 963e
00000060: b8f4 02bf 563f 133f 6058 2a3f 14e0 2fbf
00000070: 8526 cfbd f24a 0ebe e1ad a43e b66e 7e3f
00000080: 53fc 953e e0ac 68be 646d 793f 34d5 c2be
00000090: 9cab 94be f0d3 8b3d 7e6b 39bf 7180 193e
000000a0: 92b0 2dbf 9b2c d23d da0f 263e 28be 0d3e
000000b0: fc51 56bf 59ea 65bf cbf8 073f 8867 7c3f
000000c0: e4e3 5fbf 00d4 cf3e 4553 3dbf 5064 803d
000000d0: 7a15 893f c965 513f fa2b 3bbf bd37 383f
000000e0: b10f 243f 000c c9ba 82e0 833f 8c5a cbbe
000000f0: 7fdc 90be a039 15bf 348f 513e 3b78 a73e
00000100: b53d 273e 38bf 1ebf 387c e6be dfba c73e
00000110: b277 60bf 9e21 5cbe 4077 b5bc a471 cfbe
00000120: efc4 e23e 5529 0bbd cff8 553f d0e2 b5bd
00000130: 4a92 21bf 654d 4d3f f5c2 313e 0af6 b7be
00000140: f6ba 28bf a9ed 4b3e 2029 74bf 6226 873e
00000150: c1fa 1f3f 3690 60bf 9c98 27bf 860b 38bf
00000160: 68fb 7b3f 980c 673f 08be a73d badc 793f
00000170: c9f3 d0be ce87 78bf 6491 d53e f1a3 b53e
00000180: 11ee 853f 00c0 97b9 f736 533f d4e7 2d3f
00000190: 848c 483f 26a9 7bbf 7090 6b3f 7b45 54bf
000001a0: 8c4c 773f 30e9 cebd 20df 62bf 8a5a a03e
000001b0: 9378 8bbe dd84 50bf a2fd d2be 5724 d43d
000001c0: e47a 583f 8751 8abe 4e5f 253f 0970 0f3e
000001d0: 7f3a 8d3d 5a63 443e 3a01 28bf ec27 58bf
000001e0: b6e9 72be fc8d 6ebf 5877 0cbf 5f46 223d
000001f0: 9e9a 28bf 2460 d4be b8ff 37be c0ef ebbd
-0.7235478 -0.2502572 -0.09546757 -0.5176538 -0.73862004 0.7889603 0.7745493 -0.9081882
0.3188143 0.4729563 0.99953115 0.64133924 0.983854 -0.39706686 0.7629071 0.9321777
-0.84192634 -0.8027067 0.29167327 0.65404624 -0.49681306 0.11084649 0.017684517 0.29467368
-0.5115466 0.5751852 0.665411 -0.6870129 -0.10114769 -0.13895777 0.3216391 0.9938768
0.2929407 -0.22722197 0.9743254 -0.38053286 -0.29037178 0.06827533 -0.72429645 0.14990403
-0.6784755 0.10262414 0.16216984 0.1384207 -0.8371885 -0.8981071 0.53114 0.98595476
-0.8745711 0.4059143 -0.73955184 0.06269133 1.0709679 0.81795937 -0.7311398 0.7196005
0.64086443 -0.0015338659 1.0302889 -0.3971752 -0.28293225 -0.58291054 0.20464784 0.32708916
0.16332133 -0.62010527 -0.45016646 0.3900976 -0.8768264 -0.21497199 -0.02215159 -0.40516388
0.44290873 -0.033974964 0.83582777 -0.08881152 -0.63113844 0.8019622 0.17359526 -0.359299
-0.6591028 0.19914879 -0.9537525 0.2639647 0.62491995 -0.8772005 -0.6546724 -0.71892583
0.9843049 0.9025359 0.081905425 0.97602427 -0.40810993 -0.9708222 0.41712487 0.3547664
1.0463277 -0.00028944016 0.82505745 0.67931867 0.7833941 -0.98304975 0.9201727 -0.8291852
0.96601176 -0.10103071 -0.8862171 0.31319076 -0.27240428 -0.81452733 -0.4120913 0.10358494
0.84562516 -0.27015325 0.6459855 0.14007582 0.06895923 0.19178525 -0.6562687 -0.84435916
-0.23721966 -0.931854 -0.54869604 0.039617892 -0.6586093 -0.414796 -0.17968643 -0.11520338

actor_fc_2.bias f4 [128]
00000000: d450 0dbf 1bde e53d a8ba 0fbe 739d b53e
00000010: bb81 2e3e ffef ccbe 5724 94be 80d6 3cbc
00000020: ed9b 1fbf d15d 9f3d d67d 92bd 5f18 c33e
00000030: 4dc7 723e eb53 403f cdcb b4bc 2de6 23bf
00000040: 0b24 103f b603 2dbf 8506 babd 21e7 7dbe
00000050: 8c46 c2be a413 bdbe 3c0b 673f bf7b 123f
00000060: 4dfb ab3e 0ad7 6f3f 0cea 67bf 53c1 933e
00000070: 92ac 163f ff88 113f cb9f 4bbf 547b b53e
00000080: 51e2 11bf e00b 20bd 2b15 48be 3cc0 55bf
00000090: bc33 74bf 006c 28bf 1244 043f 0e60 e63e
000000a0: d6a8 5ebf 0a62 c0be 0a87 163c 4855 5dbf
000000b0: 06cc 1a3f ed2c 7d3f d9ad 363e 34ca 21bf
000000c0: bd6a b83e 835e b93e 6b39 583f bc35 08bf
000000d0: efab 46bf d4ae e13e e538 3a3e ef59 89be
000000e0: 735b a2be 66ff 03bf b267 4e3f 18ae 30be
000000f0: c80d 353f 9d3a 643f c36d 043e 3540 5d3e
00000100: e231 04bd 50a8 353f b2ad 66bf bfa6 c93e
00000110: d0d6 26be 410d e73e 00f3 91bb 8493 bdbe
00000120: 99f0 c7bd bbac 023f c113 14bf 40d1 21bf
00000130: 505f 65be 66e7 9bbe 4fb5 ca3e 71d4 2b3f
00000140: 8056 dbbd 0217 6a3f 80ec d5be d188 0fbf
00000150: ef08 a8be 7e60 30bf 6670 33bf 9819 64bf
00000160: d5b7 44bf e23f 883e 8ddc 193f f6a6 6d3f
00000170: 47c0 563f 60e7 6bbd 1cb2 3c3e 0613 19bf
00000180: fd5e c43e 9c76 75bf 5f74 f03e d471 413e
00000190: 1b56 9a3e 01dc d33e f280 ccbe e489 6c3f
000001a0: 7fef f43e cc9f 1d3f ef55 803e 00f8 1f3f
000001b0: 3327 2b3f 7400 0d3f 498d 453f e251 39be
000001c0: bb09 283f 47b3 9d3e ce4d 1a3f 9e30 783f
000001d0: 9afb 713e 85e6 bdbe a0c4 cbbd 4842 ad3e
000001e0: 121b 8a3e f4dc 8bbe f792 463f 4d19 143f
000001f0: ee03 1fbf c0df a6bd 6098 c4bd 6e71 20bf
-0.5520146 0.11224004 -0.14036047 0.35471687 0.17041676 -0.40026852 -0.28933975 -0.01152575
-0.623473 0.07781566 -0.071529076 0.3810453 0.2370884 0.7512805 -0.022069836 -0.64023095
0.56305 -0.6758379 -0.09083275 -0.247952 -0.37944448 -0.36929047 0.9025152 0.5722007
0.33590165 0.936875 -0.905915 0.28858432 0.5885707 0.56849664 -0.795407 0.35445654
-0.56985956 -0.039073825 -0.19539325 -0.8349645 -0.9539144 -0.65789795 0.5166637 0.4499516
-0.86976373 -0.37574798 0.009187469 -0.86458254 0.60467565 0.98896676 0.17839755 -0.6319916
0.36018935 0.3620492 0.8446261 -0.5320699 -0.776061 0.44078696 0.18185766 -0.26826426
-0.31710395 -0.5156158 0.80626976 -0.17253911 0.70724154 0.89151937 0.12932496 0.21606524
-0.032274134 0.7095995 -0.9010879 0.3938503 -0.16292882 0.451273 -0.0044540167 -0.37026608
-0.09762687 0.51044816 -0.5784264 -0.63209915 -0.2239964 -0.3044998 0.39591452 0.67121035
-0.10709858 0.9144136 -0.41781998 -0.5606814 -0.32819316 -0.68897235 -0.7009338 -0.8910155
-0.76843005 0.2661124 0.6010216 0.9283289 0.8388714 -0.057593703 0.18427318 -0.5979465
0.3835372 -0.9588411 0.46963784 0.18891078 0.30143818 0.41378787 -0.39942127 0.92397904
0.4783897 0.61571956 0.25065562 0.6248779 0.6685669 0.55078816 0.7716871 -0.18097642
0.6563985 0.3080084 0.6027497 0.96949184 0.23631135 -0.37089935 -0.099496126 0.3383963
0.26973778 -0.2731701 0.77568 0.57851106 -0.6211537 -0.08148146 -0.09599376 -0.6267308

actor_fc_3.weight f4 [128, 1]
00000000: 005b 153e 4834 acbe b629 04bf ec8f d6be
00000010: 0808 cdbe 0542 8e3f 8c63 c43e de63 8d3f
00000020: 5c63 8c3e ee80 993e 16d3 033f 68bb 753e
00000030: 4f19 5bbf f262 17bf 0420 b3be 004e 763c
00000040: 4863 c43e cf8a 073f 8159 673f cabb 223e
00000050: 4f62 c1be ad73 4cbf 447f 3bbf 1ceb 18bf
00000060: c86b 9a3e d50f 2a3f 7bc4 5d3f 9cf3 a1be
00000070: caf9 21be 08e7 d1be 0078 6fbb 4c5a a43e
00000080: 4856 6c3d 51cf e73d 48ba 013e 8f7b c83e
00000090: 6c57 9bbe f238 2ebf 0520 ac3e a07e f2bd
000000a0: ccc2 0cbf 8c6a 053f 14cd e93c b0f4 14be
000000b0: 806d f0be c2e2 5abe f62c 77bf 8fb6 873e
000000c0: 80de 753c e63d 3b3f d617 a03d 00be a33d
000000d0: a0ef c03e b644 6b3f 9c7a 17bf 58e6 183f
000000e0: e8ce b83e c0bc 49bf 8c45 b23e 2288 19bf
000000f0: f42a a1be e382 15bf 5966 49bf 8482 463f
00000100: 206b 6ebf fc00 003f 2e67 66bf d2ee 71be
00000110: ad69 6e3d 7de4 5a3f 9bbc d0be a469 ce3e
00000120: f32f 6f3e 6f28 323f 8083 733d 3aec eb3e
00000130: fdda 27bf a8fc 37bf 30b0 823f c142 4abf
00000140: f729 95be 45e4 63be 302d 8d3f 19f4 a7be
00000150: d8e4 42bf fbde b0be 4c24 203f 125f ff3e
00000160: 3a53 713f e961 8abe 2c22 0c3f 00e8 70bf
00000170: 63f5 eb3e d43e eb3e 0f21 433f 9186 2dbf
00000180: 64b1 88be 70bc 773e d8ea 35bf a4a4 4bbf
00000190: 7048 76bf 80a6 643d 8c54 3b3f 5112 a73e
000001a0: ad46 183d 8752 ea3e f3fe 2ebf 90e9 d73d
000001b0: c062 7ebe d764 f8be 8c59 7b3f 6a06 2dbf
000001c0: 1dd6 0a3e 4ef3 60bf c0f6 0abd 6c83 e3be
000001d0: 7c42 d33e f4c0 0fbf a2d9 233f ef3c 45bf
000001e0: ef4a 373f 4c4d 40bf 4f11 293f 238b 01bf
000001f0: 00ac 18bb 30e2 3abe 8b20 4b3f e8cb a73e
0.14585495 -0.33633637 -0.51626146 -0.4190668 -0.4004519 1.1113898 0.38357198 1.1046102
0.27419555 0.29981178 0.51493967 0.23997271 -0.8558549 -0.59135354 -0.34985363 0.015033245
0.38356996 0.5294618 0.9037095 0.15891948 -0.37770316 -0.7986401 -0.73241067 -0.5973375
0.30160356 0.6643041 0.8662793 -0.31631172 -0.15817943 -0.40996575 -0.0036540031 0.3210014
0.05769947 0.11318839 0.12668717 0.39156768 -0.30340135 -0.6805564 0.3361818 -0.11840558
-0.54984736 0.521157 0.028540172 -0.14546466 -0.46958542 -0.21375564 -0.9655298 0.2650647
0.015006661 0.73141325 0.07817046 0.07995224 0.3768282 0.9190172 -0.5917146 0.59726477
0.36095357 -0.78803635 0.34818685 -0.5997335 -0.31478083 -0.5840284 -0.78671795 0.775429
-0.9313221 0.500015 -0.9000119 -0.23626259 0.05820625 0.85504895 -0.40768895 0.40314972
0.23358135 0.69592947 0.05945158 0.46078664 -0.65568525 -0.718699 1.0210018 -0.7900811
-0.2913358 -0.22255047 1.1029415 -0.3280342 -0.7613044 -0.3454512 0.62555385 0.4987722
0.9426762 -0.27027825 0.5473964 -0.94104004 0.46085653 0.45946372 0.7622232 -0.6778346
-0.26697838 0.24192977 -0.7106147 -0.79548097 -0.9620428 0.05582285 0.73175883 0.32631162
0.037176777 0.45766088 -0.6835777 0.105425954 -0.24842358 -0.48514435 0.9818351 -0.6758791
0.1355824 -0.87871253 -0.033926725 -0.44436204 0.4126166 -0.561538 0.64003956 -0.770461
0.71598715 -0.75117946 0.66042036 -0.5060293 -0.002329588 -0.18250346 0.7934653 0.32772756

actor_fc_3.bias f4 [128]
00000000: 9c96 61bf f6f6 213e d29a 30bf 6099 3f3f
00000010: 8c83 5d3e cce5 d8bd 769a 02bf 8621 b33e
00000020: 5251 19bf 9c9d eb3e 9e7d 0f3f d756 1d3f
00000030: d3f0 a03e 2c18 60bf b8b2 3b3f 9cd5 9ebe
00000040: 04db 93be b3be cfbc 396d 3e3f 69e5 3a3f
00000050: 3066 553e 4c2e 073f 5a97 6ebf 371a 00ba
00000060: a07a 62bf bb4c ad3e e198 38bf ac7a b6be
00000070: afeb 2e3f 052b 733f 88b2 19bf 3215 0ebf
00000080: 3821 df3d 8fab c23e 00c8 26be 9116 96be
00000090: e826 28bf c9c9 e53e 0317 7b3f 38d9 f7be
000000a0: 9af1 f13e 2171 f73e 9267 483f 302c e9bd
000000b0: bdc6 043e df6a 2c3f 96f0 243f b674 773f
000000c0: 50b9 92be 6ce2 c93e 9528 303f e2c6 2dbf
000000d0: a4d7 503e 686c 87bd d5a1 253f 4ad2 e5be
000000e0: 4ca6 943d 421e 193f a486 6abf 1e28 58bf
000000f0: 7e1e 03bf 7deb 243f 62e4 2d3f e4f2 31bf
00000100: a61b 853e 46a6 07bf 6ca5 edbe 1096 5a3f
00000110: 208e f13e eed4 03be 876b 4d3e 6f56 4b3e
00000120: 36dd 703e 6e13 7dbe 34c1 16bf 2603 283f
00000130: cc9b 4e3e d3c0 f13e 9ada 80be 998f 053f
00000140: 194c 383f 0259 1a3f 81ad 903e a2cd 783f
00000150: 0054 0fbb e05c 653e 98f7 723f 5e41 783f
00000160: 71d6 a2be e218 613f c4c4 c13e 903f e5bd
00000170: 4864 603f 909d 04bf 1294 283f f278 7d3f
00000180: 5290 30bf 5410 17bf 8cac 7dbf 1048 38be
00000190: 0880 68bf e47a abbe bcae 9f3e ffc4 363f
000001a0: cb22 083f 8ca0 0f3f b5e9 e63e 9cc7 1ebf
000001b0: 4043 4bbf cd17 093e c9d8 733f b5a6 3f3e
000001c0: 9594 c8bd bcc1 2dbf 84de fdbe 5257 45bf
000001d0: 762b 4e3f 08d7 26be 1227 62bf 7356 5a3e
000001e0: 8148 9c3d 1007 fdbd b967 bc3e a9ff 0c3f
000001f0: b8be 70bf 961e 44bf 8396 d0bc e658 6dbf
-0.88120437 0.15816864 -0.6898624 0.74843407 0.21632212 -0.10590705 -0.5101694 0.34986514
-0.5988971 0.46018684 0.5605105 0.6146063 0.31433734 -0.87536883 0.7331958 -0.31022346
-0.28878033 -0.025359487 0.7438541 0.730063 0.20839763 0.5280502 -0.93199694 -0.0004886719
-0.8846836 0.33847603 -0.72108275 -0.35640466 0.68328375 0.9498752 -0.6003804 -0.5550109
0.10895008 0.38021514 -0.16287231 -0.29314092 -0.65684366 0.44880512 0.9808199 -0.48407912
0.4725464 0.48328498 0.78283036 -0.11385381 0.12966438 0.6735057 0.64429605 0.9666246
-0.28657007 0.3943056 0.68811923 -0.67881596 0.2039476 -0.06612474 0.6470006 -0.44887
0.07258281 0.59811795 -0.91611695 -0.84436214 -0.512184 0.64421827 0.6792661 -0.69511247
0.25997657 -0.5298809 -0.4641527 0.8538523 0.47178745 -0.12874195 0.2006055 0.1985719
0.23521885 -0.24714443 -0.58888555 0.65629804 0.2017662 0.47217426 -0.2516678 0.5217224
0.71991116 0.60292065 0.28257373 0.9718877 -0.0021870136 0.2239871 0.9490905 0.9697474
-0.3180423 0.87928593 0.37845433 -0.11193764 0.8765302 -0.5180292 0.6585094 0.9901267
-0.68970215 -0.5900929 -0.9909141 -0.1799624 -0.9082036 -0.33492196 0.31188 0.7139434
0.5317809 0.5610435 0.4510018 -0.6202333 -0.7939949 0.13387986 0.9525266 0.18715937
-0.09793965 -0.6787374 -0.49583828 -0.77086365 0.80535066 -0.16292965 -0.88340867 0.2132204
0.076310165 -0.12354863 0.36797884 0.55077606 -0.94041014 -0.7660917 -0.025462395 -0.92713773

fc1.weight f4 [128, 1536]
00000000: f028 f1bc cf80 1c3c de57 a3bc 19c5 aabc
00000010: a42f 13bb 3087 893d e8d3 dd3d 231c d43c
00000020: 28c4 15bc bb94 223d 73a1 f23c ebb3 863b
00000030: 578d 9ebc b530 c8bc 1609 223d 4828 513c
00000040: f259 0f3c 1760 18bd 67ad 89bc 6960 fabc
00000050: 60cb 64bc 6d3a 813c 2ced 2fbc 8c0a 953c
00000060: 8eca e8bb ba28 9c3d a258 c03d 45e5 9c3d
00000070: c723 54bc a213 e73d 8a52 fa3b 617c dd3b
00000080: 6585 823c 209a 4cbc 9b62 15bb 1d68 67bb
00000090: 5905 8a3c c02c 7f3d ab63 ae3b f96d 8abc
000000a0: 1528 58bb 3d8f c6bc 38c9 e2bb c5ba 6fbb
000000b0: b3e3 a53c aa1f 4aba 1d3e e03b adf8 bcbc
000000c0: 8af1 91bc 650d c83b b13c ae3a 6950 aabc
000000d0: df33 2cbd 2819 7039 ab24 303d d35f 03bb
000000e0: 84f6 313c 1f8b ffbc f635 513b 5027 64bc
000000f0: c7cd 913c f665 a43c f779 b53b c968 983c
00000100: 3462 13bd 0e9e e1bc ece7 5ebc 161d 1f3d
00000110: fa9b 6e3d c49c 09bc 3d41 a23b 223a 613c
00000120: 0fec 03bd 0a82 463b e591 61bc 8cb4 fd3b
00000130: f29c ef3c ef86 033d af3d f63b 1e2b bd3c
00000140: ba92 73b9 a6d3 cbbb 154c 01bd 0201 62bc
00000150: 268f e4bc 3f60 c0bc 1d3b 92bb 01c2 c5ba
00000160: e857 c4bc 6b8b 133c 85d4 0a3d 4b7f 8c3c
00000170: 149b 723c 0965 3cbb 73e7 ecbb 6e99 14bd
00000180: bfe9 2dbb fe69 afbc 6d1e 9d3c 1cc5 593d
00000190: 3608 4d3b 1602 b83c b7b9 d03c b0bb 053b
000001a0: 68ec ddba fca2 cebb 3d8f 8b3c b3d0 afbc
000001b0: c009 e23a ead5 1cbd 4914 afbc 560f b9bb
000001c0: 6d70 9e3c 0134 0a3c 94df 13bd e33c 143d
000001d0: e9fb aebc cdb5 82bc c19e 02bd a0c0 40bd
000001e0: b554 e53c ca93 c9bc 0069 cdbb 7f12 f23d
000001f0: 2b37 013e 037b 1bbb 5b03 783c beae 81bb
00000200: 13f1 98bc 7c88 80bd 9c9d 9bbb fc5f d5bb
00000210: 1855 813c 70c8 bbba 2c81 053c 9cfe ddbc
00000220: 939e 7f3c b132 ab3c e362 e5bc 4423 7cba
00000230: 085b b1bc e898 313c b89e b6bc 3fa8 45bc
00000240: a4d9 d03c d198 c7bc d229 9a3c ea3a 093b
00000250: 7235 a63c da3b 53bc d84a 893c 60c1 493b
00000260: a09c 003b 3eaa 8e3c a3ae c6bc aed5 03bc
00000270: 5dd3 073d 394f a3bb 917f 8abc 01f7 273c
00000280: f0ee 83bc 616b 42bc e1f3 e5bc 1fc6 9eb9
00000290: 7f99 b4bc f882 043c 41e8 1e3c 157b a83c
000002a0: 4f5c 353c a240 b8bc 9651 8fba 225c 3e3b
000002b0: dd96 24bb 25b5 9ebc c78f 93bc c95f b23c
000002c0: 4ec3 9cbb ccb5 f93b 1d77 ea3b 75a3 9bbc
000002d0: 265c d0bc c88a dcbc d65d 9cbc ca4a 2d3b
000002e0: ed3b 7bbc f242 2c3d a784 5e3d fbdb a83b
000002f0: a913 573c 4f0e e13b c2e5 3d3d bd44 423d
00000300: 8db0 283d 4108 b93b 6104 09bd 0a1e 22bc
00000310: 0283 7bbc 3b8a 11bc 3445 75bc 4b44 c4bb
00000320: c8c7 0f3d 2326 8bbc 3fd5 46bd b12b 09bd
00000330: 045d 56bd 1f47 1a3c 5a40 babc e0e8 85bc
00000340: 66a9 1abc 0f1d 18bb 34d1 683c 4553 59bc
00000350: 0553 ae3a a16e 7abc 9f2d aabb 318d 9b3c
00000360: e60d fbbc 3b65 653c e06c 0d3e 329f d53d
00000370: 6f29 acbc d5e6 d5bc 204d 9c3b 0be0 f9bc
00000380: cbea 08bc 9c2e 9dbc 0dd0 e1bc 1bdf 4cbc
00000390: 49d1 ffbb 9a74 a3bc eec4 2a3c efee debc
000003a0: 049f 78bb 2ead 3abc dd44 ecbc 0860 5cbc
000003b0: f5ac 333b 1ebf 6e3b 7771 6d3c eda5 4e3a
000003c0: 0570 91bc 051e b5bc 7709 8fbc 2e44 e1bc
000003d0: 00fb 91bc d992 f0bc c929 1b3b 2a9a 243c
000003e0: 9844 92bb dad9 8dbc 932d 6dbd 1d76 b2bc
000003f0: c3e6 2c3c c71b abba ce5f 0b3d 1a00 c53c
-0.029438466 0.009552195 -0.01993936 -0.020845937 -0.0022458816 0.06715238 0.108314335 0.025892323
-0.009141006 0.03969262 0.029618 0.0041108034 -0.019354505 -0.024437288 0.039559446 0.012765951
0.008749472 -0.037201013 -0.016806317 -0.03056355 -0.013964504 0.01577493 -0.0107376985 0.018193506
-0.0071042245 0.076249555 0.09391905 0.07660917 -0.012947983 0.112830415 0.007639234 0.006759212
0.015932748 -0.012487918 -0.002279437 -0.003530986 0.016848253 0.062298536 0.00532194 -0.016898142
-0.0032982875 -0.024238223 -0.00692096 -0.003657983 0.020250177 -0.0007710407 0.006843342 -0.023067797
-0.01781537 0.0061051124 0.0013293234 -0.020790296 -0.042041656 0.00022897555 0.04300372 -0.002004613
0.010861997 -0.031194268 0.0031923032 -0.013925388 0.017798318 0.02006815 0.005538221 0.018604653
-0.035982326 -0.027541187 -0.013605099 0.038846098 0.05825422 -0.008399192 0.0049516247 0.01374677
-0.032207545 0.0030289912 -0.013767694 0.00774247 0.029249642 0.032111105 0.0075146775 0.023091849
-0.00023228946 -0.006220299 -0.031566698 -0.013794186 -0.02790029 -0.023483394 -0.0044626133 -0.0015087725
-0.023967698 0.009005408 0.03389408 0.017150542 0.014807481 -0.0028746745 -0.0072297393 -0.036279134
-0.0026537029 -0.021412846 0.019179547 0.053166494 0.0031285412 0.022461932 0.02547918 0.002040606
-0.0016931416 -0.0063060503 0.017036075 -0.02146182 0.0017245337 -0.03828994 -0.021371977 -0.00564758
0.019340718 0.00843525 -0.036101893 0.03619088 -0.021360354 -0.01595583 -0.03188968 -0.0470587
0.027994493 -0.024606604 -0.0062686205 0.11819934 0.12618701 -0.0023724444 0.015137519 -0.0039575985
-0.01866964 -0.06276032 -0.004749013 -0.0065116864 0.015787646 -0.0014326703 0.008148473 -0.027098946
0.015601772 0.020898195 -0.028001254 -0.0009618292 -0.021649852 0.010839678 -0.02229248 -0.012064039
0.025494404 -0.02436486 0.01881877 0.0020939657 0.020289157 -0.012892688 0.016759321 0.0030785426
0.0019624606 0.017415162 -0.024253195 -0.008046551 0.033160556 -0.0049838093 -0.016906532 0.010251761
-0.016105145 -0.011866421 -0.028070392 -0.0003028372 -0.022045849 0.008087866 0.009698928 0.020566503
0.011069371 -0.022491757 -0.0010934349 0.0029046615 -0.0025114336 -0.019373486 -0.018012894 0.02177419
-0.0047840243 0.007620549 0.0071553127 -0.01899884 -0.025434565 -0.026921645 -0.019087713 0.0026442283
-0.015334112 0.04205603 0.054325726 0.005153177 0.013127246 0.006868161 0.046361692 0.047428835
0.041183997 0.005646736 -0.03345144 -0.009894857 -0.015351059 -0.008883054 -0.014970113 -0.0059895865
0.035102636 -0.016985958 -0.04854321 -0.033488933 -0.0523348 0.009416371 -0.022735763 -0.016346395
-0.009439802 -0.002321068 0.014210034 -0.013264482 0.0013299888 -0.015285165 -0.0051934267 0.018988224
-0.030646276 0.014001186 0.13811064 0.10430755 -0.02101585 -0.026111046 0.004769936 -0.03050234
-0.00835676 -0.019187264 -0.027565027 -0.012504364 -0.007806931 -0.01995306 0.010422928 -0.027213542
-0.0037936578 -0.011393828 -0.02884143 -0.01345063 0.0027416323 0.0036429833 0.014492384 0.0007883001
-0.01775361 -0.022109041 -0.017460568 -0.02749833 -0.017819881 -0.029366897 0.002367603 0.010046521
-0.0044637434 -0.017315794 -0.05790479 -0.021784836 0.010553065 -0.0013054543 0.034026913 0.0240479

fc1.bias f4 [128]
00000000: 520c 01bc 20a3 9fbc ab04 d43b c504 e5bc
00000010: 3954 d63c 48d3 853c 0378 153d e782 a5bc
00000020: 11e9 c43b 979e c93c af64 4c3b c6c0 9a3c
00000030: 7945 cd3b be68 b8bc ccbf 263d bb38 613c
00000040: 9cc5 fd3c 05d2 033b a79c dbb9 2f6b 353c
00000050: 0bff 733c 72d4 ee3c 5e15 a5bc 761a 74bc
00000060: 2478 89bc 94c6 3cbb 6aac b83c 2ba5 513c
00000070: 7e84 873a 1252 3bbc 5b7f 393d 3dd8 90bc
00000080: e71d 0c3c 6721 c53c a76d 83ba 8ac9 78bc
00000090: af4a 653c 916f eb3b ff78 4cbb 30a4 8cbc
000000a0: a34c bcb9 21d5 ea3c a17b 87ba 6317 0d3d
000000b0: c517 be3c 4efe 7cbb aaea bc3c ca43 2fbb
000000c0: 46ca ab3c ce0b 98bc 321f cfba d8b3 66bb
000000d0: 5e5d b73c 0114 08bc 202a 983b 91dc 58bb
000000e0: 24eb f33a 024c d5bc 2790 db3b 6a77 053d
000000f0: addd 1bbc ed05 5bbb e721 f63b c57f 66bc
00000100: 6f14 13bc a452 ae3c ccb6 a43c dade 6abc
00000110: abba b4bc d029 c43c 90cb 4e3c f723 803c
00000120: 6c44 153c 9fb3 2bbc 5e04 363b 0afb c73c
00000130: 689f 6bbc 3cd3 cdbc 4bbb afbc 0770 043d
00000140: 6d9c 01bc 92a7 2d3c 4f42 a53b 68e3 c2bc
00000150: 8a20 953a de9c 68bb 7ac6 21bc 06f4 61bc
00000160: 3123 51bb 4647 893c f3e2 553c bb0e 0dbc
00000170: a78c 8abc de9a 9c3c 8b67 70bc 051a 32ba
00000180: 5bdb 99bc cd24 163c 825c fd3c 4a62 2439
00000190: 38bc cf3c 756e 123c e6f2 d63c 7b70 113b
000001a0: 4782 abbc 25b0 eb3a ff46 42bb 5410 41ba
000001b0: abcd 0d3c 3092 653c 8c22 913c 39e2 d2ba
000001c0: 4044 dbbb 2271 58bb e7a3 9cbc f49e 0f3c
000001d0: b881 91bc e834 053d 0c93 493c a763 a8bc
000001e0: 09e0 fd3c 0126 bfbc 167c a7bc ee53 3abc
000001f0: 9f29 583c b9b1 20bc fae3 1a3d cedd ec3a
-0.007876473 -0.019486964 0.006470283 -0.027956376 0.026163207 0.016336098 0.036491405 -0.02020402
0.006009229 0.024611754 0.0031187942 0.01889075 0.0062643853 -0.022510882 0.040710256 0.013746436
0.030978017 0.0020114195 -0.0004188765 0.011072918 0.01489235 0.029154036 -0.02015179 -0.014898887
-0.01678092 -0.0028804885 0.022543151 0.012795727 0.0010339168 -0.011433141 0.04528747 -0.017681235
0.008552051 0.024063779 -0.0010027186 -0.015184769 0.013994857 0.0071849306 -0.003120005 -0.017168134
-0.00035915253 0.02866608 -0.0010336527 0.03444613 0.023204694 -0.0038603726 0.023061115 -0.0026743286
0.020970475 -0.018560316 -0.0015802144 -0.003520241 0.022383388 -0.008305551 0.0046436936 -0.0033090452
0.0018609506 -0.02603722 0.006700534 0.032584585 -0.009513301 -0.003342028 0.0075113657 -0.014068549
-0.00897704 0.02127964 0.020106696 -0.0143353585 -0.022061666 0.023945719 0.012621775 0.01564215
0.009110551 -0.010479837 0.00277736 0.024411697 -0.014381267 -0.025125138 -0.021451613 0.0323334
-0.00791083 0.010599034 0.005043305 -0.023790076 0.0011377495 -0.003549389 -0.009873981 -0.01379109
-0.0031911845 0.016757619 0.013054597 -0.008609469 -0.016912771 0.019116815 -0.014673124 -0.00067940383
-0.018781355 0.009164047 0.0309279 0.00015676874 0.025358304 0.008937468 0.02623887 0.0022192288
-0.020936145 0.0017981572 -0.0029644368 -0.0007364799 0.008654992 0.014011905 0.017716669 -0.0016089148
-0.0066914856 -0.0033026417 -0.019121123 0.008765925 -0.01776205 0.03252116 0.012303125 -0.02055533
0.030990617 -0.023333551 -0.020444911 -0.011372549 0.013193517 -0.009807997 0.03781507 0.0018071474

fc3.weight f4 [6, 128]
00000000: 9e52 073d 423b c8bd b986 6e3d c2dc 7b3c
00000010: 88d8 abbc 3d0a 71bc 08f3 2d3e 8258 acbb
00000020: 5a77 70bd 2652 3b3d 3719 823d e51e 65be
00000030: 673b 1b3e 0626 88bd 4afa d83d d741 283e
00000040: 9a97 373e 69d4 65be 4420 85be 2da1 c43d
00000050: 813b 933d c8bf c9bd 0b7a c13c 061e 81be
00000060: daa4 053d 7ef9 013d e739 2bbc 3f0e 813d
00000070: f3bb 6b3c ed19 b63d 2f03 1f3e 9199 923d
00000080: 1299 033d 4f5c 3bbe e6b0 6f3d 01a9 47be
00000090: f47c c9bc 8e47 23be 475f d3bc b61c 52be
000000a0: 4569 3bbe 7116 18bd 8287 0fbe 0d8e 653d
000000b0: 8605 9cbe a996 94bd 34a5 90bd 573b 8fbd
000000c0: bcb8 1cbe 0172 7dbe c341 57be 6063 39bc
000000d0: 3891 81bc e586 b13c 7c5d 99bd 46f5 91be
000000e0: 9df8 82be b94b e1bc 4482 33be 75bd 983d
000000f0: 2218 dcbd 5dab 8c3d 63a9 56bd daac abbd
00000100: c30e 763d cadf c43d c6d1 fc3d 4f6e 92bc
00000110: 02fc 303d cbfb 18be 471a 72be 468e ec3d
00000120: 6867 773d 00f8 8bbe 0235 ce3c 0b0b 203d
00000130: c2f8 953c b655 55bd e263 9b3d 07c3 2bbe
00000140: 7b36 893d 2eb7 4d3d d434 32bd d688 873c
00000150: 3eeb 15bd 22a1 b6bc 122c 0f3c e027 8b3c
00000160: 75c5 db3c a577 843d 4151 71bd 5437 053e
00000170: db5b b3bc 1a4c 103c b611 70be 1b0d b63d
00000180: 1a19 a6bc 4d5c 413d d4c6 7a3d 0bd1 4abe
00000190: d3b2 8ebe 77b6 393d c6e1 bd3d ef37 08bd
000001a0: 38b1 9d3c b08d 5f3d 709c ac3d d856 56be
000001b0: 9923 1fbe 0b1e 033b 92fd de3d 7887 2fbe
000001c0: 3980 7abe 41b3 90bc 2171 063d 862d 59bd
000001d0: d4d2 393d c622 27be c789 b93c 2857 443d
000001e0: e5fa 7cbe 3a92 d5bc d476 903c 6713 3ebe
000001f0: c5ed b1bd 5afd c4bc 7c58 eb3d fde8 c83d
00000200: 5e11 a4bc 6807 a5bd 757c 893d 89c0 543d
00000210: 5737 73bd ded0 b53c 3498 febc 8934 84bc
00000220: d405 bdbc 7d00 7a3c 2bcc 3bbc aaa0 fcbd
00000230: f714 54bd 86eb 913d 4097 be3d ea05 323d
00000240: efab 6cbd f65d 2dbc cb3d 133d 5b3d 51bd
00000250: 981d c13c 82a0 1abd bc4b a13d fede e3bd
00000260: 88b7 1ebd 79c8 23bd f462 ae3b 4679 523d
00000270: c85e 4cbd da12 a9bd bc49 073d ea52 8a3c
00000280: ee62 03bd 2d1a b2bc c8f2 8f3d 618d c6bc
00000290: 2061 26bd 0a79 eabd c899 973d 0eb5 f63c
000002a0: 838b e0bc fd57 9fbd 6c22 173d fe0e e7bc
000002b0: aa2d 2c3b 9305 3ebd 9edc 93bd af58 23bc
000002c0: 0f34 9c3c 2c83 4fbd e08f 7e37 f0d1 bbbc
000002d0: 9a1c 50bd 1648 733c f3e6 913d db3b 84bc
000002e0: 8ec2 16bd 4fe4 80bc 13ae 1abd 1851 053d
000002f0: 6169 103c ebff 693d d516 9f3c fa2d 1c3d
00000300: e1c2 983d a354 50bb 1b98 dcbc 3897 793d
00000310: f614 8ebd e61e f63b 36bf 6b3c 58ff 7fba
00000320: 6cd2 98bd 2973 9ebd 1867 b0bd ff64 b8bc
00000330: eeff 1fbd e30b aa3c b61e 38bd bd2a babd
00000340: 4f54 253d 1dde 43bd a6ae 6c3d 7959 53bd
00000350: e96b 3ebd 4125 a23d 92e6 72bd e7d7 0dbd
00000360: c514 803d c699 0ebd 994a 53bd 2637 cd3d
00000370: cc80 eebd b151 38bd 4eba 7abd a56e 67bd
00000380: a0e4 3a3c d466 28bd 7277 6dbd 99b5 e73c
00000390: 3783 9f3c 11da f9bc aa3c 653d dd5a 553b
000003a0: d904 a33d 8410 fc3c ac57 fb3c 7e0f 6ebd
000003b0: d27c a5bd 1fe6 51bd 6d12 16bd e880 51bd
000003c0: f857 d2bd 7ba7 b4bc f95c b7bd 090f 59bd
000003d0: 04a8 44bd 280d 72bd 3bdd a43d a057 47bd
000003e0: 46c6 d1bd c861 fd3b b48a 13bd 2709 a0bd
000003f0: e59c 403d f9b6 0f3d 3e6f 87bd b3d5 5dbd
0.033037774 -0.097769275 0.05823395 0.015372457 -0.020977274 -0.014711914 0.1698724 -0.0052595744
-0.058707573 0.04573264 0.063524656 -0.22375067 0.15159379 -0.066478774 0.10594614 0.16431366
0.17928925 -0.2244431 -0.2600118 0.09601054 0.07189084 -0.098510325 0.023617765 -0.2521822
0.032627918 0.031732075 -0.010450817 0.06301545 0.014388072 0.08891664 0.15528558 0.07158197
0.0321284 -0.18296932 0.058518313 -0.19498064 -0.024595715 -0.15945265 -0.025802268 -0.20518765
-0.18301876 -0.037130777 -0.14016536 0.056043673 -0.30472964 -0.07255299 -0.0706276 -0.0699374
-0.15304846 -0.2475052 -0.2102118 -0.011315197 -0.015816316 0.021670768 -0.07488534 -0.2850744
-0.25580302 -0.027501928 -0.17530161 0.07458011 -0.107467905 0.068686225 -0.052407634 -0.08382578
0.06007267 0.09612997 0.123446986 -0.017874865 0.043209083 -0.14939801 -0.23642837 0.11550574
0.06040135 -0.27337646 0.02517176 0.03907303 0.018307094 -0.052083693 0.075874105 -0.16773616
0.066998444 0.050223522 -0.043507412 0.01654474 -0.036601298 -0.022293631 0.0087385345 0.016986787
0.026827553 0.06468133 -0.05891538 0.13009387 -0.021894386 0.0088072065 -0.23444256 0.088892184
-0.020275641 0.047207166 0.061224774 -0.19806306 -0.27870807 0.045340028 0.092715785 -0.033256467
0.019249544 0.054578483 0.084282756 -0.20931566 -0.15540923 0.002000692 0.108882084 -0.17141521
-0.24462976 -0.0176636 0.032822732 -0.05302193 0.045367077 -0.16321859 0.022648705 0.04793468
-0.24705084 -0.026070703 0.017634787 -0.18562089 -0.08687929 -0.024046589 0.114914864 0.09810064
-0.020027813 -0.08058053 0.067131914 0.05194143 -0.059378948 0.022194322 -0.031078435 -0.016138332
-0.023074068 0.0152589055 -0.011462252 -0.12335332 -0.051777806 0.07125001 0.093061924 0.04346267
-0.057781156 -0.010581484 0.035947602 -0.051083904 0.023573682 -0.03775073 0.07875773 -0.11126517
-0.038749248 -0.039986107 0.0053218547 0.051385187 -0.049895078 -0.08255549 0.033029303 0.01688524
-0.03207677 -0.021740997 0.07028729 -0.024237337 -0.04061997 -0.114488676 0.07402378 0.03011563
-0.027410274 -0.07780454 0.03689806 -0.028205391 0.0026272335 -0.046392035 -0.07219814 -0.009969874
0.019067792 -0.050662205 1.5173078e-05 -0.022927254 -0.050808527 0.01484873 0.07124128 -0.016141823
-0.036806636 -0.015733866 -0.037763666 0.03254804 0.008814187 0.057128828 0.019420067 0.038129784
0.07459045 -0.0031788729 -0.026927998 0.06093523 -0.06937592 0.0075110076 0.01438885 -0.0009765527
-0.0746201 -0.07736809 -0.086134136 -0.022509096 -0.039062433 0.020757621 -0.044951163 -0.09090183
0.040363606 -0.047819246 0.057783745 -0.051599 -0.04648963 0.07917262 -0.05930192 -0.03462973
0.062539615 -0.03481462 -0.051584814 0.10020284 -0.1164566 -0.044999782 -0.06121283 -0.056502003
0.0114070475 -0.04111369 -0.05797524 0.028284835 0.019471748 -0.03049949 0.055966057 0.003255538
0.07959909 0.030769594 0.030681454 -0.058120243 -0.08080448 -0.05124485 -0.036638666 -0.051148325
-0.10270685 -0.022052517 -0.0895328 -0.052992854 -0.048011795 -0.059094578 0.08050009 -0.04866755
-0.10242896 0.0077326037 -0.03602095 -0.07814246 0.047024626 0.035086606 -0.06613015 -0.054158878

fc3.bias f4 [6]
00000000: 1247 763c 9ea2 06bc e5c0 32bd e4c6 7d3c
00000010: 497c d5bb eba8 0bbc
0.015031593 -0.008217482 -0.04364099 0.015489314 -0.00651506 -0.00852416
