Results/checkpoints/place_actor3150.pt (torch, 468712 bytes, 10 tensors)

actor_conv1.weight f4 [128, 1, 4]
00000000: d4b4 9cbe 1287 b8be c2a5 a7be 9a2e a73e
00000010: 5636 d83e d409 723e dc76 6d3e 9c68 683e
00000020: 30e2 943d 0c91 5fbe 0ad3 f5be 524f b5be
00000030: 647e 10be 22c0 d5be 4ca1 ac3e a8a9 e03d
00000040: a852 64be a039 183e b085 4fbd bceb 063e
00000050: 3ca9 abbe d0c4 273d 8451 cbbe 1405 5c3e
00000060: b832 e0bd a89e b8bd e417 2dbe 6873 8f3d
00000070: a08e 853e 1814 773e a8b4 0b3e b8cd 50be
00000080: d4a5 94be 4087 593c f00a 4fbe 4258 c73e
00000090: 167e c73e b21c 96be a673 adbe 5c3f 2a3e
000000a0: f28e 96be 4289 863e 904e 66be a680 953e
000000b0: 8878 d8bd 6c97 6a3e ea8a aa3e b051 0d3d
000000c0: 8c45 5ebe 2002 01be eea4 c2be c25b b63e
000000d0: 60a9 ab3c 6812 c73d 18b5 803e 2061 2e3e
000000e0: 289e 9abd b49a fa3e 7070 49bd 3859 f6bd
000000f0: 94bf 243e a082 8fbe 64c6 c7be 60db 313d
00000100: 9a60 85be 143d 7f3e 3a6a de3e 0252 d3be
00000110: 72cf f3be 601c 89bc 40e1 f33d 80df 61bd
00000120: 9e2a 84be 745b e73e 94cd da3e b030 b7be
00000130: 3e4f e63e d0d1 52be f4b2 f83e 403f 2cbc
00000140: 6c30 6c3e 349c 49be b064 463e 3cc6 743e
00000150: 0c7d e33e 8000 c73e be40 8c3e 80eb 883d
00000160: 38c7 863e e0d2 ea3d c8a3 23be 74d0 313e
00000170: 2030 583e bee4 b8be 80fc f73b b426 d6be
00000180: 6036 14bd e0e4 dd3e e079 d93e 987e 063e
00000190: 823b d43e b2c2 963e eaf2 88be c49c 003e
000001a0: 7056 313e 8822 fe3e 40b7 87bc 0003 f5bd
000001b0: 24a3 5b3e f0bb f93e 5a03 cc3e bc5b 853e
000001c0: 32a9 84be b43d f9be 7848 a3be 3c62 6c3e
000001d0: 9cb9 dcbe 1693 b13e 76ae c8be 30ac f4bd
000001e0: 946c 10be e47c ffbe 1a77 b93e 280e a43d
000001f0: 6e94 cd3e 28a1 43be 60d2 03bd 9cf4 99be
00000200: b005 77bd 5845 6bbe 9e90 b03e 8855 573e
00000210: 3cad f93e 50ed 10bd 0a7a fabe 0aba 8bbe
00000220: e271 ecbe 4e43 f03e 28d0 a13e 18cf f53e
00000230: c492 c93e 386e 63be bed3 bc3e be1d c13e
00000240: e8d5 8f3d a8a6 a73d 005b 04bd 9045 573e
00000250: a0ee ee3e 30da 5b3d 583f ee3e 249f 273e
00000260: 60c1 853d 36b5 dc3e 1eed d53e 2473 4f3e
00000270: 0a2f e7be 24bb 8f3e 507b 2e3e a4fc cc3e
00000280: 4e25 843e 1827 a73e 4c7a 43be 3492 c6be
00000290: 98cf f63e 8059 be3c d2a8 c63e 0a26 fe3e
000002a0: 3cbd 333e 76d2 9ebe 8016 e53e 8c02 d13e
000002b0: 1065 7ebd 0029 593d a0d4 79be f418 e1be
000002c0: a014 f8bd a470 7bbe a401 76be 92ab b53e
000002d0: 6071 953e bc95 033e 08d5 c8bd e099 f93d
000002e0: c081 00bc 0cd6 4e3e 907d 323d 5c84 963e
000002f0: b8e7 2a3e 0484 b13e 10cd 423d 08da f53e
00000300: 4028 ae3d 14a8 10be dc15 633e 6074 c93e
00000310: c2f4 dbbe ee57 9fbe 4c83 823e 785c 69be
00000320: 9ca7 c63e bae7 fe3e bcd6 dfbe 8ead 9e3e
00000330: ecff ddbe 88a7 4cbe 3c4d 7bbe babb 9f3e
00000340: 88ea 873d 10bf b2bd 9add a83e 22f4 f73e
00000350: cca5 083e c051 1abd fc5e ba3e 00d2 b7be
00000360: c28d c1be 7cd9 c1be 1484 793e aaed aabe
00000370: 8a5a ae3e d2b4 c6be 98b2 40be 24c5 ef3e
00000380: 7069 1c3e 782e e1be 8832 ee3e 7c0d debe
00000390: 14bf 633e 3e65 e13e 44f3 d0be 2cab 11be
000003a0: 524a fb3e 58f2 e13e 00c6 373c 46a3 bc3e
000003b0: c212 aabe 38e8 f4be 786a 703e 4c73 6f3e
000003c0: 687a 943e a0f0 22be c22c c93e b857 773e
000003d0: 20c2 f3bc 4483 533e 24fe 943e 6cbe 7c3e
000003e0: 3041 86bd f08e 3abd d434 8e3e 000e 00bc
000003f0: fcb1 ecbe 70ac 063e 62ad c2be de30 fe3e
-0.3060671 -0.3604055 -0.3274365 0.32652742 0.42228955 0.23636562 0.23189873 0.22696155
0.07269704 -0.21832675 -0.48012573 -0.3541208 -0.14110714 -0.41748148 0.3371681 0.10969859
-0.22297156 0.14865732 -0.050664604 0.13175863 -0.33527553 0.04095918 -0.3971063 0.21486312
-0.10947174 -0.09014636 -0.16903645 0.07004434 0.26085377 0.24128759 0.13643134 -0.20390975
-0.29032767 0.013276875 -0.20219016 0.38934523 0.38963383 -0.29318768 -0.33877295 0.16625732
-0.29405934 0.26276594 -0.22490907 0.29199713 -0.105698645 0.22909325 0.33309108 0.03450173
-0.21706218 -0.12598467 -0.38016456 0.3561688 0.020954788 0.097203076 0.25138164 0.17029238
-0.07549697 0.48946154 -0.049179494 -0.12028736 0.16088706 -0.28029346 -0.39018548 0.043422103
-0.26050264 0.24925643 0.4344042 -0.41273504 -0.47619206 -0.016737163 0.119081974 -0.055144787
-0.25813764 0.4518696 0.4273497 -0.35779333 0.44982332 -0.2058785 0.4857403 -0.010513127
0.23065346 -0.19688493 0.19374347 0.23903745 0.4443134 0.3886757 0.27393144 0.06685543
0.26323867 0.114660025 -0.15980446 0.17364675 0.21112108 -0.36112016 0.007567942 -0.41826403
-0.03618467 0.4333868 0.42475796 0.13134229 0.4145165 0.29445416 -0.2674783 0.12559801
0.1731813 0.4963572 -0.016566873 -0.11963463 0.21448952 0.48776197 0.39846307 0.2604655
-0.25910336 -0.48679888 -0.31891227 0.23084348 -0.4311036 0.3468253 -0.39195603 -0.11946905
-0.1410392 -0.4989997 0.3622368 0.080105126 0.40152305 -0.19104445 -0.03218305 -0.30069435
-0.06030816 -0.22975671 0.34485334 0.21028721 0.4876498 -0.03538257 -0.48921233 -0.27290374
-0.46180636 0.4692635 0.31604123 0.48009562 0.39369786 -0.22210014 0.36880296 0.37718004
0.07023221 0.08186084 -0.032313347 0.2102263 0.4666643 0.053674877 0.46532702 0.16369301
0.06531024 0.43107003 0.4178247 0.20258766 -0.45153075 0.28072464 0.17039227 0.400365
0.2580971 0.32647014 -0.19089621 -0.3878342 0.48205256 0.023236036 0.38800675 0.49638397
0.17552656 -0.31019944 0.4474373 0.40822256 -0.0621081 0.053017616 -0.24397516 -0.4396435
-0.12113309 -0.24554688 -0.24024063 0.3548246 0.2918806 0.12850088 -0.098062575 0.121875525
-0.007843435 0.2019884 0.043576777 0.29397857 0.16689956 0.34671032 0.047558844 0.48017907
0.08503771 -0.14126617 0.22176307 0.393466 -0.42960173 -0.31121773 0.25490797 -0.2278918
0.3879975 0.49786168 -0.43718517 0.30991787 -0.43359315 -0.19985783 -0.24541181 0.31197912
0.0663653 -0.087278485 0.3298157 0.48428446 0.13344496 -0.03767562 0.36400592 -0.35902405
-0.37803465 -0.3786124 0.2436679 -0.33384448 0.3405345 -0.3880983 -0.18818128 0.46830094
0.15274596 -0.43980765 0.46522927 -0.43369663 0.2224086 0.44022554 -0.40810597 -0.14225453
0.4908014 0.44130206 0.0112166405 0.36843318 -0.33217436 -0.4783342 0.23478115 0.23383826
0.2899964 -0.15912104 0.3929196 0.24154556 -0.029755652 0.20655543 0.29100144 0.24682015
-0.06555402 -0.045546472 0.2777468 -0.007815838 -0.4622954 0.13151717 -0.38022906 0.49646658

actor_conv1.bias f4 [128]
00000000: 301c a93e 5aa1 9b3e cc89 513e e068 053d
00000010: ccc6 18be 20b7 25be 4e3a 8abe 7ef8 c83e
00000020: fe9e acbe e60c d73e 72ab b93e c08c fe3d
00000030: 68d6 913e a0d3 1bbd b8c2 4d3e a2f0 b5be
00000040: 8856 f33e bc13 d73e 62c5 e0be f88e eebe
00000050: b09f 563d d063 86be 68b2 81be 7aef 883e
00000060: e8a5 dfbd d810 a0bd 305f a9bd 2093 1abe
00000070: d27b 8fbe acda 6e3e 98c3 c73d 7483 fa3e
00000080: 061b 933e 58b0 ab3e 50c1 b1be 40ae 5bbe
00000090: 58da 423e 34be c6be 20ce 3d3e 1018 cd3d
000000a0: 549d 60be 9460 b13e 90db a5bd e6f7 e1be
000000b0: 90ec 1a3e 6c44 82be 1028 78bd 209f 803e
000000c0: b8f9 3e3e e08a 84bd d6de c2be 4844 c33d
000000d0: f811 ecbe 90d6 1e3e 24e7 b6be 0261 d33e
000000e0: 6852 69be 287e d53d e03a 033d 06dd 81be
000000f0: a283 ecbe 104a ae3e 28e4 8abe e883 ac3d
00000100: 0241 d33e 0cda 3c3e fa78 b0be f0de 603d
00000110: c6ed ffbe 56e9 813e d8b0 e1be 00b4 3aba
00000120: bede 81be c2dd 9d3e f07d d73e d486 9f3e
00000130: 0487 303e 64c3 f23e 2aa1 b1be dc2d afbe
00000140: 4076 de3d a025 89bd ec8a 133e 1436 03be
00000150: c2e9 b83e d8e7 723e 5856 18be 808a d73d
00000160: 9042 d63e 90ec 643d c05b 283e 06b4 ffbe
00000170: 2680 ea3e 405d 71bd b46c 2b3e a4ae 63be
00000180: 38ec 943d f496 66be 4635 e2be d0cd 9abe
00000190: 9036 9e3e e227 b13e 8cd6 2fbe 4e79 eb3e
000001a0: 540f 6f3e 0ceb c33e 80df bdbb 84bd 4f3e
000001b0: 7201 eabe f499 bebe a856 ef3e fedc e1be
000001c0: 488a de3d 0839 1e3e 4acf a63e e0c9 2f3e
000001d0: fc1b c5be d021 e63d 7c68 debe 5415 a03e
000001e0: d0a8 66bd 44e4 113e 189b d73e 3c7f 763e
000001f0: e271 a0be 70cc f03d e05f debe 0cac 0dbe
0.33029318 0.3039654 0.20462722 0.03257072 -0.14919585 -0.16183138 -0.26997608 0.39252084
-0.3371505 0.42002028 0.36263615 0.1242919 0.2848389 -0.03804362 0.2009381 -0.3553515
0.47526956 0.42007244 -0.4390059 -0.46593451 0.052398384 -0.26248026 -0.25331426 0.26745206
-0.10920316 -0.07815713 -0.08270109 -0.15095186 -0.28024155 0.23325604 0.097541034 0.48928416
0.28731555 0.33532977 -0.34717798 -0.2145319 0.19028604 -0.38816988 0.18535662 0.10014355
-0.21935016 0.34643996 -0.08098519 -0.44134444 0.15129304 -0.25442827 -0.06058508 0.25121403
0.18649948 -0.06471801 -0.38060635 0.09534508 -0.4610746 0.15511537 -0.3572322 0.4128495
-0.22785342 0.10424453 0.03203857 -0.2536394 -0.46194178 0.3404088 -0.27127194 0.084235966
0.41260535 0.18442553 -0.34467298 0.05490011 -0.49986094 0.25373334 -0.44080234 -0.0007122159
-0.2536525 0.3083325 0.4208827 0.31157553 0.17239004 0.47414696 -0.3469327 -0.34214675
0.10862398 -0.066966295 0.14408463 -0.12813598 0.36115843 0.23721254 -0.14876688 0.10524464
0.41847658 0.055889666 0.1644125 -0.49942034 0.45800894 -0.05892682 0.16740686 -0.22234589
0.07271618 -0.22518522 -0.4418127 -0.30235147 0.30901003 0.3460074 -0.17171687 0.45990986
0.23345691 0.38265264 -0.0057944655 0.20287138 -0.45704228 -0.37226832 0.467458 -0.44113916
0.10866219 0.15451443 0.32580024 0.17166853 -0.38497913 0.11236918 -0.4343909 0.31266272
-0.056313336 0.14247233 0.42110515 0.24071974 -0.31336886 0.11757743 -0.43432522 -0.13835162

actor_fc_3.weight f4 [128, 1]
00000000: 527f 72bf 9238 7e3f 1863 1e3e ea68 0e3f
00000010: 38fb 20bf 5c9e 31bf 701e 02be a0d5 293d
00000020: e023 08bf 24f1 22bf ec1e 833e 0cb8 efbe
00000030: 2a8c 6a3f 0090 73be 322c 40bf 00b6 e9be
00000040: 8c33 113f c087 693e 8425 913e 207c 46be
00000050: b851 b0be 8235 453f b886 aabe 02df 373f
00000060: a83a 2fbf 480a 7c3e a09b 0fbe d22b 193f
00000070: 28ec 1ebf 0033 1bbc 7c73 973e 80e0 913c
00000080: 8061 82bc f87f 18bf b4a6 c1be 5675 64bf
00000090: 0040 7abd f2ce 20bf f8f0 5a3f 9634 40bf
000000a0: 1804 3dbf 24fe 273f d8f0 a9be 840d b73e
000000b0: c037 e53d bcf1 94be de60 423f 3ceb 883e
000000c0: e830 603e c6f6 113f c0bb 1ebf cabb 063f
000000d0: 5e41 69bf 9644 07bf 1036 703e 04f3 723f
000000e0: 52c9 7d3f 784d cfbe f4f2 fabe 4455 91be
000000f0: 002e 5d3e 3086 73bf b044 85be 9041 4dbe
00000100: 6055 0e3d 4e27 73bf 2485 5f3f 74ae 453f
00000110: 2cea 00bf ac49 793f 347f 223f e08a 0b3d
00000120: b0d8 d1bd c8dd 49bf 94f6 9f3e f4b5 4bbf
00000130: d278 3e3f 4e73 4dbf 34a8 3bbf 0c94 a43e
00000140: da74 43bf f4ec 9bbe ca8c 6fbf 40d7 db3d
00000150: c437 aabe 0468 8e3e d827 15be 7c44 b73e
00000160: 9efc 6bbf 1404 d0be 7c08 bbbe 5022 89bd
00000170: 763a 60bf 3ca6 81be 86a9 21bf a456 1abf
00000180: d0c1 353e 26e7 3abf 186d 0ebe 54c1 79bf
00000190: 3a78 66bf 44e5 f1be c868 2abe d065 04be
000001a0: 60a5 7b3d 7402 1abf 4efd 07bf 90d9 873e
000001b0: 00d2 06be 8028 d13e a4b7 593f 1663 463f
000001c0: 7862 6ebf 8c6a 423f 3403 09bf 104e 833d
000001d0: 60b5 e93e ec13 b5be 84b9 25bf 687a dc3e
000001e0: 9cf8 293f 48b6 713f 5879 94be 64e6 ffbe
000001f0: 308a 4fbf 7431 973e 4ad3 0b3f c0c3 57bd
-0.94725525 0.9930507 0.15467489 0.55628836 -0.6288333 -0.6938226 -0.12706923 0.041463494
-0.5317974 -0.636492 0.2560953 -0.46820104 0.91620123 -0.237854 -0.75067437 -0.45646667
0.5671928 0.22805691 0.28348935 -0.19383287 -0.34437346 0.7703477 -0.33305907 0.7182466
-0.6844888 0.24613297 -0.1402421 0.5983249 -0.62079096 -0.009472609 0.29580295 0.017807245
-0.015915632 -0.59570265 -0.37822497 -0.8924154 -0.06109619 -0.62815773 0.8552394 -0.7508024
-0.7383437 0.6562216 -0.33191562 0.357525 0.11192274 -0.2909068 0.7592906 0.2674197
0.21893656 0.5701717 -0.62005234 0.52630293 -0.9111537 -0.5283903 0.23458123 0.9490206
0.99135315 -0.4048879 -0.49013484 -0.28385365 0.21599579 -0.9512663 -0.26028967 -0.20044541
0.03474939 -0.9498185 0.8731253 0.7721932 -0.5035732 0.9737804 0.63475347 0.03406799
-0.10246408 -0.78854036 0.31242812 -0.79574513 0.7440311 -0.80254066 -0.7330353 0.321442
-0.76350176 -0.30454218 -0.935742 0.10734415 -0.3324567 0.27813733 -0.1456598 0.35794437
-0.9218234 -0.4062811 -0.3652991 -0.06695998 -0.87589204 -0.2532214 -0.631493 -0.60288453
0.17749715 -0.73008955 -0.13908803 -0.9756062 -0.900272 -0.47245228 -0.16641533 -0.12929463
0.06143701 -0.60159993 -0.5312089 0.26533175 -0.13166046 0.40851212 0.8504584 0.77494943
-0.93119 0.7594383 -0.5352051 0.064113736 0.4564619 -0.35366762 -0.647362 0.4306214
0.6639497 0.94418764 -0.28998828 -0.49980462 -0.8107023 0.29529917 0.54619277 -0.052676916

actor_fc_3.bias f4 [128]
00000000: 80c1 6f3f 0e66 2fbf fce0 64bf 9c19 9b3e
00000010: dcf2 ed3e 5265 013f 1c20 6f3f 0cbe 453f
00000020: de41 3c3f d0b7 0a3f 0078 323f 7e1c 003f
00000030: b6c3 793f a2f4 533f 9420 58bf 6892 2ebf
00000040: e496 85be 14ef 2abf 303d bebd f09f c43d
00000050: f817 16bf d09b 9bbe 102d 2cbf 1e10 123f
00000060: 00c1 323d 96e1 5e3f 6e45 55bf 50c9 1d3e
00000070: 9c90 74bf 347b 41bf 44e0 08bf d866 853e
00000080: 802b 363c 3803 78be 00ad 6e3e 60ee 1dbd
00000090: 30df ef3e 70b7 00be b807 1fbf 0460 e9be
000000a0: b426 303f 043f ba3e 048a ab3e 6003 623f
000000b0: 68d9 2f3e 1a27 373f 36a8 7d3f c2fe 203f
000000c0: 9203 503f 48a9 44be 80d9 85bd 38b0 edbe
000000d0: 5032 243f 8675 59bf 162e 33bf e6a3 753f
000000e0: 0040 1a3d 2cf5 dd3e 3074 e8be 982a 453e
000000f0: e402 6dbf 80a0 61bf 261a 46bf 806d 123e
00000100: 4ac9 3a3f 4470 063f dc18 e7be a44c e93e
00000110: 20e8 1abe b0c7 51be f02b 693e 540c 6d3f
00000120: 60c9 61be 409d d7bc 7015 7bbe 6865 733f
00000130: 60f7 87be 54fb 493f c89c 49bf d0c5 c6be
00000140: b4dc 3c3f 8217 64bf bc0b 333f de35 6bbf
00000150: f467 e93e 0ef0 56bf f893 333f 08d5 4b3e
00000160: 5e35 513f 465b 4b3f dc4e 4bbf 76fd 3c3f
00000170: 3a98 30bf 18ba 8f3e 9e43 0e3f a402 ee3e
00000180: b08c a53e e4d2 9bbe 6038 503e 66f7 29bf
00000190: 68c9 10bf 0021 85be c832 6f3e 84ed e83e
000001a0: 9099 5e3e bc60 1b3f a4ff 2d3f ca87 51bf
000001b0: 8efc 0d3f 94d8 70bf 484c 113e d0e1 b03e
000001c0: f055 0bbf 9865 73bf 8080 6dbf d0d0 1bbf
000001d0: 7c41 3ebf 002c 4e3f 1c75 733f 76f2 59bf
000001e0: 687a da3e 66a5 473f 40c9 e9be 7c3e 0b3f
000001f0: 40bb df3d e4fb 9c3e e0f8 2d3d f81b 493e
0.9365463 -0.685151 -0.894058 0.30292976 0.4647435 0.5054523 0.9340837 0.77243114
0.73538005 0.54186726 0.69714355 0.50043476 0.97564256 0.82795155 -0.8442471 -0.6819215
-0.26091683 -0.66771054 -0.09289014 0.09600818 -0.58630323 -0.30392313 -0.6725626 0.5705584
0.04364109 0.87062967 -0.83309066 0.15408826 -0.95533156 -0.7557862 -0.534672 0.26055026
0.01111877 -0.24219978 0.23308182 -0.03855741 0.46849966 -0.12569976 -0.6212115 -0.45581067
0.68809056 0.36376202 0.33503735 0.882864 0.17172778 0.7154404 0.99084795 0.6288873
0.8125545 -0.192052 -0.065356255 -0.46423507 0.6413927 -0.8494495 -0.69992197 0.95953214
0.03765869 0.43351114 -0.45401144 0.1925453 -0.92582536 -0.8813553 -0.7738365 0.14299583
0.7296339 0.52515054 -0.45136154 0.45566285 -0.15127611 -0.20486331 0.22770667 0.92596936
-0.22049475 -0.0263201 -0.24519897 0.9507661 -0.2655592 0.7889912 -0.78754854 -0.38822794
0.73774266 -0.8909837 0.6993978 -0.9187907 0.45587122 -0.83960044 0.7014766 0.19905484
0.81722057 0.7943615 -0.79417205 0.7382425 -0.6898228 0.28071666 0.55571926 0.4648639
0.323339 -0.30434334 0.20334005 -0.66393125 -0.5655732 -0.2600174 0.23359215 0.4549371
0.21738267 0.6069448 0.679682 -0.8184782 0.5546349 -0.9408047 0.14189255 0.3454728
-0.54428005 -0.95076895 -0.927742 -0.608655 -0.7431867 0.8053589 0.9510057 -0.8513559
0.42671514 0.77986753 -0.45661354 0.5439222 0.10924387 0.30660927 0.042473674 0.19639575

actor_fc_4.weight f4 [128, 1]
00000000: 7c86 923e c8b4 a63e 7ebd 3b3f 1ed5 1ebf
00000010: 581c bfbe dae1 3a3f 9c04 f33e 944a 50bf
00000020: 261c 293f 9266 7b3f dcd5 853e 582c 063f
00000030: 70a5 b6be 68f7 713f 8008 73bc b0e6 c73d
00000040: f6d1 1b3f 9438 7dbf aea2 663f cc63 f93e
00000050: 06f5 093f 94b4 3fbf 0cf8 f23e dce9 ffbe
00000060: 30ac 68be 382a 11bf 82cf 693f e8c3 88be
00000070: 700a c33d 0284 51bf ce6a 4ebf 6a08 3f3f
00000080: 6e92 303f ec09 81be f0c1 e73d 76ab 6c3f
00000090: 1a65 243f fc2b ae3e beef 263f 0ef7 1ebf
000000a0: e822 00be f6c5 1c3f 822d 643f ba2e 3dbf
000000b0: b82f 0d3e 2850 64be d8de 053f eeec 4fbf
000000c0: e042 5d3f 70bd babd 68e4 1cbe a06f fd3d
000000d0: 249c 12bf 8456 1b3f 042b 3bbf 6621 4b3f
000000e0: a4d8 2fbf 40be 93bd b81f 20bf 200b d33e
000000f0: dce1 d5be c2eb 203f 808c 4ebe a084 02be
00000100: f016 0a3e 6035 b3bd e0f8 96bd ac29 c53e
00000110: 30a0 cfbd 4a9b 673f 00c7 2e3f 886b 843e
00000120: f81e 50bf be48 293f f8f6 78be 18a5 0bbf
00000130: 50c7 7b3f 9a94 6cbf a411 2dbf 4c92 abbe
00000140: c424 81be e060 223e 6486 cebe b8a9 213f
00000150: c066 00bf 60d6 a63e 02a4 32bf dafa 51bf
00000160: 2083 063d 18f9 40be 92ba 7fbf 646a 6e3f
00000170: 2227 283f 787f 03bf 84ba 5d3f a822 153f
00000180: 402c 07be 5c08 42bf 4c56 0f3f 8e3d 4c3f
00000190: b867 69be 7051 263f 4446 543f 90c5 0fbf
000001a0: 6432 8abe 589b d53e 407a ec3c a885 353f
000001b0: e08a 263e 2013 9cbe 00d8 c13c 2e16 633f
000001c0: f408 dabe 28d4 7cbf 80a3 f5bc 3cb1 ebbe
000001d0: b841 023f 587a ffbe 4009 36be 5830 7b3f
000001e0: 9ed3 7cbf da05 643f d673 44bf 201e b43e
000001f0: 0e4a 18bf 70e2 bf3d 1472 913e b84f 26be
0.28618228 0.325598 0.7333602 -0.6204394 -0.37326312 0.7300087 0.47464454 -0.813638
0.66058576 0.98203385 0.26139724 0.52411413 -0.35673094 0.94518137 -0.0148335695 0.09760797
0.6086725 -0.98914456 0.9009198 0.4870895 0.538895 -0.74884915 0.4745487 -0.49983108
-0.22721934 -0.56705046 0.91332257 -0.26711965 0.09523475 -0.8184205 -0.8063172 0.74622214
0.68973434 -0.25202882 0.113162875 0.9244913 0.6421677 0.34017932 0.6520957 -0.62095726
-0.12513316 0.61239564 0.8913194 -0.73899424 0.13787735 -0.22296202 0.5229316 -0.812209
0.8643017 -0.091181636 -0.15321505 0.123748064 -0.572695 0.6067889 -0.7311251 0.79347837
-0.6868994 -0.07214022 -0.625484 0.41219425 -0.4177388 0.6285974 -0.20170784 -0.12745905
0.13485312 -0.08750415 -0.07371688 0.38508356 -0.10137975 0.9047133 0.682724 0.2586329
-0.81297255 0.6612662 -0.24312961 -0.5454879 0.98351 -0.9241425 -0.6760504 -0.33510053
-0.25223362 0.15857267 -0.40336907 0.63149595 -0.50156784 0.3258543 -0.69781506 -0.82023394
0.032839894 -0.18845022 -0.9989406 0.9313109 0.6568471 -0.51366377 0.86612725 0.58256006
-0.13200474 -0.75794005 0.55991054 0.79781425 -0.22793472 0.64968014 0.82919717 -0.5616083
-0.2699157 0.4172008 0.028866887 0.7090707 0.16263914 -0.3048334 0.023662567 0.8870572
-0.42584956 -0.98761225 -0.02998519 -0.46033657 0.5088153 -0.49898028 -0.17776966 0.9812064
-0.987604 0.8907143 -0.7673925 0.35179234 -0.59488 0.093693614 0.28407347 -0.16241348

actor_fc_4.bias f4 [128]
00000000: a829 3fbe b0ed a9be 2c2b c7be 802b c8bd
00000010: 40d8 d1bd 8485 973e 3e8c 61bf ca64 163f
00000020: 4c99 4bbf 30b1 053f f460 24bf 7211 643f
00000030: 588e 7a3e a8e2 4e3e c012 2abf 9ea7 3bbf
00000040: 681c 06bf e810 48bf dedf 64bf 30ac f3be
00000050: 2824 6e3f ba11 3e3f ce34 1abf 22bb 193f
00000060: 8895 733f 2e49 31bf 7acd 2fbf b41a 0f3f
00000070: b8f4 d03e bc11 86be d4be 4f3f 2013 593e
00000080: 3e1b 03bf a0b6 83be ea6a 08bf 408a d2be
00000090: c259 61bf e8d6 7abf a064 883e 40d4 193f
000000a0: 8023 a03d 7823 f9be ac62 53bf a0d8 b03e
000000b0: b044 d1bd 2023 68be 8efd 0f3f 4c8b c0be
000000c0: d6a1 693f e8d6 4cbf a0cb e6be 20e3 46be
000000d0: 80de 32bd 4aa4 7cbf a0ae 833d d887 dabe
000000e0: 5063 243f 9cdd 453f e67c 723f 605c 6d3f
000000f0: b0b6 cd3e 807e 15bc 3ad0 273f 2417 d0be
00000100: a0da 08be c0f4 68bd 4078 6cbe 80fd 7fbc
00000110: 60c9 18be a0a7 733e e00a a9bd 5050 c73e
00000120: 5206 5dbf b035 70be b05c 25be 8c7a 233f
00000130: 088d 683f 22a2 513f 804f d33d 34be d03e
00000140: b0ac 3c3f 0a52 78bf f84e 78bf 38e0 4abf
00000150: 1028 c73d 240f 41bf 14b6 b6be 60c2 9abd
00000160: 6c3a 25bf e87b e53e a0b6 03be 18bc 3e3e
00000170: f83e 353f 0a37 2d3f 248f ccbe 3075 1a3f
00000180: 8081 3dbe 460d 60bf 20de 993d b8fd 1bbf
00000190: 3065 d9be cc52 5dbf 2c02 2abf d4b1 cb3e
000001a0: c8ec 19be 2c14 12bf c006 c5bc b059 1dbf
000001b0: 04f1 5e3f e0de f9bd 54f3 f23e b07b 09bf
000001c0: 3432 93be de35 493f d466 223f 509f 473e
000001d0: 7825 59bf a82c 56bf 4075 ac3d d0f7 dd3d
000001e0: f83a 13be 0492 a73e 381b b5be 40b8 e0be
000001f0: a028 a9be 1800 413f 6090 473d 5cdb 26bf
-0.18668234 -0.33189154 -0.38900125 -0.09773922 -0.102463245 0.29594052 -0.8810462 0.5874754
-0.7953079 0.5222349 -0.6421044 0.8908912 0.24468362 0.2020365 -0.6643486 -0.7330264
-0.52387094 -0.78150797 -0.89404094 -0.47592306 0.9302392 0.742458 -0.60236824 0.60051167
0.9515004 -0.6925229 -0.6867291 0.5590012 0.40811706 -0.26185405 0.81150556 0.21198702
-0.51213443 -0.2572527 -0.5328814 -0.411211 -0.88027585 -0.9798417 0.2663927 0.6008949
0.07819271 -0.48659873 -0.82572436 0.34540272 -0.10218179 -0.22669649 0.5624627 -0.37606275
0.9126257 -0.8001542 -0.4507723 -0.19422579 -0.043669224 -0.98688185 0.064297915 -0.42681766
0.6421404 0.77291274 0.9472183 0.9271908 0.40178442 -0.009124398 0.65552104 -0.40642655
-0.13364649 -0.056874037 -0.23092747 -0.015624404 -0.14920568 0.23794413 -0.08254027 0.3892846
-0.8633777 -0.2345798 -0.16148639 0.63858867 0.90840197 0.8188802 0.10317898 0.40770113
0.73701 -0.9700018 -0.96995497 -0.7924838 0.09724438 -0.7541373 -0.3568579 -0.07556605
-0.6454227 0.44821095 -0.12862635 0.1862644 0.7079921 0.6766211 -0.39952958 0.60335064
-0.18506432 -0.87520254 0.0751307 -0.6093402 -0.42460012 -0.86454463 -0.66409564 0.3978411
-0.15031731 -0.5706203 -0.02405107 -0.6146498 0.8708651 -0.12200713 0.4745127 -0.5370436
-0.2874924 0.7859782 0.63438153 0.19494367 -0.848228 -0.8366189 0.08420801 0.10838282
-0.14377964 0.3272859 -0.3537233 -0.43890572 -0.33038807 0.7539077 0.04872167 -0.65178466

fc1.weight f4 [128, 896]
00000000: 8086 18bc 8051 973b 60c1 f83b eeb3 dfbc
00000010: 28fd f73b f471 ecbb e8cb e53b f447 92bc
00000020: eada b43c 80f1 91ba 3cc1 4fbc 1c3e 71bc
00000030: 46b8 cbbc e2b6 03bd d085 d73c 5386 033d
00000040: 702a cb3b f413 c23c cc46 5bbc 6adf 40bc
00000050: f6c4 c83c 00d5 d2ba 009e 90b8 1347 073d
00000060: 9863 a0bc 2cfd 4a3c 14b0 173c 38ba b73c
00000070: 4682 cb3c 690b 84bc f88c 3cbb f0b8 463c
00000080: 5e6c dcbc c050 143c a8ae b03c 26d5 e83c
00000090: 808d 043a 4d7b 06bd ae8f d0bc 4073 6e3a
000000a0: 3eb6 5abc 8863 0a3c 9a0b c73c cade 8dbc
000000b0: 989b ce3b 4850 fe3b 14a2 17bc 2a82 df3c
000000c0: 98d5 75bb db36 83bc 3044 303c a0d6 b7ba
000000d0: 976e eebc e8d6 f43b 6a20 b43c 6232 b23c
000000e0: 4a31 cfbc aaa6 c2bc 8469 d7bb a029 663c
000000f0: 0028 da37 75f6 043d 1e6d ac3c 7615 73bc
00000100: 2636 f33c f8e4 8a3c 4604 db3c be32 b83c
00000110: ffbd 073d 8c11 c53c 409d 5fbc daba d33c
00000120: 4327 073d c036 b53c c0b1 163b af4c 053d
00000130: 2049 e5bc d9e9 8dbc 0001 95bc 001f 573c
00000140: e0bc 213c 3211 0fbc e09e bc3c ae8f 8a3c
00000150: fc96 a4bc f010 51bb 4e6f 923c 0ab4 f53c
00000160: 4277 21bc 5676 a8bc f148 cbbc 452f d2bc
00000170: 4056 3e3b d05e 77bb bd1f 083d 641d 4a3c
00000180: 006a c33a d603 db3c 5058 ba3c 305d 9e3c
00000190: ecb7 d7bc 18c3 d43b efe3 84bc 9bcb adbc
000001a0: e696 ae3c 8984 89bc bdda eabc 9075 8fbc
000001b0: d452 99bc a676 9bbc a998 c5bc fc59 52bc
000001c0: a071 7f3b 42ef bcbc 20bd d83c dce0 b9bb
000001d0: cefa f23c 6862 213c f044 8d3b 4746 06bd
000001e0: 3ab1 6abc 5003 953b d0a1 06bb 58c8 8bbc
000001f0: f62c c4bc f339 99bc e8e1 1bbb 0098 5ab9
00000200: b8c0 42bc 0240 aabc 5011 3d3c 5a22 31bc
00000210: 9cb8 2b3c 3815 a63c d0ff a6bb 1aa4 2bbc
00000220: c0a7 bf3b b86c c83c 8491 e53c 1cc2 08bd
00000230: c461 88bb 2c9b 04bd 179c f0bc 9c86 ba3c
00000240: fc6a a6bb 8071 9cbb 3ccc 803c 10e8 653c
00000250: bc2e 7c3c 0c09 d63c 9059 93bc f470 4cbc
00000260: 7ce3 603c d658 d93c 6091 c5ba f8b2 2cbb
00000270: 9ded d3bc 567d f63c 3888 52bc 934e e1bc
00000280: c898 f6bc 3450 27bc efd2 d2bc 90f0 c53b
00000290: 0078 2439 b317 dabc f695 bcbc 1cca a3bb
000002a0: e0ef 4b3b 7416 3a3c 5023 f0bc 2cd1 ccbc
000002b0: 5614 8f3c 707a 603c 5821 563c a0bf 97ba
000002c0: 02d4 bc3c 1e99 50bc b846 d53b 3afc 13bc
000002d0: 2805 56bc 0548 8dbc ef82 89bc 40e8 7a3c
000002e0: c041 e9bb 3077 393b e0c6 a7ba 7d6e 02bd
000002f0: 9eed 8a3c 4eaf 883c 7630 e53c d007 8a3c
00000300: 7075 15bc dc72 a3bb c932 053d 016e 07bd
00000310: e250 d63c c06e 12ba fe6f bf3c bf61 9fbc
00000320: 97d0 e4bc 0cc9 05bd 4041 16ba a8d8 2c3c
00000330: f0f8 c83c b4f8 06bd 0408 a63c b622 53bc
00000340: 8090 19ba 00a5 9b3c 78f8 28bc 6083 fdba
00000350: 8879 073c b25c 7dbc beaa f4bc 4687 cbbc
00000360: a058 30bb 102e a33c c011 deba f8fe a83b
00000370: ee20 f13c cc9e 393c e4b5 ffbb 5089 e33b
00000380: 74c6 e3bb 8090 733a f0eb fb3b 6e7a 8c3c
00000390: 90ba 173c c695 07bd 424f c9bc 2bbd babc
000003a0: 0e79 eb3c 886c 273c 20fe b13c 86df b3bc
000003b0: a0e5 233c f615 babc 8e8f 903c 4ee3 fc3c
000003c0: 57d3 013d c457 e33c 8031 8db9 da8e 24bc
000003d0: aa3b d7bc aea6 f23c 60d0 c53c b6b6 f1bc
000003e0: 6872 b1bc 0214 f73c 746c 993c fe96 80bc
000003f0: 06e4 06bd b036 a6bb 88b5 a03b 248a d63c
-0.009309411 0.00461787 0.0075914115 -0.027307477 0.0075680204 -0.0072157327 0.007012833 -0.017856576
0.022077043 -0.0011134595 -0.012680348 -0.014724281 -0.024868142 -0.032156833 0.026308924 0.032110523
0.0062001273 0.023691155 -0.0133835785 -0.011772016 0.02450798 -0.0016085207 -6.895885e-05 0.033026766
-0.01957874 0.012389462 0.009258289 0.022427663 0.024842393 -0.016118722 -0.0028770547 0.0121290535
-0.026907142 0.009052455 0.021567658 0.02842195 0.00050564855 -0.032832433 -0.025459137 0.0009096153
-0.013349114 0.008446582 0.024297524 -0.017318148 0.0063051693 0.007761035 -0.009254951 0.027283747
-0.0037511345 -0.016017368 0.010758445 -0.0014025755 -0.029105468 0.007471908 0.021988112 0.02175254
-0.025292058 -0.023761112 -0.0065738577 0.01404801 2.6006252e-05 0.032461602 0.021048125 -0.01483666
0.029688906 0.016954884 0.026735436 0.022485133 0.03314018 0.024056219 -0.013648331 0.025845934
0.032996427 0.022120833 0.002299413 0.032543834 -0.02798897 -0.017323421 -0.018188953 0.01312995
0.009871691 -0.008732127 0.023024976 0.016914215 -0.020091526 -0.0031900965 0.01787534 0.029993076
-0.009855093 -0.02056424 -0.024815055 -0.025657305 0.0029043108 -0.0037745722 0.033233393 0.012336109
0.001490891 0.026735228 0.022747189 0.019331545 -0.026332818 0.0064929835 -0.016221968 -0.02121525
0.021312188 -0.01678683 -0.028668756 -0.017512113 -0.018716253 -0.018977474 -0.024120646 -0.012838837
0.0038977638 -0.023063306 0.02645737 -0.0056725573 0.029660609 0.009850122 0.0043111965 -0.032781865
-0.014324481 0.004547514 -0.0020543225 -0.017063305 -0.02394722 -0.01870439 -0.0023785774 -0.00020846725
-0.011886768 -0.020782474 0.011539772 -0.010811413 0.010481026 0.02027379 -0.005096413 -0.010476137
0.005848855 0.024465904 0.028023489 -0.033388242 -0.004162045 -0.032374546 -0.029371304 0.022769265
-0.0050786715 -0.0047742724 0.015722387 0.014032379 0.015392002 0.02612736 -0.017987043 -0.012478102
0.0137261115 0.026531618 -0.0015073232 -0.002635179 -0.025870139 0.030089062 -0.01284986 -0.027503287
-0.030102149 -0.010211993 -0.025735347 0.00604064 0.00015684962 -0.026622629 -0.023020726 -0.0049984585
0.0031118318 0.011357892 -0.029313713 -0.025002085 0.017465752 0.013701066 0.013069473 -0.0011577494
0.023050312 -0.0127318185 0.0065086745 -0.0090323035 -0.013062753 -0.017246256 -0.016786067 0.015314162
-0.0071184337 0.00282998 -0.0012800358 -0.03184365 0.016959008 0.016685154 0.02797721 0.016849428
-0.009122238 -0.0049880575 0.032519136 -0.033063892 0.026161615 -0.0005585961 0.023368832 -0.019455789
-0.027931495 -0.032662436 -0.0005731769 0.010549702 0.024532765 -0.032952026 0.020267494 -0.012886694
-0.0005858019 0.018999577 -0.010313146 -0.0019341521 0.008268721 -0.015463995 -0.029866572 -0.024844777
-0.0026908293 0.019919425 -0.0016942546 0.005157348 0.029434647 0.011329364 -0.0078036655 0.006943859
-0.0069511477 0.00092912465 0.007688038 0.017148223 0.009260789 -0.03310182 -0.024573926 -0.02279528
0.028744247 0.010218747 0.021727622 -0.02195717 0.010003477 -0.02271555 0.017646577 0.030870106
0.03169569 0.02775181 -0.00026930496 -0.010043824 -0.026273567 0.029620495 0.024147213 -0.029506069
-0.021660998 0.030160908 0.018728472 -0.015696999 -0.032932304 -0.005072437 0.0049044527 0.026188917

fc1.bias f4 [128]
00000000: 8ea1 c8bc f5c7 043d 00b8 ec3c 8e0d f13c
00000010: 982f 32bc 000f b4b9 f0f3 adbb 384d 7e3c
00000020: f0b1 583b 42a8 99bc 4223 883c 5e57 89bc
00000030: 8c02 a9bc d9a4 013d 6f93 c0bc e0a1 d03a
00000040: 72b6 25bc 7847 8dbc 4820 6e3c 20d0 1d3c
00000050: 228d ed3c 2420 b23c 5e7e 8bbc 3971 b1bc
00000060: d4bb d33c ea0a bbbc 3cdc de3c a52e efbc
00000070: 2fe4 d6bc cc2a bf3c 76da 943c e227 eebc
00000080: a091 95ba 7c9f d3bb 4029 e73b 18a6 b53c
00000090: 053d 003d 58e2 4ebb dea9 e0bc 8ab0 97bc
000000a0: cd4c d4bc a024 1d3b 4073 c3bb 54c0 83bb
000000b0: 0a0d f3bc 8788 d2bc 280e acbb b05c a73b
000000c0: 505c ebbb 74f7 1d3c 6467 f4bb 0303 c0bc
000000d0: 4c2c cf3c f23d f33c b8c4 9b3c 1490 553c
000000e0: 8450 903c e4d4 743c b6bd 5abc 2aed 99bc
000000f0: 9c8c 6c3c 6aa6 b6bc 548f 22bc 8047 a8ba
00000100: ba78 b83c 403d c93a 7c10 3d3c 7e7d b73c
00000110: 49b6 d1bc 0044 73bb 1a06 25bc 8006 bbbc
00000120: 3424 aebb 2e87 7bbc c017 f8bc 2c58 03bd
00000130: 1a08 973c 00eb ed3b 6d52 95bc 085f 47bc
00000140: 82f0 f43c 2b27 efbc e828 c13b 242f 353c
00000150: d4b4 e8bb 39bb babc d832 5d3c cafb bfbc
00000160: 8023 1f3a 939b c5bc cc67 273c 33c3 06bd
00000170: a402 143c 58bf 6d3c 76cb 983c 6007 67bb
00000180: da1d 953c e8f6 b63c 006c a33b 985b b1bc
00000190: 5c41 0cbc fb15 e9bc 283a bc3b 203c bfba
000001a0: c40e 4dbc 27d1 043d ea87 d73c 3458 b2bc
000001b0: 166d 893c 00b2 4d39 80d2 3a3c 94bd ab3c
000001c0: 0060 f03a 0e90 883c d3d7 9fbc f0ea 8bbc
000001d0: 00c0 5f3a 6008 533b 94d0 cbbc e0da 9d3a
000001e0: 3c06 c0bb 6912 dfbc 42f4 f13c 98f8 d63c
000001f0: 8c0a 713c 48af 773c a083 733b 2840 5dbc
-0.024491098 0.032417256 0.028896332 0.029425409 -0.010875605 -0.0003434345 -0.0053086206 0.01552134
0.0033065043 -0.01875699 0.016618375 -0.016765293 -0.020631097 0.03165135 -0.023507802 0.0015917383
-0.010114299 -0.017245993 0.014534064 0.00963214 0.028997961 0.021743841 -0.01702803 -0.021660434
0.0258464 -0.022832353 0.027204625 -0.029197047 -0.026231853 0.023335837 0.018170577 -0.029071752
-0.0011411197 -0.006458221 0.007054478 0.022173926 0.031308193 -0.0031568017 -0.027424749 -0.018516798
-0.025915528 0.002397813 -0.0059646666 -0.00402073 -0.029669303 -0.025699867 -0.005250711 0.0051074848
-0.0071826354 0.009641517 -0.007458614 -0.023438936 0.025289677 0.029692624 0.019014701 0.013034839
0.017616518 0.014943335 -0.013350895 -0.018789846 0.014437821 -0.02229615 -0.009921867 -0.0012838691
0.022518504 0.0015353337 0.011539575 0.022398707 -0.025599616 -0.0037119389 -0.0100722555 -0.022830248
-0.0053143743 -0.015352054 -0.030284762 -0.03206651 0.01843648 0.00726068 -0.01822778 -0.012168653
0.02989984 -0.029193481 0.005894769 0.0110586025 -0.0071016345 -0.022794353 0.013500892 -0.023435492
0.00060706586 -0.024122035 0.010217618 -0.032901 0.009033833 0.014510952 0.018651705 -0.0035252199
0.01820271 0.022334531 0.00498724 -0.02165012 -0.008560505 -0.028452864 0.0057442375 -0.0014590062
-0.012515727 0.032426026 0.026309926 -0.021770574 0.016775649 0.00019616634 0.011402726 0.020964421
0.0018339157 0.016670253 -0.019512093 -0.0170798 0.0008535385 0.0032201037 -0.024879731 0.0012043379
-0.005860118 -0.027230458 0.029535417 0.026241586 0.014711987 0.015117474 0.0037157312 -0.013504066

fc3.weight f4 [2, 128]
00000000: 9e0b ecbc e01c f53c 4a82 58bd 8887 3f3c
00000010: a996 b23d 9c6e 92bd ab74 01bd 7e13 6b3d
00000020: 08ca 9dbd 1fd1 a83d 8801 b73c 6a19 5abd
00000030: 3c77 cfbc ed64 55bd 4f18 8a3d 362c f1bc
00000040: cfb7 8ebd 8420 9cbd ec7b b03c 3e02 323d
00000050: e02e 64bd 2a7b 433d 6030 043c 59db 37bd
00000060: 2a34 dcbc 54fa f73c 86cd 83bd 4ad1 27bd
00000070: 5825 813c 5ecc 043d 6e79 27bd 0051 80bb
00000080: fc2a a33c 7e0c 183d 79d4 803d e6fb 163d
00000090: 32a2 abbd 8863 8ebd c622 adbd a405 fcbc
000000a0: 2502 a7bd 8032 29bd 00c0 f2ba c794 9e3d
000000b0: 0816 b83c 405b b63a 2b27 8b3d 794a 883d
000000c0: 3cfa b53c 3835 173c b84e 5cbc 80f4 053b
000000d0: 0040 c737 2074 54bc 2ae3 7e3d 9e0a d5bc
000000e0: 47a7 52bd 1417 8cbc 676c 9fbd 26ae 583d
000000f0: eaa7 20bd a2e6 703d d67d 43bd 92fc 283d
00000100: b639 45bd 2665 85bd 2f0d 45bd 636f 893d
00000110: 3808 793c e0e0 9d3b f5ad 88bd 38d3 d8bc
00000120: a863 053d b14d 813d a0d6 1abd 96cc 383d
00000130: 28fc 193c 9062 b7bc 9049 a43c 2042 f23b
00000140: d387 a63d 725b 0e3d 936d ae3d 9080 063c
00000150: a529 3dbd f30a a8bd 60a3 90bb d7ad a13d
00000160: 5034 5e3c 774f 8bbd e6a5 75bd ff50 61bd
00000170: 7cef 8fbc 2aa1 593d 63d9 943d ceab 513d
00000180: a0d3 db3c 5462 a83c bfc1 823d 7d4f b4bd
00000190: 6146 b43d 9360 b2bd 5d3d 9b3d 214f 4ebd
000001a0: 924e a1bd 5c3f a7bd e0a8 2c3c 0893 a0bc
000001b0: 4638 15bd 8106 8d3d d240 3a3d b06d e73c
000001c0: 2e35 6c3d c28f 3d3d 9e0b 2f3d c015 363b
000001d0: 9839 abbc f116 71bd 36aa 5b3d 2609 6cbd
000001e0: 6d25 993d 944f e33c 3d41 8c3d f863 28bd
000001f0: 1436 91bc a665 02bd fa61 9fbd 7c5f d23c
00000200: a015 413b 62d4 debc 69b6 ac3d 60ae 82bd
00000210: 9033 4c3c 1ade e3bc bce4 cd3c b3df a33d
00000220: 4409 8dbd 7023 df3b bcbd 93bd 0647 6dbd
00000230: db5e 56bd ca7c 7bbd 1ab6 0d3d 65fc 00bd
00000240: e51f acbd 07a0 13bd 58f5 193c 9304 a9bd
00000250: 9ed6 7fbd c801 a4bd 32db 76bd 3113 4cbd
00000260: e01c a53b 389d 1ebc 8175 6bbd ea8e 203d
00000270: be9b 163d f4a1 b03c 726a 383d 8a43 09bd
00000280: 20b3 d93b 2cc3 9ebd 170c 2abd 006a d2ba
00000290: 6078 323c d448 b93c e8cd 923c 162d 243d
000002a0: f2bc 523d 4d07 afbd 1cc4 93bd 5815 fa3c
000002b0: 45a7 71bd 8c70 c9bc c0e3 85bb 6290 663d
000002c0: 0c9d 90bd 8097 343b 5ea9 0abd fa55 723d
000002d0: ec24 ce3c d316 b03d bec7 2dbd ea29 053d
000002e0: 2af3 2fbd 2002 9e3c 2007 213c 90b1 133d
000002f0: 7404 89bc dc67 023d 2cdb 89bc 15ad 933d
00000300: 6018 cfbc 8c19 86bd b432 88bc c915 9b3d
00000310: a195 963d 7b76 51bd a33c 883d 80b6 113a
00000320: 6c35 69bd f236 febc e616 27bd 7cbc b5bc
00000330: b40e 7dbd 6487 d33c 457d 963d d13b 8abd
00000340: 0eab 5e3d 8a4c 7b3d 8076 1abc f85b 033d
00000350: a01f 00bb 2f14 6abd ecc7 0bbd 11bb a93d
00000360: 9323 8b3d 08b3 81bc ee7c 1a3d 36f7 61bd
00000370: 49a3 8d3d 1492 30bd aae1 16bd bbe1 85bd
00000380: ee12 4d3d 3672 adbd 92de 5f3d ff3a 953d
00000390: 74a1 a7bc fbe2 0fbd 8ceb c43c 40be 083d
000003a0: 4aa2 583d 19c8 a63d 8d0b a73d 38e2 543c
000003b0: d0e8 8dbd 7982 92bd b855 5cbc 9052 8abc
000003c0: 9ef1 233d 9815 3a3c 929d 193d be06 5d3d
000003d0: c3c7 973d 60f0 d03b 80e0 0c3d 04f0 59bd
000003e0: ee11 383d c0ed 0dbb f93c b03d 2ae5 383d
000003f0: 1d95 93bd d635 733d eb4c a33d 0034 0b39
-0.028814133 0.029920995 -0.05285863 0.011690028 0.087201424 -0.07150003 -0.031605404 0.057391636
-0.0770455 0.08243012 0.022339597 -0.053246893 -0.02532541 -0.052098203 0.06742918 -0.029440027
-0.069686525 -0.07623389 0.021543466 0.04345917 -0.055708766 0.04772488 0.008068174 -0.04488692
-0.026880343 0.030270733 -0.06435685 -0.040971078 0.015764877 0.032421462 -0.04088729 -0.003915906
0.019917957 0.03712129 0.06290526 0.036861323 -0.08380546 -0.06952578 -0.08453898 -0.030764408
-0.08154706 -0.041307926 -0.0018520355 0.07743221 0.022471443 0.0013912693 0.0679458 0.066548295
0.022214048 0.009228997 -0.013446502 0.0020439923 2.3752451e-05 -0.0129671395 0.06222836 -0.02600604
-0.05142906 -0.017100848 -0.07784348 0.052900456 -0.039222635 0.0588137 -0.04772743 0.041256495
-0.04815074 -0.06513433 -0.048108276 0.067106985 0.015199713 0.004818067 -0.06673805 -0.026467904
0.032565743 0.063136466 -0.03780234 0.045116983 0.009398498 -0.022385865 0.020054609 0.0073931366
0.08131375 0.034755178 0.085169934 0.008209363 -0.046182293 -0.082052134 -0.004414007 0.078944854
0.013562277 -0.06802266 -0.059972666 -0.055008885 -0.01757025 0.053132214 0.07268026 0.051189236
0.02683431 0.020554699 0.063846104 -0.08804224 0.08802486 -0.08709826 0.075800635 -0.050368432
-0.07876314 -0.08166382 0.01053831 -0.01960136 -0.03643062 0.06886006 0.045471974 0.028250545
0.057667904 0.046279676 0.04273569 0.002778396 -0.020901486 -0.05885977 0.053629123 -0.057625912
0.074778415 0.027747907 0.06848381 -0.041110963 -0.017725982 -0.03183522 -0.077823594 0.025680296
0.0029462352 -0.027200881 0.084332295 -0.06380916 0.012463465 -0.027815867 0.025133483 0.080016516
-0.06886533 0.0068096444 -0.07213923 -0.05792906 -0.052336555 -0.061398305 0.034597494 -0.031490702
-0.08404521 -0.036041286 0.009396873 -0.082528256 -0.062460534 -0.08008152 -0.060267635 -0.04982299
0.0050388426 -0.009681039 -0.057485107 0.039198793 0.03676962 0.0215616 0.04502339 -0.033511676
0.006643668 -0.0775207 -0.041515436 -0.0016053319 0.010892957 0.022617735 0.01792045 0.04008206
0.051449724 -0.085463144 -0.07215139 0.030527756 -0.05899741 -0.0245898 -0.004085988 0.056290038
-0.07061204 0.0027556121 -0.033852927 0.059164025 0.02516409 0.085981034 -0.042426817 0.032510675
-0.04295651 0.019288123 0.009828359 0.03605801 -0.016725756 0.03183733 -0.016828142 0.07210747
-0.025280178 -0.065478414 -0.01662574 0.075725146 0.07352758 -0.051138382 0.066521905 0.00055585057
-0.056935713 -0.03103206 -0.040793322 -0.022184603 -0.0617816 0.025821395 0.07348112 -0.0674969
0.05436235 0.06135229 -0.009427667 0.03207013 -0.00195501 -0.057148155 -0.034126207 0.08287633
0.067938946 -0.015832439 0.0377168 -0.0551674 0.0691591 -0.04310806 -0.036836304 -0.06537195
0.05006688 -0.0846905 0.05465562 0.07286643 -0.020462729 -0.035128575 0.024038099 0.03338456
0.052889146 0.08143634 0.081565 0.012993388 -0.06929171 -0.07153792 -0.013448171 -0.016885072
0.040025346 0.011357687 0.037503786 0.053961508 0.074111484 0.006376311 0.034393787 -0.053207412
0.044938974 -0.0021656603 0.086053796 0.045140423 -0.072061755 0.059377514 0.07973655 0.00013275445

fc3.bias f4 [2]
00000000: 5865 c93c 40d4 ad3b
0.024584457 0.005304843
