linearNet/checkpoints/abr_500_critic.pt (torch, 279194 bytes, 9 tensors)

fcs1.weight f4 [256, 7]
00000000: 6211 dbbd d742 073e 3b44 c2be a8a2 73be
00000010: f338 a3be 7c9a 3e3f b998 babd 9d69 c0be
00000020: 4a9e a4be 6a5c f4be 11f9 2040 8ed2 0bbf
00000030: a1b1 c5bc 76ca 4cbf 2e60 99bb e384 633c
00000040: f7a2 883c 9769 383c 33b3 a03c 2b00 0dbd
00000050: e0da 38bd 9c80 ccbc 50ec ea3c aad1 103d
00000060: 30a1 9bbb 8ecb 083d 42eb 113d 40db 45bc
00000070: d169 923e 1d92 b03e d5eb a83f a688 c73f
00000080: 287b b6be 3574 023f cceb 80bc 88af 5c3c
00000090: a4c9 1d3d 15a4 c7bc bc19 ec3c 72fc 603b
000000a0: 1aa7 31bc 8cd9 9bbc b014 653d a045 59bc
000000b0: b02c 40bc e214 08bd cce7 c5bc 965f 16bd
000000c0: 12ae 793d 2651 0ebd a091 b73c 7b48 e2ba
000000d0: 2059 c43b bed9 61bd 1660 71bd bebb 62bd
000000e0: ca66 3e3d 48d4 34bc 42bd 0a3d e048 e33c
000000f0: 00ad 82bb 002b 263d aefb 03bd 36ae 6f3e
00000100: 85e2 ab3e 9d2e c93e 4dca 0640 5a09 833d
00000110: 75b0 b4be 9a9c 613e 3b50 c6be 381f f2be
00000120: 5f75 d4bf f5f4 2bbf 2e19 82bf 477e 95bf
00000130: 967b 35bf b9ba c23f 3638 853f 5cd1 843f
00000140: ad2b 0040 931f 61bd 0bbe 113f cded 0f3f
00000150: 42c3 a7be b5d9 61bf dc37 51be d676 0ec0
00000160: 5473 8bbc b622 35be 7e46 3dbd 7d0d 2c3c
00000170: a331 333d e915 443d 6aaf d83a 800c 25bd
00000180: 196f d73c 1cd0 26bd 9465 7cbd 188f 3dbd
00000190: 60f5 f33c 34f9 a7bc 2e54 3bbd 4879 6bbd
000001a0: e85f 083d 0096 1a3d 80eb ed3a 544e 633d
000001b0: c075 993b bce4 e2bc fcb3 233d b65f 663d
000001c0: 033f 35bf ec6c a1bf c364 8740 4c3c 62c0
000001d0: b6b0 76b9 c3bc 64bc 7be4 7aba 8d4a 483f
000001e0: 5fa2 1d40 aea2 f83f 1807 6340 0e40 ccbc
000001f0: a1ef 5c3f 342b 2c3b f86b db3c f8f6 51bc
00000200: 7ab7 3b3d 0043 c339 d0d4 803b feb4 6ebd
00000210: 9801 613c 2ba6 a33f ed1e d9bd 4850 4e3f
00000220: d6ac 413e 5b3b 8ebd c54e 1e3f 4b67 a9bf
00000230: 4678 863c 2e52 7fbd 5c0b 6a3d 4cba c6bc
00000240: 0827 11bd 90a5 f03b 8075 913a 56ee 0040
00000250: 5648 6d40 9174 5a40 711e 11bd 4675 9e3b
00000260: 335f 373f 9c45 6a3e 2e18 a03d 15f6 99bc
00000270: 3001 903f 0048 4d40 bf0e a3bc b7ed 41bf
00000280: a46c 2fbe f5d1 76c0 8b76 44be ca9f 77bf
00000290: 764a 233f 94fa 59bf a334 5ebf ec12 8abf
000002a0: e862 3a3d 200f 45bc 8c42 7f3d b0b9 d93c
000002b0: 409a 86bc 0e22 423d 28f9 d1bc cdb5 1f40
000002c0: 4369 8040 6a18 2f40 1014 da3f a275 21bd
000002d0: 9d14 5f3f c805 183e 9472 183d 0145 a63c
000002e0: 7965 56bc 92f3 263d 02bd 5ebd 581e f93c
000002f0: 903d 4cbc 93d2 583d 689f b73c 584a 2dbd
00000300: a27c 683d beb1 02bd 26a6 33bd 77bc 793d
00000310: 6028 c33c d6ee 19bd 5c10 d0bc 11cd 39bc
00000320: 140f 04bd bd3d 22bd 907f a33c e8e1 bf3e
00000330: be5f 08be 25a3 9fbf e6ea cbbf fa6b b0bf
00000340: 7b9f 7aba d062 ad3e 0ff7 7f3e 1ab7 1abf
00000350: 3391 c0be 0f86 15c0 f4f6 653e d465 e5be
00000360: 0583 20bb e2f0 98bf 5260 2f40 5274 f6be
00000370: 1cb4 c73f 9122 203d 2b3e 7fbe 19e3 1c3e
00000380: 3021 f63b 1ebe 63bd 1bdb 61bd 00e5 b83c
00000390: ae5d 0f3d a084 5b3b 8001 c9bb 0b3b 09be
000003a0: 489f 453f c4a2 c93f b472 d63f 61c0 adbe
000003b0: 2ecd 433e 2747 c2bf 730d 9b3f 505b cd3f
000003c0: da0e 4440 dc08 18bf ac7f dd3d 7324 023e
000003d0: 8f88 b8be 5078 993c 9436 f53f 5826 1840
000003e0: 5b57 8a3c 4937 443e cb9a 263f c8e5 1d3d
000003f0: 307b fb3b 706c 27bc ac3b c13c 9c59 17bd
-0.10696675 0.13209091 -0.3794268 -0.23792517 -0.31879386 0.74454474 -0.09111161 -0.37580577
-0.32152015 -0.47726756 2.5152018 -0.54618156 -0.024132552 -0.7999643 -0.004680655 0.013886663
0.01667927 0.011255643 0.019616699 -0.03442399 -0.04513061 -0.02496367 0.028677136 0.0353562
-0.0047494397 0.03339725 0.03562475 -0.012076199 0.28596357 0.34486476 1.319697 1.5588577
-0.35640836 0.5095857 -0.015737437 0.013469584 0.038522378 -0.024370233 0.028820865 0.0034330157
-0.010843063 -0.019024633 0.055927932 -0.013261229 -0.011729404 -0.03322304 -0.02415838 -0.03671225
0.060957022 -0.034745358 0.022408307 -0.0017264033 0.00599207 -0.055139296 -0.058929525 -0.055354826
0.046484746 -0.01103694 0.033871897 0.02774471 -0.0039879084 0.04056835 -0.032222442 0.234063
0.33571258 0.39293376 2.1060975 0.06398268 -0.35290876 0.22032395 -0.38733086 -0.47289443
-1.6598319 -0.6717065 -1.0163934 -1.1679162 -0.708917 1.5213233 1.0407779 1.0376391
2.0026658 -0.054961752 0.5693061 0.5622223 -0.32766157 -0.8822282 -0.20431465 -2.2260032
-0.017022766 -0.17689022 -0.046209805 0.010501263 0.04374851 0.047872458 0.001653177 -0.040295124
0.026298093 -0.040725812 -0.06162031 -0.046279043 0.02978009 -0.020504571 -0.045734577 -0.05748871
0.03329459 0.037740707 0.001815185 0.05549462 0.0046832263 -0.02769696 0.03996657 0.05624362
-0.70799273 -1.2611365 4.23105 -3.5349302 -0.00023526218 -0.01396102 -0.00095707894 0.78238755
2.4630353 1.9424646 3.547308 -0.024932887 0.86303145 0.0026270868 0.026784882 -0.01281523
0.045829274 0.00037243217 0.003931619 -0.058278076 0.01373329 1.2785085 -0.10601602 0.8059125
0.18913588 -0.06944915 0.6183894 -1.3234648 0.016414773 -0.062334232 0.05713974 -0.024258755
-0.035437614 0.0073439553 0.001109764 2.0145469 3.70754 3.4133646 -0.03542942 0.0048357574
0.7162964 0.22878116 0.07817112 -0.018794099 1.1250362 3.2075195 -0.019904492 -0.7575335
-0.17131287 -3.8565648 -0.19185846 -0.96728194 0.63785493 -0.85147977 -0.8679907 -1.0787024
0.04550448 -0.012027532 0.062319323 0.0265778 -0.016430974 0.04739576 -0.025631502 2.4954712
4.0128493 2.735865 1.7037373 -0.039418824 0.8714083 0.14845955 0.037218645 0.020296576
-0.013085716 0.04075963 -0.05437947 0.030409977 -0.0124658495 0.052935194 0.022414878 -0.042307228
0.056759484 -0.03190779 -0.043859623 0.06097075 0.023822963 -0.037581287 -0.025398426 -0.011340396
-0.032240942 -0.03960966 0.019958287 0.3747704 -0.13317773 -1.2471663 -1.593106 -1.3782952
-0.00095605076 0.3386445 0.24996589 -0.6043564 -0.37610778 -2.3363073 0.22457486 -0.4480425
-0.0024492156 -1.1948512 2.740254 -0.4813562 1.560184 0.039095465 -0.24926059 0.15321006
0.0075112805 -0.05560123 -0.055140596 0.022570133 0.03500145 0.0033495799 -0.006134212 -0.1340143
0.7719617 1.5752797 1.6753755 -0.33935836 0.19121239 -1.5177964 1.2113479 1.6043491
3.0634065 -0.5938852 0.10815367 0.12709217 -0.36041686 0.018734127 1.9157281 2.3773403
0.016887357 0.19161715 0.65079945 0.038549215 0.007674597 -0.010218725 0.023588024 -0.036950693

fcs1.bias f4 [256]
00000000: 5928 acbe 3330 803e 75d7 18bd 6c34 a0be
00000010: 57b5 00bf 284f d4bd 81d9 c2bd 809b 4dbb
00000020: 7ade 13be 696b b9be dc0c 523e dc1e cbbe
00000030: 0b31 a43e 13ee 1ebd ffc2 adbd 5349 b0be
00000040: 2f2d 56ba 4901 91bd 64b5 82be 10fb 0fbe
00000050: f3e3 5bbe c00f 3dbe 5b2c e53d 5774 b63e
00000060: db92 a8be b025 19bd b484 dcbd bb42 9dbe
00000070: 30bc bbbc 566a 6e3e 78d9 c73e 5c73 52be
00000080: 94f1 d3bd 2866 56be 9991 27be ede7 b8be
00000090: 412b 87be 4e5f 4fbe f2b2 e9bc bb5a b9bd
000000a0: ddb0 e0bd 38fb 9dbe 1926 7e3e a798 83be
000000b0: c959 37bc 0fe8 4bbe f082 bdbc e791 8dbe
000000c0: 553f afbe 6b0a ac3e 048a 4ebe b23d cdbd
000000d0: 050a e3bd ece7 d83e 983a f7bd 2785 df3e
000000e0: ba91 8abe d57b 49be bd93 3ebe 6901 51be
000000f0: c3bf 13be 3530 ddbd 43db 6dbd c3c4 12be
00000100: cd0f 2bbe fa82 c63e dc63 a4bd 73ba 5fbe
00000110: fa2b cebd 6b56 8e3e 7f72 b23d e289 14be
00000120: 2ab0 81bd b571 893d 8a1b 303d eba8 b2bd
00000130: 7e79 b6be e54d d4be 1e51 5cbd ccd2 143f
00000140: c03b 053f 326d adbe 3907 0fbf e0bc 00be
00000150: d318 263e 8364 723c 9c09 933e 960d abbe
00000160: d3a0 51be 3ca4 283e 3e02 25be d7d8 0fbe
00000170: b891 81be a7d9 babe edce 5bbe feb0 9abd
00000180: f8f3 bc3e f8e2 49bd 7440 24bf 525c 5fbe
00000190: 8f9a b7bb 63cd 0cbe f6c3 463e a127 1b3d
000001a0: 38da f6bd ece4 edbc 3ea0 b3be 25a5 9dbe
000001b0: 4784 4d3e 1cba 9fbd fad2 a3be 613f 1ebe
000001c0: 7f5f 52be a43e 7fbd dbe2 45bd c8d3 41bb
000001d0: 09b5 68bd 78fa 2fbe 2d29 47be f735 a4be
000001e0: e24c 68be a0af c23e 3cad 95be 9b74 43be
000001f0: 109f e0bc 1b07 c23d 9e78 3a3d 09dc 4cbd
00000200: e124 c0be 7940 5c3e a81a 10be 7f01 aebe
00000210: febc 02be f91d afbd 5cce 8fbe 90b0 72bd
00000220: 7a82 41be 14ed bdbe 2073 f4bd cb61 b7be
00000230: db20 9fbe 31aa b73e dcf0 33bd 5bd7 26be
00000240: 00de debc 8fcf 37be 2c9b 4fbd 9d7e dfbb
00000250: e920 33be bec2 233d 0996 103e 98eb 0e3e
00000260: 1675 8fbe a16d 9f3e 45de a43c 7579 4abe
00000270: 197b dcbe 592a b4bd 0c12 83be 0952 b9be
00000280: 6c42 cd3e 9ea2 063f c88e 9bbe 6817 7a3e
00000290: 63b9 343e 55b3 eabd 183b bdbd d0fc 80bd
000002a0: 3e11 b33e bfb4 a3be 4b34 8d3d 6e9b f0bd
000002b0: 91f5 88be a83a 55be eb80 8c3d 7a47 94be
000002c0: 7a64 07bf 2b76 93bc 9210 9cbe b3d6 f8bd
000002d0: d2e6 cfbd ed8b 3ebe 7137 21be d861 5abd
000002e0: 4aaf 2abe 82ee 783c 0a33 1e3d fc54 4cbe
000002f0: 855c 49be b583 6e3d 340c 5cbe 200e e0be
00000300: de5d 5d3e ffe8 acbe a8d8 fdbd e521 883e
00000310: 9c63 c2bd 7c2d 22be f2bd 60be 820e 973c
00000320: 130a debe 9644 a0be 3895 a5be d9cb 32be
00000330: f037 3abd 5747 fdbd 4352 e83d 7a7e d7bd
00000340: 2f36 e7be 1df0 36be 9892 71be 5b43 b23e
00000350: 23da aabe 54ec 9e3d 9dea bfbe 6aab 933e
00000360: 687b 88bd d6db b33e 46bd 2cbe 47dc 0dbe
00000370: 80fd 8abe 9405 65be ad15 4bbe bf62 71be
00000380: 6cea 4dbe f85c 5cbe 405e 75bd cc4d 8ebd
00000390: 774e 9abe 00a5 cfbd f2a0 5d3e ec20 91bd
000003a0: f1b1 5fbe f41a b1be 6544 bcbe 8ce9 33be
000003b0: 2e4e 2dbe a83d a53e 30af 0e3e 8b26 8fbe
000003c0: b8ac 41be e728 6c3e b321 63be 6376 603e
000003d0: d546 95be 1041 b13b 1509 efbd 1e28 23be
000003e0: 2290 debe ddd7 2fbe 866a 353e b165 0ebe
000003f0: 3e50 fa3d 4dff 3dbd 4a83 c4ba c155 adbe
-0.33624533 0.25036773 -0.03731485 -0.31289995 -0.502767 -0.1036666 -0.09514142 -0.0031373203
-0.14440337 -0.3621476 0.20512718 -0.3967198 0.32068667 -0.038801264 -0.08484458 -0.34430942
-0.0008170185 -0.07080323 -0.25529015 -0.14060616 -0.21473674 -0.1846304 0.11190101 0.35635635
-0.32924542 -0.037389457 -0.107674986 -0.30714974 -0.022916883 0.23282751 0.39033103 -0.20551819
-0.10348812 -0.20937407 -0.16364135 -0.36114445 -0.26400188 -0.202512 -0.02852771 -0.090505086
-0.10971234 -0.30855727 0.2481922 -0.25702402 -0.01119084 -0.19912742 -0.023133725 -0.27650377
-0.34228006 0.33601698 -0.20169836 -0.10021533 -0.110858954 0.42364442 -0.12071723 0.43656275
-0.27064306 -0.19676144 -0.18611045 -0.20410694 -0.1442862 -0.108002104 -0.058070432 -0.14332871
-0.16705246 0.38771802 -0.08026859 -0.21848468 -0.100669816 0.27800307 0.08713245 -0.14505723
-0.06332429 0.06711141 0.042995013 -0.08723625 -0.35639566 -0.4146568 -0.053788297 0.5813415
0.52044296 -0.33872372 -0.55870396 -0.1257205 0.16220407 0.014794472 0.2871827 -0.33408803
-0.20471506 0.164689 -0.16114137 -0.14047562 -0.25306487 -0.3649418 -0.21465655 -0.0755329
0.36904883 -0.04928872 -0.6416085 -0.21812561 -0.0056031416 -0.13750224 0.1941069 0.03787959
-0.12053341 -0.029039823 -0.35083193 -0.30790058 0.20069991 -0.077991694 -0.319969 -0.15453865
-0.20544241 -0.062315598 -0.04831205 -0.0029575694 -0.056813274 -0.1718539 -0.19449301 -0.32072422
-0.22685578 0.38024616 -0.2923373 -0.1908745 -0.027419597 0.094740115 0.045525186 -0.05001453
-0.37528136 0.2150897 -0.14072669 -0.33985516 -0.12767407 -0.08550639 -0.28087127 -0.059250414
-0.18897429 -0.3709494 -0.11936021 -0.35816798 -0.31079754 0.35872033 -0.043930873 -0.16293089
-0.027205467 -0.17950271 -0.050685093 -0.0068205134 -0.17493023 0.039980642 0.14119734 0.1395706
-0.28019017 0.31138328 0.020125518 -0.19772895 -0.43062666 -0.0879714 -0.25599706 -0.361954
0.40089738 0.52591884 -0.3038237 0.24422991 0.17648844 -0.11459986 -0.09239787 -0.0629822
0.34974092 -0.31973836 0.0689474 -0.11748396 -0.26749852 -0.20823157 0.06860527 -0.28960782
-0.5288769 -0.018000683 -0.30481392 -0.121503256 -0.10151447 -0.18608065 -0.15743805 -0.053315967
-0.1666843 0.015193583 0.038622893 -0.19954294 -0.196642 0.058231074 -0.2148903 -0.43760777
0.21617839 -0.33771512 -0.123948395 0.2658836 -0.09491655 -0.15837663 -0.21947458 0.018439535
-0.4336706 -0.31302327 -0.32340407 -0.17460574 -0.045463502 -0.123671226 0.11343815 -0.1052217
-0.45158526 -0.17865033 -0.23591077 0.34817013 -0.3336955 0.0775992 -0.37483683 0.28841716
-0.06664163 0.3512866 -0.16869077 -0.1385356 -0.2714653 -0.22365409 -0.19832487 -0.23572825
-0.20108956 -0.2151984 -0.059904337 -0.06948432 -0.3013799 -0.10138893 0.21643427 -0.070863575
-0.21845223 -0.34590876 -0.3677093 -0.1756956 -0.16924354 0.32273602 0.13934016 -0.27959093
-0.18913543 0.23062478 -0.22180824 0.21920161 -0.29155603 0.0054093674 -0.11671654 -0.15933272
-0.4346934 -0.17172189 0.17716417 -0.1390598 0.12222336 -0.046386052 -0.001499274 -0.33854488

fcs2.weight f4 [128, 256]
00000000: 1a6a c6bf 838c 363f 29b2 443d ba77 373d
00000010: ac3c 54bf 2cb5 ed3c cc77 ccbc 6858 2bbc
00000020: 58b7 86bd 1c8a 3dbf ffaa 573f 784f 24bf
00000030: be1b 973e e048 93bb 400d 86bd 0042 b1b9
00000040: 1ff8 1fc0 3ad1 863d 98eb e93c 3b43 963f
00000050: e4a1 adbd 18e4 e3be a071 8cbf be7a 8bbf
00000060: f425 f1bc 0173 01bf 124c 0a3d 687b a3bd
00000070: 08b6 2cbc 2079 ddbf 35a6 fbbd cbdd 31bf
00000080: 792c b13d 4b5b cebe 6d3e b13f d11e 2bbf
00000090: 0e72 33bd 870c 8dbd f1b8 e83d 9bef 87bd
000000a0: 3b52 1bbf a5e3 50bd 9af4 afbe 3f1d 17bd
000000b0: 7937 a4bd 480d 95bd 95ca 84bc 6cde 9dbd
000000c0: 7eb7 8fbd 6ba2 3fbe 56c9 8fbd 765b 083d
000000d0: 0ca9 f4bd 60c0 d3bd f356 cebc ac14 903c
000000e0: 8af6 30bd bc75 cb3c ad9e 19bf d379 503e
000000f0: 5638 20c0 5615 e53d 6358 29be bc04 7b3e
00000100: 0b38 4abe 2e2e 9dbe 0ff6 03bd 8219 4bbe
00000110: d8f5 a13c 9299 883d 4a33 4c3e f081 a23c
00000120: 2919 dbbd dc0b 6a3f dadd 4dbe 1db8 ee3b
00000130: f8d1 09bc 16cc a5bd 2427 63bd 8002 4f3d
00000140: 1972 523e 5526 a73d a946 31bf fa39 1fbd
00000150: d06e 923d 4ff1 11bf 787d 04bf 403d c23c
00000160: 58ec 4e3c f53b 35bd abe6 05bf ba50 493d
00000170: 10e4 e8bc 5202 28bd 2537 78bd b537 35bf
00000180: 8199 423f 157e af3d cd16 fcbf 60fb 0d3b
00000190: ce31 433d 4864 2ebd ee03 303f ee74 1bbf
000001a0: a40f 4bbd ccc8 31be 182b 38bd c83a 85bd
000001b0: f923 bf3e e8b5 b73b acbd 83bd ac53 a4bd
000001c0: 4438 953c a2e4 2e3d 64a0 a9bd 92cd e0be
000001d0: 9c47 943c e41b b3bc 6633 f4bc 040c ca3c
000001e0: b57e 85bd 0b65 39bd e0fb 74bd 30a8 0abf
000001f0: 883a 063c a70b 0f3f c9d6 763f 01ab 31bd
00000200: 02d6 503d c72b 6bbf 9c22 b1bd 7015 ab3c
00000210: 9730 923d 76d9 d5be faf3 733d 7970 a53d
00000220: dc3d 853d 9a31 143d c07b f5bb b001 c03c
00000230: 803b 953c dd82 ff3d 9e65 eabf a885 41bd
00000240: 1c22 a6bd dbae 953d 18cf 9c3d 4aae 0e3f
00000250: 31d4 a6bb 4c32 d2bf c585 a8be 7c28 f5be
00000260: 206c 42bf be3f 1e3f f9f1 6fbd 8b5c 1ebd
00000270: 5763 2abf b440 53bf b50e 5cbe ccae 97bd
00000280: 50a6 24bd e108 933f bcd3 6c3d a026 97be
00000290: a4f1 993e 3d90 15c0 3001 c03b 50eb 043d
000002a0: 8dca e8be 46bd 2cbf 6c31 513e 18db 1d3f
000002b0: cab4 96bd d95c 66bd bca1 c03f 70a3 d53b
000002c0: deb2 86bf e8b9 a1bf 7f8f 85bd 3cfe 97bc
000002d0: c893 acbf 2237 0bbf 8bae 9fbd 80f2 1e3b
000002e0: 785a c93c f3fc 8b3e ad8d d6be 7839 f9bd
000002f0: 355e d2bf 1306 3e3e 5f10 abbd b78b 7fbf
00000300: 1c8d 3dbf 7eb9 2e3d 14e6 73bd cbc0 9bbd
00000310: d718 00bd 2132 93bd 406b 873b 9990 a0bf
00000320: 19c9 1dbf f69e 3cbd c47f f13c f90a 05bf
00000330: 9c73 9d3c 8423 783e b4c5 1abf 6e14 8b3e
00000340: 09d5 193f 8aaf 3c3d 2d2b 4abd 9fa6 4a3f
00000350: 8143 a23d 57d8 7cbe 07a5 793d 4ad8 d13d
00000360: 4085 48bc d123 7e3d 6f0b 813d 6305 ed3f
00000370: 4474 c6bc 4491 d03b cfeb 72bd eccf 96bd
00000380: bf49 b43d f83b 16bd 206d 4e3b 98bd 3abc
00000390: f5ee 343d 468d 293d b6dd b6be a05d 8bbb
000003a0: df06 9abd 4fdc 11bd bab5 523d 65f0 933d
000003b0: 7308 b3bd ac93 c5bf 8ba6 d3be a8ba 9bbf
000003c0: 84c5 8e3c 934a f8bc 7a70 683d 46e0 f2bd
000003d0: 4ecf 913e 0ec3 95bf 425b 413f d6ea d23c
000003e0: 7dbd 2f3f 9fd3 40bd 9ff1 b2bc e891 24bc
000003f0: 1fe0 37c0 0260 8cbd 0b08 29be 140b 92bd
-1.550113 0.71308154 0.04802147 0.044791915 -0.8290508 0.029017054 -0.024959467 -0.010458089
-0.06577939 -0.74038863 0.84245294 -0.6418376 0.29513353 -0.0044947714 -0.06545496 -0.00033809245
-2.499519 0.065828755 0.028554723 1.1739267 -0.08478144 -0.4450996 -1.0972176 -1.0896833
-0.029437043 -0.5056611 0.033763953 -0.07982522 -0.0105414465 -1.730259 -0.12287561 -0.69479054
0.086510606 -0.40304026 1.3847176 -0.668439 -0.043809943 -0.06887155 0.113634 -0.06637498
-0.6067235 -0.05099835 -0.34366304 -0.036893126 -0.08018393 -0.07277924 -0.01620988 -0.07708439
-0.0701742 -0.18714301 -0.07020824 0.03329035 -0.11946306 -0.10339427 -0.025187945 0.017587982
-0.043203868 0.024836414 -0.60007745 0.20358972 -2.5034385 0.1118571 -0.16537623 0.24513525
-0.19747941 -0.30699295 -0.03221708 -0.19833949 0.019770548 0.06669916 0.1994144 0.01983735
-0.10698158 0.91424346 -0.20104161 0.0072851316 -0.008411877 -0.08095567 -0.05545725 0.050539494
0.20551337 0.08161608 -0.69248444 -0.03887365 0.07150042 -0.5700883 -0.5175395 0.023710847
0.012629591 -0.044246633 -0.52305096 0.049149252 -0.028429061 -0.041017838 -0.060599465 -0.7078813
0.7601548 0.0856897 -1.9694458 0.0021664724 0.04765492 -0.042576104 0.68755996 -0.60725296
-0.049575463 -0.17361754 -0.044962972 -0.06505352 0.37332132 0.0056064017 -0.064326614 -0.08023772
0.018215306 0.04269851 -0.08282545 -0.43906838 0.018100552 -0.021863885 -0.029809665 0.024663933
-0.06518308 -0.045262378 -0.05981052 -0.54162884 0.008192666 0.55877155 0.96421486 -0.043375973
0.050985344 -0.91863674 -0.08649179 0.020884246 0.07138174 -0.41767472 0.059558846 0.08078093
0.06505939 0.036180116 -0.007491559 0.023438305 0.018216848 0.12476132 -1.8312261 -0.047246605
-0.081119746 0.07308742 0.076566875 0.55734694 -0.005091213 -1.6421599 -0.32914558 -0.4788245
-0.75946236 0.6181601 -0.058580372 -0.038662475 -0.6655783 -0.82520604 -0.21489985 -0.07406387
-0.04019767 1.1487085 0.057819113 -0.29521656 0.3006717 -2.3369286 0.0058595166 0.032450974
-0.45467034 -0.6747631 0.20429009 0.61662436 -0.073587015 -0.05624089 1.5049357 0.0065197274
-1.0523336 -1.2634859 -0.0652151 -0.018553846 -1.3482599 -0.54381 -0.07796963 0.0024253428
0.024579272 0.27341422 -0.41904965 -0.121691644 -1.6435 0.18557005 -0.08352732 -0.9982256
-0.7404344 0.042657368 -0.05954559 -0.07605132 -0.03127369 -0.07187296 0.0041326582 -1.2544128
-0.61634976 -0.046050034 0.029479869 -0.5196987 0.019220166 0.24232298 -0.6045792 0.27164024
0.6009069 0.046065845 -0.049357582 0.79160494 0.079230316 -0.24691902 0.060948398 0.10246332
-0.0122388005 0.062045876 0.06301009 1.8517269 -0.024225362 0.0063649733 -0.059306916 -0.07363877
0.088031285 -0.036678284 0.003149815 -0.011397742 0.0441732 0.041394494 -0.35716027 -0.0042531043
-0.07520842 -0.035610493 0.05144284 0.07223586 -0.08741846 -1.5435691 -0.41338 -1.2166338
0.017428167 -0.030308997 0.05674789 -0.11859183 0.28478473 -1.1700151 0.75529873 0.025746744
0.6864851 -0.047076818 -0.02184373 -0.010044552 -2.8730543 -0.068542495 -0.16506974 -0.07131019

fcs2.bias f4 [128]
00000000: d671 583e c03f 5abd 66c8 5bbc a103 023d
00000010: 90b8 d63e ef18 aebd 7046 443e 9dc8 6739
00000020: 316b 573b 44a2 a23a 293b 43bd 0fce c0bd
00000030: 61ea 80bd bff9 49bc 1586 85bd 78d2 e7bd
00000040: 3298 c13d 1aea 823c d528 63bd a3c1 febc
00000050: 0040 2ebd 9089 41be 0b19 9fbc 835b bbbd
00000060: eceb 03bd 63a6 a8bd a811 6abd 4d98 d93d
00000070: 5519 64bd 1f97 763d 7e5d c9be 60cf 233c
00000080: bef4 d1bc 8b76 24be 48e9 88bc 20af 9339
00000090: 0002 55bc 0f11 cf3d 1f67 cabc e582 d33d
000000a0: 9fa5 cabe 1847 a5bd 0a3d e0bb 9ab1 81bd
000000b0: d0f1 91bd fbe5 a03c b07b a63b ba55 9ebd
000000c0: 37e6 2f3f 18cb 723c ac3e 49be 77f7 b73d
000000d0: ad78 bc3e e2d2 49bd 3d55 bebc f7a2 083d
000000e0: f85c d33d 8990 80bd 7839 fabb d35c 15bd
000000f0: 52a3 69bd eeeb a9bd 5f41 a4bd 46f7 5bbd
00000100: 69dd c2bb 9af2 36bd 117d 9cbe a3c5 28bd
00000110: 5f57 123c f1ab 1cbc 384a 003a 5fd4 b23e
00000120: a585 3c3d f29f 1ebd e4a5 7239 1f50 d53c
00000130: 7533 b4bd ec59 e3bc 33b9 1fbd 11ef 25bd
00000140: a7da 3dbe acf5 3cbd 4ef3 3fba 190d c0bd
00000150: 6d98 63bd a44d 20bd eb58 95be 76c8 77bd
00000160: 3f8e e6bd 0e12 603c 2040 003e cc0b 63bd
00000170: 54b1 83bc 0340 75bc b104 013d eab4 b0bd
00000180: 1bbf 103d d899 2ebd acaa 97bb 3d4a 47bc
00000190: 6a99 6abd e8de 70bd 308d a2bd e072 0f3f
000001a0: 2642 c9bd 36c3 0fbd b984 d6bc cbab d9bd
000001b0: c2a3 f43b 7565 0fbd 93b0 82bf 78bf 9c3c
000001c0: 77d3 793d 6fe7 183d c0d8 543f 052a 51be
000001d0: 7567 e4bc fd7a 64bd d966 4cbd 8614 87bd
000001e0: 80a7 67bc 0ad6 cdbd c9d8 b9bd 6cee ffbc
000001f0: 23a9 a5bb b3c5 c4bc efc8 10bd 993a 00bd
0.21137175 -0.053283453 -0.013414478 0.031741742 0.41937685 -0.085008495 0.19167495 0.00022104611
0.0032870288 0.0012407978 -0.04766384 -0.094143026 -0.06294704 -0.0123276105 -0.06519715 -0.113194406
0.09452857 0.015980769 -0.055458862 -0.031098193 -0.042541504 -0.18900132 -0.019421121 -0.09148314
-0.032207415 -0.08234861 -0.057145745 0.10624752 -0.05568822 0.060202714 -0.3932914 0.0099981725
-0.025629397 -0.16060846 -0.0167128 0.00028168503 -0.013000965 0.101106755 -0.024707375 0.103277005
-0.39579484 -0.08070201 -0.006843214 -0.06332703 -0.071262 0.019640913 0.0050806627 -0.07731195
0.68710655 0.014818929 -0.19652814 0.08982747 0.36810818 -0.04927338 -0.023234004 0.03335854
0.10320467 -0.06277568 -0.0076362453 -0.036465477 -0.05704052 -0.08296953 -0.08020281 -0.053702615
-0.0059468043 -0.044664957 -0.30564168 -0.041204106 0.008931964 -0.009562478 0.0004893872 0.3492765
0.04602589 -0.038726754 0.00023140718 0.026039181 -0.08798877 -0.027752839 -0.03899498 -0.040511195
-0.1854044 -0.04613273 -0.0007322327 -0.09377498 -0.055565286 -0.039136544 -0.29169402 -0.06049391
-0.112576 0.01367618 0.12524462 -0.055431172 -0.016075768 -0.014968875 0.031498615 -0.086282566
0.035338502 -0.042627186 -0.0046285 -0.012163696 -0.057275213 -0.05880633 -0.07937086 0.5603466
-0.0982707 -0.035098277 -0.026186334 -0.1062847 0.0074658105 -0.035008866 -1.0210136 0.019134268
0.060992684 0.037330087 0.83143234 -0.20426185 -0.027881363 -0.055781353 -0.04990277 -0.065957114
-0.014139056 -0.1005059 -0.090745516 -0.031241618 -0.005055563 -0.024020052 -0.035347875 -0.031305883

fca1.weight f4 [128, 6]
00000000: 7159 49bf 08ea 01bf 2234 6fbd c760 43bd
00000010: 42f4 55bf 4aea 9a3d 83e5 cc3e 4f90 833e
00000020: fb4d 643e d93f 9ebe ab85 60be 95bc 2e3e
00000030: c6d4 48bc 0847 09bd abdf ce3d cfca adbd
00000040: c74b cabd 4c44 643e 09ae 60bd 373b 2dbf
00000050: ca6f c6bd f2c3 943d 2e54 fd3c 5031 8e3f
00000060: b584 27be 0ea8 e1bd 05ec ac3e 1d90 ed3d
00000070: 8d36 843e 5d10 903e 1822 27bc 7083 8e3b
00000080: f274 143d 483b 7f3c 40a8 7c3c aaf6 393d
00000090: ac7c 013f e20b 143f 3b66 4c3e d7eb a2be
000000a0: 883f c53e cae0 fabd 4b4e 43be 0c3f 93bc
000000b0: 4a1c 01be 98f6 15bf 7698 70be 60f2 953f
000000c0: 74dd 173d 4113 823c 4e47 073d c519 efbc
000000d0: 36e6 c93c 90c8 e8bc 6841 2abc 40aa 54bb
000000e0: 62c3 f4bc 079d 3cbd d0e3 79bc 3dc6 aa3d
000000f0: ee4b 6b3d 403e a53d 6387 cc3d 1843 e33d
00000100: 73d1 05bc 2624 a9bd e91f b3bc f249 173e
00000110: 958b 8c3d ba0c 953e daa6 bebe a62b 123e
00000120: 0d23 0f3d ddd0 c8bc 561e dcbb 7223 c5bb
00000130: 5d6b e4bc 401b d6bc 551e 6cbe 7fa3 063f
00000140: a53d aebe 89e4 25bd 22cd 82be 81db c5bd
00000150: eb53 7fbd 34c4 04be 18b3 3fbd 1f57 183e
00000160: 1ff2 10bc 2991 ef3c 3362 af3d 7387 ac3d
00000170: 9021 b93c 708c 953c 2a53 13bd d90b 9c3d
00000180: 8070 01bf 1ff5 13bf 9c83 a53c 3b0f fe3d
00000190: 9efa d5bd a6b8 493f 6022 383b c02e 39bb
000001a0: f815 28bc 0814 883c d2eb a5bd 505b 9bbc
000001b0: a009 013d 9bf5 a03d 7963 813d 2d12 51bd
000001c0: 7040 b93d f2a6 ebbd 168f 77bd 00fa 993c
000001d0: 309a 9a3c 9a1b 00bd e845 873c 7414 bcbc
000001e0: 2b3a ffbd 015f e73e ad30 203f ca37 3fbd
000001f0: 1ce0 d6be b90d eab9 25f8 aabc 34d4 05bc
00000200: 68bf 803c afcc 4abc 26e6 adbc c8de 383d
00000210: 043a d23e 08f7 1b3f 9445 9f3e 3ce3 a93e
00000220: b953 273f 45a2 9c3e 780a b4be 3a3d 593f
00000230: efa4 23bf 5b91 c03e 73f9 6fbe f170 3c3f
00000240: 880c 113c f3c3 8bbd 2060 f73c 9439 d53c
00000250: 16e4 263d 7e33 3a3d 4fbd ad3d ee3b 443d
00000260: d8aa ff3c 8022 0d3c da48 523d 9bfd 7bbd
00000270: 24bd 19bf d8c8 6ebe fd2a fdbd d57d 9bbc
00000280: c19a cbbd 72c1 593f afed 1abd 80b3 81bc
00000290: 6931 0abd 0a02 81bd 4ad8 3c3d ab8d 983d
000002a0: 1d13 4cbd 38c4 5d3b 006e 21bb 0283 153d
000002b0: 2a6b 4dbd e0bd 233b 3671 e6bc c434 0e3d
000002c0: 072c 99bd 6967 9e3d 004f eb3c 62f7 233d
000002d0: c09e 32bd 2a2a 273d c695 6c3d 3dee ad3d
000002e0: 9af8 fc3c 8b3b b2bc 0a93 0b3e f1bc 2abe
000002f0: f7c9 2bbe cece b5bd b3f4 243e 06c0 7bbb
00000300: 22bc 563d ad1e 8ebd b00a 793c 0050 ae3c
00000310: 6a7a 62bd b0c3 d9bb 46a3 27be 452e 15bf
00000320: 54cf 943b 8e3f 003e 1ce7 ccbe aa28 b13e
00000330: 7fe9 96bb b79e 00be 970b 853c 0742 833c
00000340: 5493 88bc ef0f b33e 8be0 e93e b4f5 b9be
00000350: 77f2 583e 38dc babe 4503 0dbf 0bdd b03e
00000360: 5973 2b3f f707 ebbc bded c2bd ab76 093c
00000370: 3f66 11bf 4dfe 99be baea e1be caff 1dbe
00000380: db47 833e c916 93be 1fc2 5ebd dbfe 323f
00000390: be57 7f3b ee2b 84be 7427 97bd d55f e13d
000003a0: 8326 c4bd 2a39 213e ebc8 2ebf a088 eabd
000003b0: 3250 17be 03e4 c3bc db28 753e 699e 953f
000003c0: d75a 87bd 58cd 373d 5db9 2c3d e211 0cbc
000003d0: 1cad 773c 8a1a cd3d f1c1 0abd b4e0 aabd
000003e0: 4401 85bd fa15 e0bc 3eee ab3b 1411 d93d
000003f0: c784 6e3d 0f1b ba3d ad63 793c ca8c 523e
-0.786521 -0.5074773 -0.058399327 -0.047699716 -0.8357583 0.07564218 0.40018854 0.25696036
0.22295372 -0.30908087 -0.2192599 0.17064126 -0.01225776 -0.033515006 0.10101255 -0.08485948
-0.09877735 0.22291678 -0.054853473 -0.6766848 -0.09689291 0.07263936 0.030923929 1.1108799
-0.16359217 -0.11018382 0.3377382 0.11599753 0.2582287 0.28137484 -0.010201 0.0043491647
0.03624434 0.015578099 0.015420973 0.045401253 0.5058086 0.5783063 0.19960873 -0.31820557
0.38525033 -0.12249906 -0.19072835 -0.017974399 -0.12608448 -0.585794 -0.23495659 1.1714592
0.03707643 0.015878322 0.033026986 -0.029187093 0.024645906 -0.028415948 -0.010391571 -0.003245011
-0.029878322 -0.04604819 -0.015252069 0.08338592 0.05744546 0.08068514 0.099867605 0.110967815
-0.008167612 -0.08258848 -0.021865802 0.14774302 0.06862561 0.29111272 -0.37236673 0.14274463
0.034945536 -0.024513656 -0.0067174835 -0.0060161883 -0.027883226 -0.02613604 -0.23058446 0.52593225
-0.34031406 -0.04050115 -0.2554713 -0.09661008 -0.06233589 -0.1296547 -0.046801656 0.14876984
-0.008846789 0.029244022 0.08563652 0.084242724 0.022599012 0.018255442 -0.035967983 0.07619447
-0.50562286 -0.577959 0.020204358 0.12405249 -0.10448192 0.78797376 0.002809666 -0.0028256625
-0.010259144 0.016611114 -0.0810162 -0.01896444 0.03150332 0.078593455 0.06317801 -0.051042724
0.090454936 -0.11506452 -0.06043919 0.018795967 0.01887235 -0.031276323 0.016512826 -0.022958972
-0.124622665 0.4518967 0.62574273 -0.046684064 -0.41967857 -0.00044642182 -0.020870278 -0.008168269
0.01571627 -0.012377902 -0.021227907 0.045134336 0.41059887 0.60923815 0.3110777 0.3318118
0.65362126 0.30592552 -0.35164237 0.8485905 -0.63923544 0.37610897 -0.23435001 0.73609835
0.008853085 -0.06824484 0.030197203 0.026028432 0.040744863 0.045459263 0.084833734 0.047908716
0.031209394 0.0086141825 0.051339008 -0.061521154 -0.6005423 -0.23318803 -0.12361715 -0.0189809
-0.09941626 0.850608 -0.03782433 -0.015832663 -0.033738527 -0.06299217 0.046104707 0.07448896
-0.049822915 0.003383888 -0.0024632215 0.036501892 -0.050151028 0.0024985 -0.028130155 0.03471829
-0.07479101 0.07734568 0.028724194 0.040030845 -0.043608427 0.040811695 0.057760023 0.08492706
0.030880261 -0.021756908 0.1363031 -0.16673638 -0.16776262 -0.088773355 0.1610897 -0.0038414015
0.05242551 -0.06939445 0.015200302 0.021278381 -0.055292524 -0.006645642 -0.16370878 -0.58273727
0.004541317 0.12524244 -0.40020072 0.34601337 -0.0046054716 -0.12560545 0.016240878 0.016022695
-0.016671814 0.34973094 0.45679125 -0.3632027 0.21186243 -0.3649614 -0.55083114 0.34543642
0.6697288 -0.028690321 -0.09518001 0.008390109 -0.5679664 -0.3007683 -0.44124395 -0.15429607
0.2564076 -0.2872832 -0.054384347 0.6992013 0.003896221 -0.25814766 -0.07380572 0.11004607
-0.09577658 0.15744463 -0.68275326 -0.114518404 -0.14776686 -0.023912435 0.23941366 1.1688968
-0.06609123 0.044873565 0.042168964 -0.0085491855 0.015116956 0.100148275 -0.033876363 -0.0834364
-0.06494382 -0.02735423 0.0052469065 0.105989605 0.058232095 0.09087192 0.015221518 0.2056152

fca1.bias f4 [128]
00000000: 2ad6 cb3e 6d7c 273d 40ed a4bd ede9 613e
00000010: 375d 923e 02fc 31be 258a 1cbf 51fb 763e
00000020: 33d5 8cbe b056 76bd 69ab 683f 28d6 6a3f
00000030: aae5 4dbe 728c efbe df4b 7f3f ed92 4bbe
00000040: 6f7f 6d3e 8271 94be d640 efbe 20f9 aabe
00000050: 5bf6 23bd f2c1 0abe 0eb2 2bbf b310 f4be
00000060: d04c e2bd 480d aebe 7469 d63e 96ff cabe
00000070: ad0f b3be 20fe 68be 601f b8be a977 693f
00000080: eb8c c5be 3734 b23d d2dd 973d 04fa 083e
00000090: 0012 67be 36fd 3ebe 4bb0 673f b141 b83e
000000a0: 85cc bdbd 2376 32be 850d 4d3f 5526 633f
000000b0: 0c20 ecbd 8884 b63e 8190 f2bd e10c 14be
000000c0: a740 1bbe 3365 58be 82e5 7f3d 697f a2be
000000d0: 4e8d c03e c4b0 5e3f 597a 113f 1e92 a3be
000000e0: 8b2f c3be 8895 d0be a80f 863f 04d6 243f
000000f0: bc45 76be 4da6 02bf fde1 15bd ff5a 5dbe
00000100: d098 553f 7ef5 c1be 4b7d 45be 36c4 973e
00000110: e046 6c3f 416b b2be 16f8 8dbe 8956 783f
00000120: 43fe 203e f8e8 b7be c622 acbe 0916 7cbe
00000130: 7302 2c3f 6059 e7bd 49f6 b63e 39aa c1be
00000140: fde6 a33e b25a 563f 38cb ccbd 700b 9bbe
00000150: f19a 48be 0516 d0bd 063a 523f 669f a2be
00000160: ec68 84be f143 82be e6fb 573e 3504 813e
00000170: 8743 233e 3f95 d0be dcd7 5e3f a6b3 9f3e
00000180: 3e31 eb3e 6e1f d63e 1eeb 97be cfa3 c9be
00000190: 526f ccbd 6f90 9b3e 7ff4 243f f9c7 74be
000001a0: e84e 25bf f616 14be f2aa 9fbe 5bdb 613f
000001b0: 16e3 6ebe 908c e73e bb1f 433f a313 de3e
000001c0: 4706 6d3f 435d 173f 7b14 fcbe b4ef ccbc
000001d0: 2842 9fbe 0c36 c0be 7b25 04bf 3839 5e3f
000001e0: 4613 49bf 1f3b aabe 554f cebe 9269 b0be
000001f0: e12e 873f cd9e 51be 1d44 cfbe d363 523f
0.39811832 0.040890146 -0.08053064 0.22061892 0.28586742 -0.1738129 -0.6114829 0.24119307
-0.27506408 -0.060141265 0.9088655 0.91733027 -0.20107141 -0.4678684 0.99725145 -0.19880266
0.23193143 -0.2899285 -0.46729153 -0.33393192 -0.040029865 -0.13550547 -0.67068565 -0.4766899
-0.11049807 -0.33994508 0.4187733 -0.39648122 -0.34972897 -0.22753191 -0.35961437 0.9119821
-0.38584074 0.087013654 0.07415356 0.13376623 -0.2256546 -0.1865128 0.90503377 0.3598762
-0.09267525 -0.17427878 0.80098754 0.88730365 -0.1152955 0.35647988 -0.11843968 -0.14458038
-0.15161382 -0.21132354 0.062474735 -0.3173783 0.37607807 0.8698847 0.5682731 -0.31947416
-0.3812221 -0.40739083 1.0473528 0.6438906 -0.24050039 -0.51035005 -0.036592472 -0.21616744
0.834363 -0.37882608 -0.19286077 0.29641885 0.92295647 -0.34847453 -0.27728337 0.9700704
0.15721993 -0.3591993 -0.3362028 -0.2461778 0.6719124 -0.11296344 0.35734776 -0.37825182
0.32012168 0.8373214 -0.099996984 -0.30282164 -0.19590355 -0.1016045 0.82119787 -0.31762236
-0.258613 -0.2544246 0.21092185 0.25198522 0.15943728 -0.40738866 0.87048125 0.31191748
0.45936006 0.41820854 -0.29671568 -0.3938279 -0.0998217 0.30383632 0.6443557 -0.23904409
-0.64573526 -0.14461884 -0.31185108 0.88225335 -0.23328814 0.45224428 0.7622029 0.43374357
0.92587703 0.5912668 -0.49234375 -0.025016643 -0.3110516 -0.37541234 -0.5161969 0.8680606
-0.78545034 -0.3324823 -0.402949 -0.34455544 1.0561181 -0.20470734 -0.40481654 0.8218357

fc2.weight f4 [128, 256]
00000000: e9aa 193e a884 a73c eceb 833d f366 3d3d
00000010: 7fe3 a23d 1b59 9dbd dd85 903e d992 a13f
00000020: de1e 913c 61d4 883d 91f5 4b3d 96fd 2d3d
00000030: 104b 693c 41ba c23d fc36 ae3c bb70 84bf
00000040: e3b0 483e 887f 8a3d 80be 843e 2a85 7a3d
00000050: a5ed da3e 3797 7abf 16ff db3c 4f54 d3bd
00000060: c42b 6cbd 9d88 8f3d 2832 cf3c 9b93 c43d
00000070: 6b09 9f3d 9d76 b53e 84aa 513f 02fe 6f3d
00000080: f0d2 803b cb66 b53e c9ee a7bc 7915 39bb
00000090: 797b 443d a0bf 28bf bd3f 77bd 029c 65bf
000000a0: ff4c 7a3f 459a ac3d 0a6f 3bbd 4f1a a4bc
000000b0: 4285 8b3d f6dd bebb 8433 50bd 4dae 19bd
000000c0: 7d2a 19bf eb52 96bd ff08 f83f c598 303e
000000d0: 91bc 47be 8baa 823d db1c 75bd c07c fb3a
000000e0: 4ef3 9dbf dd48 513d 3a2d 0cbf 80f0 37bd
000000f0: cd2c c8bb 83ae 913e a00b 56bd a216 cd3c
00000100: 7616 803d 4b5e eabc 2300 7f3f 7925 283d
00000110: edfd 47bd db38 62bd 28be 423d 448a 18bf
00000120: 4219 b83f 4906 443d 5283 18bd fef1 e5bc
00000130: b03e d43d 7bfb 913d ee2b 793d 717d 8bbd
00000140: ad7d a33f 02b1 b0bd 2e3e 2dbd c174 e83e
00000150: 3825 713d 74ce 76bd 7fc9 533f 1909 ccbd
00000160: e46e 75bd c9dd 9d3f d609 0dbf 746b 8ebd
00000170: 603f 9dbd 3868 c23c 7265 78bf 58a6 673c
00000180: 03d4 6ac0 428a 033d dd6f 353d a997 a83d
00000190: 77fa 523d b847 78bd acc6 9bbd f1e1 2fbf
000001a0: 042f 7fbd e025 5e3d 5321 96bd 4e74 55bf
000001b0: b4b2 9ebd 8815 55bd 0526 a03d eba8 b2bd
000001c0: 42d9 503e 55be 21bf e8a9 79bf ef3d dcbe
000001d0: d843 923d b863 f1bc 773d 24bd fc7a 643d
000001e0: b0db 833b dd2a 0f3d cb4f bbbc dfac 073d
000001f0: 5221 c03c 9e2b 64bd a222 12bd 3aef 323c
00000200: 0c52 fc3d 41c7 2dbe 1ec3 e53c bca6 3c3f
00000210: 5941 bf3e 67cf a43d 5522 4e3d f22b fd3e
00000220: eed9 86bd 17f9 9a3d e8cb cd3d 0c97 803e
00000230: 2eee 0fbd 2e83 9e3d fc02 413e 0ce7 d83c
00000240: 01e2 103f 63a0 b33d ca7c 1ebf 89d2 9b3d
00000250: efaf ba3d b573 193d c30f bd3b f155 703d
00000260: 00bc 7fba 8705 66bd 7d34 843e df8c 70bd
00000270: d113 40bd f3f6 54bd 039c 18bd 8caa 973e
00000280: acbd 62bd 4b3c 173c b0ff bdbd a686 b23f
00000290: 75e5 c0be 68a5 e83e e95c 5f3e 75de 0c3f
000002a0: 34a9 773c 3bc2 4f3e 4a5f 13be 5aea af3e
000002b0: 6bf8 a8bd 6c3b fc3e ec5d 8dbc 30e1 733c
000002c0: 2260 c4bd e08a 1bbd 83fa a6bd 6788 2dbd
000002d0: 760f 1fbf dacb 833e 004a 3abe 6305 47bd
000002e0: 8cc1 133f 049a e7bc 80c1 573e cddf 8d3e
000002f0: 639a 2a3b 2884 803f 961a 983e ac3f 29be
00000300: 6bd2 803e 882e e73c e9ee 5fbd 6bad b53e
00000310: 70d8 7c3e 30a4 84bc 5ec0 6b3d b9d8 cb3d
00000320: ccbc 4f3f 679f a7bd 7263 12bd df95 92bd
00000330: 340f 8a3e 6a8e f33c 3da4 b43e 0cba 913c
00000340: 8311 cf3e fcf3 973d 8347 a63d c330 49be
00000350: 5dde acbd 0bce 37bf 06ce 8b3e 23bf 82bd
00000360: 82d8 bbbc 1b1c 8e3d d281 22bd 6222 213f
00000370: 453e 223e 9b7e 1f3d a173 94bc 89b0 e13e
00000380: 0e0c a4bd b4ec 103f 21d0 acbd 5d26 3ebe
00000390: 8d31 efbe 53f6 893e d3ca 4bbe 68e6 87bc
000003a0: d262 943e bfe8 9ebd 78d3 3a3c 906a 933c
000003b0: cf6e 92bd fa60 f53e ee5d 773e 09ed d43e
000003c0: 9c93 13bc a366 143f 879c adbe 3095 ec3d
000003d0: a2d9 603d 681a 1abf 0130 48bf 26e3 ab3e
000003e0: 34e0 03be 720b 49bd 7e0b 533d ca79 5e3d
000003f0: df43 b03e 15e3 ee3c 48af 0e3c 5b35 9a3e
0.15006603 0.020448998 0.06441483 0.04624076 0.07953548 -0.07683011 0.2822713 1.2622939
0.017714914 0.06681133 0.049794737 0.042478167 0.014239088 0.09508181 0.021266453 -1.0346903
0.19598727 0.06762606 0.2592659 0.06116215 0.42759433 -0.97886986 0.026855033 -0.10318815
-0.057658926 0.07008479 0.025292471 0.09598466 0.07765468 0.35442057 0.8190081 0.05859185
0.0039313957 0.35429987 -0.020499604 -0.0028241558 0.047969315 -0.65917397 -0.06036352 -0.89691174
0.97773737 0.08427862 -0.045760192 -0.020032076 0.06812526 -0.0058247996 -0.05083038 -0.03751974
-0.59830457 -0.07340034 1.9377745 0.17245777 -0.19505526 0.06380185 -0.05984197 0.0019186959
-1.2339876 0.05109488 -0.5475651 -0.044907093 -0.0061088563 0.28453454 -0.05225718 0.025035206
0.06254284 -0.028609416 0.99609584 0.04105136 -0.048826147 -0.055230003 0.04754463 -0.59585977
1.4382708 0.047857556 -0.03723461 -0.028069492 0.10363519 0.07128044 0.06083291 -0.068110354
1.2772728 -0.086275116 -0.042295627 0.45401576 0.058873385 -0.060255483 0.82729334 -0.09962673
-0.059920207 1.2333308 -0.55093133 -0.06954089 -0.076781034 0.023731336 -0.97029793 0.0141387805
-3.6691902 0.032114275 0.044296134 0.08232052 0.051508393 -0.06061527 -0.07606253 -0.68704134
-0.062300697 0.05423534 -0.07330575 -0.8338059 -0.07748929 -0.052022487 0.07819752 -0.08723625
0.20395377 -0.6318105 -0.9752488 -0.43016002 0.071418464 -0.029466495 -0.04009768 0.05578135
0.0040239915 0.034952987 -0.022865197 0.033123847 0.023453388 -0.05570566 -0.03567756 0.010921294
0.12320337 -0.1697054 0.02804714 0.73691916 0.37354544 0.08047371 0.05032571 0.4944759
-0.065845355 0.07567041 0.10048658 0.2511524 -0.035139255 0.07739864 0.18848795 0.02647736
0.56594855 0.08770826 -0.61909163 0.07608516 0.09115588 0.037463862 0.005769701 0.05867571
-0.0009755492 -0.056157615 0.25821295 -0.058728095 -0.0468939 -0.05199332 -0.03725816 0.29622304
-0.055356666 0.009230684 -0.09277284 1.3947341 -0.37675062 0.45438695 0.21812786 0.5502694
0.015116025 0.20288937 -0.14391819 0.34358484 -0.08250507 0.49264085 -0.0172567 0.014885232
-0.095886484 -0.03797424 -0.0815325 -0.04236641 -0.62132967 0.25741464 -0.18192291 -0.04858912
0.57717204 -0.028271683 0.21069908 0.2770981 0.0026031963 1.0040331 0.29707783 -0.16528195
0.25160536 0.02822043 -0.0546712 0.3548387 0.2469194 -0.016191572 0.057556503 0.09953446
0.81147456 -0.081847005 -0.03573937 -0.07157492 0.26964724 0.029730994 0.35281554 0.01778891
0.40443048 0.07419583 0.081191085 -0.19647507 -0.0844085 -0.7179877 0.2730562 -0.06384113
-0.022930387 0.069389544 -0.039674588 0.6294309 0.15844066 0.0389391 -0.018121542 0.44079998
-0.08010112 0.5661118 -0.08438135 -0.18569322 -0.46717492 0.26945743 -0.1990159 -0.016589358
0.28981644 -0.077592365 0.011402957 0.017995149 -0.07150041 0.4792555 0.24156925 0.41587093
-0.009007361 0.5796911 -0.33908483 0.11551893 0.05489505 -0.6019654 -0.7819825 0.33571738
-0.12878495 -0.04908318 0.05152463 0.054315366 0.34426782 0.029161016 0.0087087825 0.30118832

fc2.bias f4 [128]
00000000: b7a1 343f 5b05 d93c a936 f2be 6870 dfbe
00000010: 10e1 f2be 8ea1 8cbe 20bc cfbe 9c96 b1be
00000020: 8e9a 373c f793 8c3f 79d5 8a3c 9201 403f
00000030: 41a2 a7be e953 d33e f65a 6f3f 9aeb b0bd
00000040: ad50 d1be 1134 7ebe c205 27bf 0af8 8a3f
00000050: 3762 d7be 9d29 51bd 7f84 adbd 93f4 44bd
00000060: c330 9c3f 503d debd 2bcb f5bd 3450 233f
00000070: 781a 81be 1e52 11bf aabe 81be e55c 213f
00000080: a88d a0be 0e6a 53be da64 11bf f2de 453c
00000090: 2e44 2cbd 1f00 b83c 95d7 50bd cc9f b6be
000000a0: d06e 92bd 46e9 7abe d114 4cba e0e9 b23e
000000b0: d489 1c3f c9b5 d6be 95a2 233f eb7d a9be
000000c0: 8100 27bd 1c6e d0be 1edf f1be f0c5 0cbe
000000d0: 8cf6 a0be e078 0cbf 31cb 9cbd dd85 01be
000000e0: 7040 873f bafd 16be d51a d9be e72d 40bd
000000f0: 16ec 903c 4eae 18bf 1f94 adbd 179c 143f
00000100: 63e1 8c3f f5cc 483c 75c4 cebe 3dfe 5e3f
00000110: 5d1a 16be 556c 523f 96ac bebe 7d27 3fbe
00000120: e2dd d13e 958e 95be f761 3cbe 6401 bdbb
00000130: 382e 13bf 664b acbe e9d6 9cbb 6c1d 4e3f
00000140: 167f bfbe 8e29 3fbe d07f 08bd 259e e4bc
00000150: 2f86 2bbe 20c6 08bc a1af ba3a 11cd 9ebe
00000160: a9fc 42bd 7baf f4be 530c 55be 8024 68bd
00000170: 2193 a6be 32ae a83a 484c f1be 36e1 d1bd
00000180: 9cca 3bbd 272b cabd f6be 4cbe 3e28 4bbe
00000190: f738 cdbe d329 333d 1ea7 f8be c635 dcbe
000001a0: caa5 57bd 54ce 153f 1fb0 9abd e184 8b3f
000001b0: 0855 8a3f 6337 97be 1ead 8b3f a68c 413f
000001c0: 6108 c3be c766 9a3d 8398 0d3c 5678 22bd
000001d0: 3901 b0bc 9007 8cbe dc36 10bf 3f4f 2a3f
000001e0: 0087 413f 7349 07bf 4298 d6bd 1b7c d3bd
000001f0: 8578 dbbe a6cf 923f 8576 21bf 5fc5 f13c
0.7055926 0.026491811 -0.47307327 -0.43640447 -0.47437334 -0.27467006 -0.40573215 -0.34685218
0.011206282 1.0982655 0.016947495 0.75002396 -0.32740977 0.41274956 0.9349817 -0.086386874
-0.40881863 -0.2482455 -0.6524316 1.0856946 -0.4206712 -0.051065076 -0.08472537 -0.048084807
1.2202381 -0.10851538 -0.12001642 0.63794255 -0.25215507 -0.56765926 -0.25340778 0.6303237
-0.31358075 -0.20645925 -0.5679451 0.01207708 -0.04205721 0.022460995 -0.050986845 -0.3566879
-0.07150042 -0.24503049 -0.00077850843 0.34944057 0.6114781 -0.41935566 0.63919955 -0.3310388
-0.040771965 -0.40709007 -0.47240537 -0.13747382 -0.314381 -0.5487194 -0.07655943 -0.12648721
1.056654 -0.14745227 -0.42403284 -0.046918776 0.0176907 -0.5964097 -0.084755175 0.58050674
1.1006283 0.012255897 -0.4038426 0.87106687 -0.14658494 0.8219655 -0.37241048 -0.18667407
0.40989596 -0.29210344 -0.18396746 -0.005767988 -0.574924 -0.33651274 -0.0047863615 0.80513644
-0.37401646 -0.18668196 -0.033325016 -0.02790744 -0.16750406 -0.008348018 0.0014243015 -0.31015828
-0.047604237 -0.4779013 -0.20805483 -0.056675434 -0.32534125 0.0012869297 -0.4712851 -0.10248034
-0.04584752 -0.09871512 -0.19994721 -0.1983957 -0.40082523 0.04374106 -0.48565 -0.43009776
-0.052648343 0.58517957 -0.07553124 1.0899926 1.08072 -0.29534444 1.0912206 0.7560524
-0.3809233 0.075391345 0.008642319 -0.039665543 -0.021484958 -0.2734952 -0.5633371 0.6652717
0.7559662 -0.5284645 -0.104782596 -0.103264056 -0.42865387 1.1469619 -0.6307147 0.02951306

fc3.weight f4 [1, 128]
00000000: cc22 b83e 032f 7fbc 6e12 08be 466a 26bf
00000010: 0d09 573f 2e91 bfbf c408 00be 5ed1 1ebf
00000020: ad0b 2bbb c7d2 523f f2bb 0bbc b585 d03e
00000030: e9f9 2fbf 1023 813e 5c2a 063f 341a b3bc
00000040: 02f0 57be bc2a 74bf 3322 b5bf f1af 4d3f
00000050: 542c 11bf 145f a13b b778 11bd 9c22 843c
00000060: c926 573f 8d74 5a3c 2a73 a0bf 9f06 943e
00000070: 3400 b7be b76a e5bf 849c 713f 73c4 aa3e
00000080: 0d06 3abf a641 c6bf 52be 01bf 2248 813b
00000090: e488 0d3c d8a4 25bc d5c7 98bc 223a 9abf
000000a0: 9c02 ed3a f356 bfbe caa9 013a 5101 cc3d
000000b0: bb9c c03e 60d2 ae3e 7107 bb3e 4448 55bf
000000c0: d285 4ebc 17d7 703d b034 cabf 2111 8fbe
000000d0: e174 c0be 1147 41be b490 8dbc e073 86be
000000e0: 7f1d 563f 5bf5 6ebe 74b3 14bf f4b6 5a3b
000000f0: 6c19 0ebc f408 4cbb 3db6 d1bc 9227 4f3e
00000100: 9547 583f b96c 133c 47e9 20bf 5270 0b3f
00000110: 219d 823e ea55 d53e 88a0 243f ff8f 9ebf
00000120: 2a80 1b3e dd42 853f 427d c4bf 6e90 0fbc
00000130: af38 d5be 450e b73f d9bc e8bb b672 c33e
00000140: 4931 85be 936e bfbf d114 4cbc 88f9 e73c
00000150: 05bc c0bf 2c7d 0dbd 0588 be3c 63d1 b2bd
00000160: c34d d83b 8f17 38be ef8a 19bf 5b61 f43b
00000170: ffd3 a33b bb7c 82bc ff34 373c 41e1 a63c
00000180: ca0b e4bf d330 803e d63f 3140 e1de 673f
00000190: ef68 b53e a0d3 fbba 45fd dabb afe2 38bd
000001a0: 6810 a5ba 4998 0d3f ad88 abbb 1329 403f
000001b0: 8ed5 4e3f c07c 163e 67f9 2e3f 8531 ec3e
000001c0: 6f8f 08be 2c90 553f 4a11 bb3c 8b13 47bb
000001d0: 51c3 003d 91c7 703f 479c 3ebc 8359 113f
000001e0: 2ed6 a43e 0f74 76be 02f6 d63b d946 ddbe
000001f0: 0434 003f 469f 463f a9d8 81be 47ef 073c
0.35964048 -0.015575173 -0.1328828 -0.6500591 0.83998185 -1.496618 -0.12503344 -0.6203822
-0.0026099489 0.8235287 -0.008528696 0.4072701 -0.6874071 0.25222063 0.52408385 -0.02186308
-0.2108765 -0.9537771 -1.4151062 0.8034659 -0.56708264 0.0049246643 -0.035515513 0.016129784
0.84043556 0.013333452 -1.2535145 0.28911301 -0.35742342 -1.7923192 0.9437945 0.33353004
-0.7266548 -1.5488784 -0.5068103 0.0039453665 0.008638594 -0.010110103 -0.018649975 -1.2048991
0.0018082443 -0.37371024 0.000494626 0.099611886 0.37619576 0.34144878 0.36529115 -0.83313394
-0.012605147 0.058798876 -1.5797329 -0.27942756 -0.37589172 -0.18874766 -0.017280914 -0.2626028
0.8363876 -0.23335783 -0.58086324 0.0033373209 -0.008673053 -0.0031133266 -0.025599593 0.20229939
0.84484226 0.0089980895 -0.6285595 0.5446826 0.25510505 0.4166711 0.6430745 -1.2387694
0.1518561 1.041103 -1.5350726 -0.008762462 -0.4164481 1.430123 -0.0071025905 0.38173455
-0.26014164 -1.495562 -0.012456135 0.028317228 -1.5057379 -0.0345432 0.023258219 -0.087313436
0.006601067 -0.17977737 -0.5997762 0.0074578947 0.004999637 -0.015928617 0.011182069 0.020371081
-1.7816098 0.2503725 2.7695212 0.9057446 0.3543162 -0.001921285 -0.006683024 -0.045138057
-0.001259339 0.55310494 -0.005234799 0.75062674 0.8079461 0.14696026 0.6834931 0.4613153
-0.13335966 0.83423114 0.022835393 -0.0030376639 0.03143627 0.94054514 -0.011633939 0.5677721
0.32194656 -0.2406771 0.006560088 -0.43218115 0.5007937 0.7758678 -0.2536061 0.008296794
