linearNet/checkpoints/abr_500_actor.pt (torch, 177544 bytes, 8 tensors)

fc1.weight f4 [256, 7]
000000 38 6e 41 be 15 ba 35 3d 24 59 be be 17 7a 87 be
       -0.18889701 0.044366915 -0.37177384 -0.26460335
000010 39 57 4c bd 39 b8 5f bf 96 91 23 be 47 fc 53 bd
       -0.04988787 -0.87390476 -0.15973505 -0.051754262
000020 10 ac 54 3d b3 7c f4 bc a0 67 1f 3b 80 f7 33 3a
       0.051921904 -0.029844617 0.002432324 0.00068651885
000030 0c b7 04 bd 35 f2 47 bd bf 2c 1b 3f 4f ad 32 3f
       -0.03240113 -0.04881497 0.6061515 0.697957
000040 cd fe 73 3f 3c 5d cb 3f 8d 05 92 be 2e b1 b9 be
       0.9531067 1.5887828 -0.2851986 -0.3626799
000050 9b 68 d0 bf 51 2b 61 3e 58 f9 93 3e ab 00 34 3f
       -1.6281923 0.2198918 0.28901172 0.7031352
000060 3b ef b2 be 03 ce eb be b3 58 b3 3d 23 31 8c bd
       -0.34948143 -0.46055612 0.087571524 -0.068453096
000070 13 78 eb be b9 07 56 bf ed 53 e4 bf 22 17 74 c0
       -0.45990047 -0.83605534 -1.7838112 -3.813912
000080 50 32 e7 bd bc 54 17 bf a1 82 57 3d 39 84 2f be
       -0.11288893 -0.5911367 0.05261481 -0.17140283
000090 c3 a1 1f be 54 30 59 be 86 1a 86 be c9 93 13 be
       -0.15589051 -0.21209842 -0.2619211 -0.14411844
0000a0 cc fe 16 be b3 c5 44 be 2c 79 63 bd 0f 24 dd bb
       -0.14745635 -0.19216041 -0.05553548 -0.0067486833
0000b0 b2 f2 27 3e c7 b7 d4 be 47 d3 1a be f1 4b d7 3d
       0.16401175 -0.4154646 -0.15119658 0.105125315
0000c0 92 55 58 be 48 cd 1b be a2 e9 e9 bd 6a a8 0b be
       -0.21126392 -0.15215027 -0.11421515 -0.13638464
0000d0 f6 c7 50 be 59 60 a6 be 1a b4 fd 3d 7f b1 90 be
       -0.20388779 -0.32495382 0.12387867 -0.2826042
0000e0 f8 21 c1 3c d8 9d dc bc ae 5b 48 bb ec 3e 01 bd
       0.023575768 -0.026930735 -0.0030572223 -0.031554148
0000f0 88 34 03 bc e0 4b be 3b 20 d4 f8 bb 2f 38 2e bc
       -0.00800813 0.005807385 -0.0075936466 -0.010633512
000100 e4 6c 20 be 0f 96 66 be ef ac 23 bf f8 9e 5e bf
       -0.15666538 -0.2251818 -0.6393575 -0.8696132
000110 fb 70 f4 be ba ce f4 bf 8e 63 12 bd 90 1a c6 bc
       -0.47742447 -1.9125588 -0.035739474 -0.024182588
000120 d0 f9 58 bc ed b8 21 bd bc 1c a1 bc 32 3f 2a bd
       -0.013243154 -0.039483 -0.019667022 -0.041564174
000130 fe c8 2c 3c 32 7c 4d bd f2 ac 6a 3d 3c b1 d9 bd
       0.010545967 -0.05016727 0.05729384 -0.10629508
000140 4c 10 34 bd 14 0f 04 be 80 8b 7a be ab 4f 83 be
       -0.043960854 -0.12896377 -0.24467278 -0.2564672
000150 4e d7 52 3d 48 fd 81 3c 00 dd 69 ba b2 74 35 3d
       0.05147486 0.015867844 -0.0008921176 0.044300742
000160 50 e4 13 bd 9c 08 1c 3d 3c 2a 07 bd ff a6 c0 be
       -0.036106408 0.038094148 -0.032999262 -0.37627408
000170 77 05 ca be ea 3c a8 be 19 4c 1d bf f6 0f 9a be
       -0.39457294 -0.32858974 -0.6144424 -0.30090302
000180 b4 13 8d be e8 32 38 be c1 2b 3c 3f 56 79 e8 3e
       -0.27554095 -0.17988169 0.73504263 0.45405072
000190 bb 33 32 3f d5 77 9d bf 51 13 42 bf d6 bb 99 be
       0.69610184 -1.2302195 -0.75810724 -0.3002612
0001a0 8c cf 58 bf be 9a 80 3b d0 d9 f8 3d b4 f6 59 3f
       -0.8469169 0.0039246967 0.121509194 0.85142064
0001b0 6c 01 30 3f 05 79 35 bd b2 be 0f 3e 35 7b d5 bf
       0.6875217 -0.044304866 0.14037588 -1.6678225
0001c0 c7 55 d5 3e 9e e0 51 3e 0b 13 70 3e 10 ed dc 3e
       0.41667005 0.20495841 0.23444764 0.43149614
0001d0 50 2d 3e bf e5 11 38 3f 75 54 19 bf 04 ee 89 bc
       -0.7428789 0.71902305 -0.59894496 -0.016837128
0001e0 00 c4 ef 3c cc 52 cd 3c 40 f3 15 3b 24 d1 46 3d
       0.029268265 0.025063895 0.0022880584 0.048539296
0001f0 68 4e 9c bc c8 80 4d 3c 45 5c 19 3c 5e 74 86 bd
       -0.019080356 0.012542911 0.009360378 -0.06565164
000200 7b a9 f5 3c 52 79 a9 3b aa 40 62 3c 0c f1 33 bc
       0.029988041 0.005171933 0.013809362 -0.010982763
000210 9b ce bc 3c 3d 2e 5a 3d 6a 7d 45 3d 18 1f 55 3d
       0.023047736 0.053266753 0.048215307 0.052031606
000220 98 79 63 bc 18 af 68 3d 31 82 4c bd cb f3 1f bd
       -0.013883971 0.056807607 -0.049928848 -0.03905086
000230 35 76 ee bf 73 f8 54 c0 9a 9b b0 c0 86 b7 89 c0
       -1.8629824 -3.3276641 -5.5189943 -4.303653
000240 f4 17 28 3e e5 25 e4 bf 03 f5 29 be 66 1e 78 bd
       0.16415387 -1.7824064 -0.16597371 -0.060575865
000250 19 62 0b 3d cc 8c 0d be fd 62 21 be b2 30 81 be
       0.0340291 -0.13823241 -0.15760417 -0.25232464
000260 22 c5 81 be 82 ef 30 be 95 6f dd be 1b 02 00 bf
       -0.25345713 -0.17278865 -0.43249193 -0.5000321
000270 64 ba b5 be 46 13 99 3c aa d8 18 be 36 1a e7 3e
       -0.35493767 0.018685948 -0.14926401 0.45137185
000280 14 86 00 c0 c7 5b 22 be eb a3 e5 be 6b 48 b7 bf
       -2.0081835 -0.15855323 -0.44851622 -1.4318975
000290 0e fc c1 bf 03 09 69 3d 01 50 3d bf 46 b1 03 bf
       -1.5155046 0.05689336 -0.739502 -0.5144237
0002a0 9e fa 18 be 03 e3 0b be f5 c7 50 be f1 89 b0 be
       -0.14939353 -0.13660817 -0.20388778 -0.3448024
0002b0 2f b0 36 be 9c 61 2b 3e eb d5 95 bf 4e 15 69 bd
       -0.17840646 0.16736454 -1.1705908 -0.056905083
0002c0 27 0f f9 be 4e 95 85 bf 68 18 ea bc 8b 78 91 bd
       -0.48644373 -1.0436189 -0.028576091 -0.0710307
0002d0 9e 3c a4 be 54 15 1d bf 70 0e de bc b8 02 5e bb
       -0.32077497 -0.6136067 -0.027106494 -0.0033876132
0002e0 25 91 18 bc 3c e9 33 bd 8a 6e 14 bd 13 0b da 3c
       -0.009311949 -0.0439236 -0.03623823 0.026616609
0002f0 d9 ab 72 bd 58 3a 4f be d5 ec e7 bf 5a 1e 42 c0
       -0.059245918 -0.202371 -1.811915 -3.0331025
000300 37 11 2c c0 0a 72 49 be 69 dd 2a be 9a 06 17 3e
       -2.6885507 -0.19672409 -0.16686024 0.14748612
000310 19 f0 01 3c 1b 96 3b bc 9a b8 ce 3b 9a 03 74 bc
       0.007930779 -0.011449362 0.0063086273 -0.014893437
000320 fb 97 58 bd 0d b1 05 bd 68 55 cb bb db 9f 74 be
       -0.052879315 -0.032639552 -0.0062052496 -0.23889105
000330 d8 88 38 be 38 25 71 be 1d b3 f6 be 38 36 67 bd
       -0.18020952 -0.23549354 -0.48183528 -0.05644819
000340 19 59 69 bc e7 f5 65 be 63 ec de 3d de 03 75 bf
       -0.014242434 -0.22457086 0.10884931 -0.95709026
000350 3e f5 f8 bf 4a 1a 0e c0 fe 46 94 be ff 6e 0f bf
       -1.9449842 -2.2203546 -0.28960413 -0.5602874
000360 69 e1 20 bd 20 86 7c bb 4a 34 52 3d a8 32 48 bc
       -0.039277468 -0.0038532093 0.051319398 -0.012219109
000370 50 ba 10 3c 94 78 42 bd 14 4b b7 bc c4 5c c1 bc
       0.008833483 -0.047478274 -0.022374667 -0.023603804
000380 78 06 bc 3c 48 bd 3f 3c 54 5b 29 3d 1a 27 6f 3d
       0.022952303 0.011702843 0.041346863 0.0583869
000390 3e 15 6e 3d 70 38 8f bb e8 8b ac bc 17 4e 1a c0
       0.058125727 -0.0043707415 -0.021062806 -2.4110162
0003a0 02 1c 64 c0 96 be 9f c0 ad 61 ab c0 60 a0 80 3d
       -3.5642095 -4.992015 -5.3556733 0.06280589
0003b0 6b e7 8e bf e0 d3 6f bd 88 26 ca 3e 09 93 0e 3f
       -1.1164373 -0.05855167 0.39482522 0.5569311
0003c0 9e 19 89 3f 56 73 f9 3e 6d b0 22 be 34 53 30 bd
       1.0710943 0.48720807 -0.15887614 -0.0430481
0003d0 4c c7 c6 bf cd 91 85 be 4a 49 15 bf aa da d6 be
       -1.552957 -0.260878 -0.58314955 -0.41963702
0003e0 40 37 43 3f f2 5c 4d bf a1 dc 9d 3d a6 b2 a4 bf
       0.7625618 -0.8021995 0.07708097 -1.2867019
0003f0 b6 84 cc 3e d7 9e b1 3f bb 2d 22 40 ce 93 ef 3f
       0.39945 1.3876599 2.5340412 1.8716981

fc1.bias f4 [256]
000000 b0 04 25 bc e7 ed b3 be 76 fc 92 3e 50 c0 5d be
       -0.010071918 -0.35142443 0.28708237 -0.21655393
000010 1f 67 4a bb 4a d7 0b ba dd d6 c7 bd c9 66 b0 bd
       -0.003088422 -0.000533451 -0.09757779 -0.08613355
000020 70 63 15 bd d4 45 20 bb 3c 3f 83 be 82 99 94 ba
       -0.036471784 -0.0024455683 -0.25634181 -0.0011337253
000030 c4 6b 8f be 82 27 8b ba e1 1b 73 3e 73 c9 6d 3e
       -0.28011906 -0.0010616633 0.23741104 0.23221378
000040 c0 01 4f bf 1c 41 8e bd a2 dc 1d bd b7 a7 c9 bd
       -0.80862045 -0.069460124 -0.03854049 -0.09846442
000050 2a ce c4 3e 1b bf 74 ba d5 09 a4 3d 78 70 8e 3d
       0.3843854 -0.0009336338 0.08009688 0.069550455
000060 86 09 10 be a1 1e 05 3f d8 54 08 bd a8 3f 35 3f
       -0.14066133 0.5199986 -0.03328404 0.70800257
000070 09 f8 b9 bb 1b 6d 02 ba 66 6f 16 3f a2 4e 91 be
       -0.00567532 -0.00049753644 0.5876373 -0.28380305
000080 99 f6 23 be ba c1 b6 3e 99 b2 86 3e 83 05 9f bd
       -0.16012038 0.35694677 0.26308134 -0.07764723
000090 bc ad f5 be 3e b0 d2 b9 ad ca a9 be 46 7a 5b bc
       -0.4798411 -0.00040185632 -0.33162442 -0.0133958515
0000a0 85 49 be be d7 78 23 be 72 18 15 be b5 7b 6d ba
       -0.37165466 -0.15964065 -0.14560106 -0.00090592663
0000b0 f3 96 43 be 75 e8 0e be d9 3d 93 ba cc 09 0e bf
       -0.19100551 -0.13955863 -0.0011233642 -0.554837
0000c0 0b 28 76 be d2 f9 0b be 92 96 89 3e af 60 40 bb
       -0.24038713 -0.13669518 0.2687269 -0.0029354503
0000d0 f8 4b fb 3e b4 8d 4b be 50 5f 8e 3e b8 d3 a5 be
       0.49081397 -0.19878274 0.27807093 -0.3238809
0000e0 51 59 b9 3e 77 3a 35 be 87 48 37 bd 90 94 b8 bb
       0.36200956 -0.17698084 -0.0447469 -0.0056329444
0000f0 58 80 64 bd 93 ef 91 be 96 d2 79 be 9c 1d c0 bd
       -0.05578646 -0.28503093 -0.24396738 -0.093806475
000100 0e 95 91 be 49 6f 5e 3e 92 a2 5e 3e 82 0f 83 be
       -0.28434032 0.2172214 0.21741703 -0.2559777
000110 3b 1a ba be e6 5c 78 ba d3 c8 9f ba 8c 35 b3 be
       -0.36348137 -0.0009474292 -0.0012190588 -0.3500179
000120 b9 59 a8 be 43 7f 8c be a7 b8 a3 be 62 f3 06 3f
       -0.32880953 -0.27440843 -0.31976816 0.5271512
000130 34 a4 ff bc e8 e9 67 bd f6 65 36 bd a9 b7 1c bb
       -0.031206228 -0.056619555 -0.04453083 -0.002391318
000140 e8 e2 f3 bd 88 36 18 3e b1 0a 59 be b5 b6 14 be
       -0.11908513 0.14864552 -0.21195485 -0.14522822
000150 e4 85 b3 be a8 fc ce bd 20 89 1b 3f 8d 58 ed b9
       -0.35063088 -0.10106784 0.6075611 -0.00045270138
000160 6b 06 0d bf b0 5b b0 bd 60 3a fb 3e 22 ba 8a be
       -0.5508792 -0.08611238 0.49067974 -0.27095133
000170 9a 3c 34 be 9b 3b 4e bb 43 81 61 bf 60 2c 23 bf
       -0.17601243 -0.0031468633 -0.8808786 -0.63739586
000180 3a fb b0 bd 9c 40 46 be 2d d0 56 be fc 3b 3d be
       -0.08641668 -0.19360584 -0.2097785 -0.18479913
000190 27 0f e7 bc eb f1 82 bc 5a 02 52 be 02 2a bb be
       -0.028205467 -0.015984496 -0.2050871 -0.36555487
0001a0 19 9a d3 3e 9f 89 5d bd 93 ef 9e be 21 c8 98 be
       0.41328505 -0.054086324 -0.31042156 -0.29840186
0001b0 80 c0 90 be 72 ac c3 bd 4d 48 8e bd 40 fe a9 bc
       -0.28271866 -0.09554376 -0.06947384 -0.020751119
0001c0 ff 5f a2 3e 4c 32 20 be b0 70 8d bd 19 5d 3d be
       0.31713864 -0.15644187 -0.06906259 -0.18492545
0001d0 64 43 7c 3e 87 82 66 bc e3 71 b3 be b7 3d 51 be
       0.24635082 -0.014069206 -0.35047826 -0.20433699
0001e0 b0 0f 9c bd 76 a6 af be 04 3e 20 ba fe ce 81 be
       -0.0762018 -0.34306687 -0.00061127567 -0.25353235
0001f0 2a 0c 23 be c5 49 20 be 8a 36 08 3f ac 8e aa be
       -0.15922609 -0.15653141 0.5320822 -0.33311975
000200 07 d0 87 bd a4 58 17 ba f5 e3 bd bc b5 79 18 be
       -0.06631475 -0.00057734014 -0.023179987 -0.14890178
000210 48 79 d4 bc d9 36 88 3e ce a9 48 ba 44 11 3f be
       -0.025936738 0.26604345 -0.00076546974 -0.1865893
000220 27 bc ad be 38 eb 55 bd 04 2d 2a bd 04 aa 2a bd
       -0.3393261 -0.052226275 -0.041546836 -0.041666046
000230 13 6d 74 be 13 f9 95 be 15 c0 b4 b9 bb 6b 0c bd
       -0.23869734 -0.2929159 -0.00034475388 -0.034282427
000240 c8 8f 0f 3f 92 6e 88 be 6a 22 6d 3e 45 4a c3 3e
       0.5607877 -0.26646858 0.23157659 0.381426
000250 03 35 fe bd 54 cf e7 bd b3 d0 bb bb ce fd ce 3b
       -0.12412455 -0.113188416 -0.005731666 0.006316877
000260 07 4f 02 3f 80 63 84 be 77 2c b1 3e e5 aa 30 bf
       0.50901836 -0.25857162 0.34604236 -0.69010764
000270 49 71 00 bc c0 fd 82 be 3f f9 f6 3e a4 ff 8b be
       -0.007839509 -0.2558422 0.48237035 -0.27343476
000280 41 c1 23 be 67 05 2e bd 05 82 29 be 87 da a7 be
       -0.1599169 -0.04248562 -0.16553505 -0.3278391
000290 b3 25 84 3e 03 8d 8b 3e 74 f1 a6 bd 82 4e 8e be
       0.25810012 0.2725602 -0.08151522 -0.27794272
0002a0 c4 8a 2a bc 78 69 fc bd 6c e1 b3 bd a0 bb b8 be
       -0.010409061 -0.12324804 -0.0878323 -0.36080647
0002b0 06 fa 34 be 4c 2e 76 be 45 fd ad 3e 46 4e 25 be
       -0.17673501 -0.24041098 0.33982292 -0.1614314
0002c0 8b 68 95 bc 07 4f dd bd a4 3f 5f be ed dd 89 3b
       -0.018238327 -0.10806089 -0.2180162 0.004207364
0002d0 2a 38 6d be 5b 6c 6b be 9f 7c 11 bd 7e f1 be bd
       -0.23165956 -0.22990553 -0.03551924 -0.09323405
0002e0 4b c2 6b bc d3 74 24 be 82 8f e1 3e fb 6b 71 be
       -0.014389585 -0.1606019 0.440548 -0.23576348
0002f0 90 f3 85 bd 0d 10 34 be 7d 90 ab be 68 0c 8a be
       -0.065405965 -0.17584248 -0.33508673 -0.2696259
000300 d3 d5 6b bb 92 56 af 3e 8e ef 8f be 82 44 d6 be
       -0.0035985603 0.34245735 -0.28112453 -0.41849142
000310 02 e2 01 3f 88 60 fa be 96 f4 07 be 07 03 b3 be
       0.50735486 -0.48901772 -0.13276896 -0.34963247
000320 1d 59 0e be 9e 16 f4 3e 7a 63 01 bf f2 d0 76 be
       -0.13901182 0.47673506 -0.50542414 -0.24103144
000330 93 33 b4 be f0 ca c8 bd cc 9a 91 be 54 f6 a9 bd
       -0.35195598 -0.09804332 -0.28438413 -0.082989365
000340 fd 40 b5 be 7e e0 c8 be 20 a9 50 3e a8 47 68 bb
       -0.35401145 -0.39233774 0.20377016 -0.00354431
000350 27 63 91 be c2 e8 82 be e0 be cb bb 78 98 38 bb
       -0.2839596 -0.25568205 -0.0062178224 -0.002816705
000360 73 de 1e bc 57 b1 94 be 9c 66 a4 bd 06 97 6a be
       -0.009696591 -0.2904155 -0.08027384 -0.22909173
000370 c2 1b 56 be 46 0d d5 bc 74 b8 1c 3e 23 31 0c bb
       -0.20909026 -0.026007306 0.15304738 -0.0021391592
000380 5d b1 94 be 62 58 9d be 23 b0 e1 bd 3d d6 02 3f
       -0.29041567 -0.30731493 -0.110199235 0.5110815
000390 28 b9 ca be 7d 6a 35 be a3 44 7e be 80 2a 53 bc
       -0.39594388 -0.17716403 -0.2483087 -0.012888551
0003a0 cc 6b ab be 99 bb d4 3e 19 ed 5e ba 89 a6 07 bf
       -0.3348068 0.41549376 -0.0008503958 -0.5298849
0003b0 e3 1e 4e be 74 af f7 bd f1 fb b9 b9 a5 e2 7f be
       -0.2012897 -0.12094012 -0.0003547366 -0.24988802
0003c0 13 56 a1 be a7 8b c0 bd b8 11 2d 3e 75 6e 9e be
       -0.31510982 -0.094016366 0.1690129 -0.30943647
0003d0 01 4a 15 bd a9 bf b7 3e ff 00 a9 be 05 b1 77 be
       -0.03644753 0.35888413 -0.33008572 -0.24188621
0003e0 a5 41 d5 3e 2b 39 45 be 86 b5 c8 be 22 e3 43 ba
       0.41651645 -0.19260089 -0.3920099 -0.0007472505
0003f0 4e ca 86 bc 3c 3f 50 be 9f 44 37 ba db 47 03 be
       -0.016453888 -0.20336622 -0.00069911213 -0.1282038

fc2.weight f4 [128, 256]
000000 97 3b 87 bc 82 6f 3e 3d 5f 4a 5a bd a5 97 be bc
       -0.016507907 0.04649306 -0.053293582 -0.02326567
000010 ab 3e 8d 3d f4 60 3e 3b 12 8f e0 bd 4b 5f 83 bd
       0.068967186 0.0029049488 -0.109647885 -0.0641466
000020 1a 15 36 3d 9d 7f ed bc df 8e 9f 3d 75 54 99 3d
       0.044453718 -0.028991515 0.077909224 0.07486812
000030 f2 4f 01 bd 01 63 68 bd 78 20 30 3d a3 89 c7 bd
       -0.031570382 -0.056735042 0.042999715 -0.09743049
000040 c8 fa 25 3d e8 3d af bd 88 53 2e bc 50 ea ec bc
       0.040522367 -0.085567296 -0.010640033 -0.028920323
000050 73 8b 44 bd e0 8f 13 3c 78 fb a5 bd 4f 91 a5 3c
       -0.04798455 0.00900647 -0.081046045 0.02021089
000060 25 88 76 bc 34 92 82 bd 51 a1 14 3d 41 71 ea bd
       -0.015047108 -0.06375542 0.036286656 -0.11447383
000070 cd cb b4 bd 34 ed cf bb 20 16 08 3c 88 af 28 3c
       -0.088279344 -0.0063454155 0.008306056 0.010295756
000080 64 b8 8b bd 16 23 2a bd 36 92 4e bc fc 62 a1 3d
       -0.06822279 -0.041537367 -0.012608102 0.07880208
000090 5c 64 4b bd f0 19 fc 3c 3f 1c 5d 3d 1a 40 1f 3b
       -0.049656257 0.030774087 0.053982016 0.0024299682
0000a0 b1 ba 4d 3d d5 d8 b0 3d a8 c3 71 bc ea bb fd 3c
       0.05022687 0.086351074 -0.014756121 0.030973393
0000b0 14 59 b5 bc d9 39 e9 bd b2 8d 6a bd 42 8a 83 3c
       -0.022137202 -0.11387987 -0.057264037 0.016057137
0000c0 3b 74 ad 3d 00 70 d3 ba 72 56 66 bb 30 93 c2 3c
       0.08469435 -0.0016131401 -0.003514674 0.023751825
0000d0 49 a6 9e bd a9 95 80 3d ad b1 e7 bd 67 43 87 bc
       -0.0774656 0.062785454 -0.11313186 -0.016511632
0000e0 a3 ee e1 bd 7a 85 83 bd e4 77 97 bd 73 c3 ff 39
       -0.110318445 -0.06421943 -0.07395914 0.0004878301
0000f0 32 e2 51 3d 01 40 9e bd cb 92 0c 3d 84 d0 aa 3d
       0.051241107 -0.077270515 0.03431968 0.083405524
000100 9a c8 38 bd 8f f5 09 3c 0d bf 05 bd 1f 40 e6 bc
       -0.045113184 0.008420362 -0.032652903 -0.028106747
000110 de 0b 4a 3d f9 5e b0 bc 77 e7 87 bb 0b 37 61 bd
       0.049327724 -0.021529661 -0.004147466 -0.054984134
000120 3d 12 85 bd 0f 96 e6 bc 2b e4 1f bd ef 79 31 bd
       -0.06497619 -0.028147725 -0.039035957 -0.043329176
000130 22 ee ba bd 6a bc 6d 3d 70 5d 8a bb f4 2c 8e bd
       -0.091274515 0.058041014 -0.0042225644 -0.06942168
000140 29 73 91 bd df 86 71 3c 10 8a 02 3d 94 6a 8d 3c
       -0.07102043 0.014741628 0.031869948 0.017262734
000150 78 2d 84 3c 69 65 85 3d ff c4 d1 3c 9f 01 66 bd
       0.016134962 0.06513483 0.02560663 -0.05615389
000160 76 6b 33 3d 28 82 7e bc e1 1b 95 bd 24 29 8b bc
       0.043803655 -0.015533961 -0.07280708 -0.01698739
000170 d2 78 97 bd a1 1c cc bd 3d d8 3d bd f5 e4 ed bd
       -0.073960915 -0.09966398 -0.0463488 -0.11615936
000180 c8 18 68 bd 89 41 31 3d 3a 06 a8 bd ac bd e2 bb
       -0.05666426 0.04327539 -0.082043126 -0.0069195833
000190 cf 7f 08 3d 86 6d 4b 3d e0 de 8a 3b e4 3d 68 bd
       0.033325013 0.049664997 0.0042379946 -0.05669965
0001a0 0d 15 a8 bd 91 3a 72 bd a0 30 b4 3b c8 13 12 3c
       -0.0820714 -0.059137885 0.0054989606 0.008915849
0001b0 87 b1 9a bd 2d df ee 3c 92 de d6 bd 52 d0 4f 3d
       -0.07553392 0.029159153 -0.10491671 0.05073578
0001c0 77 46 69 bd a2 69 e5 bc e8 ea 1b 3c 91 8d 24 bd
       -0.056951966 -0.028004471 0.009516455 -0.04017407
0001d0 ec 32 7f bd 28 9a 4d bd f1 23 b7 bd bd 76 26 bd
       -0.062304422 -0.050195843 -0.08942402 -0.04064058
0001e0 02 db 30 bd fe 94 93 bd 68 b0 5f 3d 18 e0 51 bc
       -0.043177612 -0.072061524 0.054611593 -0.012809776
0001f0 25 91 98 3c e0 b0 fa bc 8a 47 b9 bd ac 30 5a bd
       0.018623898 -0.030601919 -0.09046848 -0.053269073
000200 e8 fa 5d bd b7 ec ef bc 6c ec 2a 3d 10 3f 43 3c
       -0.05419436 -0.02928768 0.041729376 0.011916891
000210 e4 f6 ec bb 27 38 46 bd 01 d3 9c bd e1 06 89 3d
       -0.00723158 -0.048393395 -0.07657433 0.06690765
000220 c0 1f 8f bc 0e 04 1b 3d 5f 5d 11 bc c8 7f fa bc
       -0.017471194 0.037845664 -0.008872359 -0.030578509
000230 43 0d 83 bd 73 89 50 3d ea 58 15 3d 80 77 52 3c
       -0.06399014 0.05091233 0.03646175 0.012845874
000240 15 86 e6 bc 90 40 71 3d 73 d7 ab bb 9d d2 85 bd
       -0.028140107 0.058899462 -0.0052441894 -0.06534312
000250 5f 09 4a bd e1 19 60 3d 06 af 22 bc 62 18 e1 bc
       -0.049325343 0.05471218 -0.009929424 -0.027477447
000260 ff b5 ea bd 0f 11 a6 3d 1c 99 47 bd 94 4d 47 bd
       -0.11460494 0.081087224 -0.04873 -0.04865797
000270 62 3a 9e bb cb d9 87 bd 22 c1 53 bd 72 f1 9b bd
       -0.004828737 -0.066333376 -0.051697858 -0.076144114
000280 e7 02 64 bd 06 1f 7b 3d de 6f b5 bc b7 df 8f 3d
       -0.05566683 0.061308883 -0.022148069 0.07025092
000290 80 f9 0f be 5c af bc bc 42 99 8d bd 3c 4f 5c bd
       -0.1406002 -0.023032837 -0.06913997 -0.0537865
0002a0 fc 14 9c 3c ba 42 4e 3d 71 11 81 bc 11 00 9c 3d
       0.019052975 0.050356604 -0.015755387 0.076172
0002b0 42 f7 33 3d 14 1c e0 bc f1 4b 91 bc d0 7a c3 3b
       0.043936975 -0.027357139 -0.017736407 0.005965568
0002c0 80 a5 92 bb f0 51 57 bc 21 cd 39 bd 8c 99 be bd
       -0.0044752955 -0.013142094 -0.04536164 -0.093066305
0002d0 6b a4 94 3d 61 d3 8b 3c 8e ef 85 bd 58 a0 54 bd
       0.07257923 0.017068567 -0.06539832 -0.05191073
0002e0 ea b5 fe 3c 00 0d 87 3b 91 7c e7 bd 94 5e 19 bd
       0.031092603 0.004121423 -0.11303056 -0.037443712
0002f0 12 1b 41 bd f3 bf 88 bd 55 7a f7 bc 2c f5 02 3d
       -0.047144957 -0.066772364 -0.0302097 0.031972095
000300 88 98 d4 bd 42 92 86 3c 46 7a 5b 3d 73 e7 07 be
       -0.103806555 0.016427163 0.053583406 -0.13271885
000310 1c b4 90 bd 61 e6 56 3d c5 c7 af 3d fa e0 63 3d
       -0.07065603 0.0524658 0.08583025 0.055634476
000320 b4 fa 0f 3d ff 5b 9b 3b dc 09 2a bd 6e f8 ac bd
       0.0351512 0.0047411914 -0.04151331 -0.08445822
000330 20 fa 81 bc 1e 6d 49 bc e6 a7 90 bd d5 f6 93 3d
       -0.01586634 -0.012294082 -0.07063274 0.07224814
000340 05 27 8b 3d 0a 19 1f 3d cf 41 8e 3c c5 f0 b5 3c
       0.06794552 0.03884224 0.017365364 0.022209534
000350 b8 b7 9b bc d8 b7 93 3c a4 fe 50 3d 36 45 08 3d
       -0.019008502 0.018032 0.051024094 0.03326913
000360 3d e3 b4 bd c3 b2 98 3d 2a 39 5d 3d 47 d3 1a bc
       -0.08832405 0.07455971 0.054009594 -0.0094497865
000370 80 61 cb bb 20 61 87 3d 71 d3 86 bd 83 26 84 3d
       -0.0062066913 0.06610322 -0.06583298 0.06452658
000380 36 ff 27 3d 22 7e 48 3d cf 66 97 bd ad a3 a0 bd
       0.041014872 0.048948415 -0.07392656 -0.07843719
000390 9a 1d 8c 3d 8c 10 cf bc c1 14 30 bd 2f da a2 3d
       0.068415835 -0.025276445 -0.042988542 0.079517715
0003a0 a0 c5 3c 3b c4 41 0c be 2d d8 a1 bd 84 c1 46 bd
       0.0028804317 -0.13696963 -0.079025604 -0.048524395
0003b0 00 4e 93 bc 6a 9d a2 bd 77 5e 09 3d 97 bf 20 bc
       -0.01798153 -0.079401806 0.033537354 -0.009811304
0003c0 7e 24 af bd 35 3b 98 3b 1a a6 0d 3a 3f 6a 9a bd
       -0.08551882 0.00464573 0.0005403474 -0.07539796
0003d0 59 67 73 3d 12 35 3d bd 88 7a a3 3c 90 2f 7b bd
       0.059424732 -0.04619319 0.019955888 -0.061324656
0003e0 21 85 35 bd 81 80 0d bd 05 88 3e bd 56 16 88 3d
       -0.044316415 -0.03454638 -0.046516437 0.06644885
0003f0 bd e1 86 3d c6 0e f8 bc ac 83 33 bd e0 ad 6c 3b
       0.06586025 -0.030280482 -0.043826744 0.003611438

fc2.bias f4 [128]
000000 d0 bf e6 bc d3 bd 28 bd 46 96 c8 bd 4c 21 aa bc
       -0.028167635 -0.041196655 -0.097942874 -0.02076783
000010 f0 84 b8 bd 84 26 04 be b3 69 42 3e 4b b7 f4 bd
       -0.09009731 -0.12905318 0.18985634 -0.11949023
000020 a5 70 5a bd 3e 22 5c bd 77 10 41 bd eb 6e 83 3d
       -0.053330082 -0.053743593 -0.047134843 0.0641764
000030 5e ca a2 bd c2 2a 9e bd 77 cb 9a bd b4 92 62 bd
       -0.07948755 -0.07722999 -0.07558339 -0.05531569
000040 7a 52 0b be e9 c5 a6 bd ab 31 ed 3d cd 3d be bd
       -0.13605681 -0.08143217 0.11581739 -0.09289131
000050 a5 b3 ab bd 8c 51 a0 bd 46 0d 4a 3e 9b e5 31 bd
       -0.08383874 -0.07828054 0.19731626 -0.04343186
000060 59 7e e8 bb 03 0c 45 bd f7 1a 91 bc 06 e3 d2 bc
       -0.00709514 -0.04810716 -0.017713053 -0.025743019
000070 84 78 76 bd 7f 14 79 be b3 f9 74 bd 88 fd 11 bd
       -0.060173526 -0.24324225 -0.059808444 -0.035642177
000080 71 78 13 bd 67 de c9 bd 31 e7 89 bd ae 8d a3 bd
       -0.036003534 -0.09856873 -0.067335494 -0.07986008
000090 f1 51 bd bd 7e 6e bf bd 89 0d 81 bd 57 de ad bd
       -0.09244145 -0.093472466 -0.0630141 -0.084896736
0000a0 2c 50 2a bd f5 95 2f be 9f ad a2 3d 1e 0c b6 bd
       -0.041580364 -0.17147048 0.07943272 -0.0888903
0000b0 94 b0 ec bd b8 3d 79 3e d1 68 93 bd 33 e6 02 bd
       -0.11557117 0.2433995 -0.071977265 -0.031957816
0000c0 ef 47 66 bd e1 1b 66 bd 16 ff 5b bd 2e f9 06 bd
       -0.056220945 -0.05617893 -0.053710066 -0.03295248
0000d0 2c 0d d9 bd 3f 81 1a be 61 8b 42 bd da 1a 30 3d
       -0.105982155 -0.15088366 -0.047496203 0.042994358
0000e0 82 ea e8 3d a8 d9 88 bc bd 32 ab bc a2 82 d7 be
       0.11372854 -0.01670535 -0.020898217 -0.42091852
0000f0 60 64 5e be 55 9a 8e bd 7a 41 95 bd e0 a6 88 bd
       -0.21717978 -0.0696303 -0.07287879 -0.06672454
000100 93 1d 7e bd 58 d8 2e bd c3 b2 15 bf 51 5d 41 bd
       -0.062039923 -0.04268679 -0.58475894 -0.047208134
000110 69 f9 af bd 50 6f 74 be 65 c1 8e bd 8b 62 96 bd
       -0.08592493 -0.23870587 -0.06970481 -0.07343014
000120 4c af a0 be c4 b9 e2 bd d7 8d 72 be 65 cc 85 bd
       -0.3138374 -0.11070588 -0.2368692 -0.06533126
000130 f4 9e 97 bd 1e b8 6e bd 10 11 92 bc 6f b3 c9 bc
       -0.07403365 -0.058281057 -0.017830402 -0.024621693
000140 27 31 d3 bd ec eb 83 be 98 a1 12 bd c8 72 2e bd
       -0.103121094 -0.25765932 -0.03579864 -0.042589933
000150 70 64 7a be 18 36 af bd 52 15 73 bd 8f 28 2e bd
       -0.24452376 -0.085552394 -0.059346505 -0.04251915
000160 1f 95 e4 bc 16 53 a3 bd 4b 38 9f bd d9 71 43 bd
       -0.027903138 -0.07974832 -0.07774409 -0.047715995
000170 e4 e0 fe bc fc 6d 7a bd 24 d1 46 bd 6e fc 19 be
       -0.031113096 -0.061140046 -0.048539296 -0.150377
000180 2b f5 95 be 97 53 4a bd 11 a6 55 be 48 c2 24 bd
       -0.2928861 -0.049396124 -0.2086413 -0.040224344
000190 6c 11 d3 bc 57 f1 78 bd 80 24 68 bd 68 f4 b7 bc
       -0.025765143 -0.060777035 -0.056675434 -0.02245541
0001a0 fe 3a 36 bd 51 0e a6 bd f2 5c 4d bd 77 4a f0 bd
       -0.044489853 -0.081081994 -0.050137468 -0.11732953
0001b0 a2 93 cd bd d9 21 a6 bd 72 ef 94 bc dd 21 ed bd
       -0.10037924 -0.08111925 -0.018180583 -0.115787245
0001c0 69 7c af bc 8f 55 91 bd 2e 6b 90 bd ba ab ba bd
       -0.021421628 -0.07096397 -0.07051693 -0.091147855
0001d0 b0 54 42 bc 64 2e a0 bd 35 30 a1 bd 36 26 78 bd
       -0.011861011 -0.07821348 -0.07870523 -0.060583316
0001e0 bf 20 ae bd 4c 32 a0 bd 12 e3 a7 bd 7d c8 85 bd
       -0.085023396 -0.07822093 -0.08197607 -0.06532381
0001f0 2e 6b 90 bc da 26 9e bd 8a 1a cd bc 50 48 d5 bc
       -0.017629232 -0.07722254 -0.025037069 -0.026035458

fc3.weight f4 [64, 128]
000000 00 9b ca bc 95 3c 0e bd 03 67 d9 bb 38 7a ba bc
       -0.024732113 -0.034725744 -0.0066345944 -0.022763357
000010 b1 82 73 bd eb 41 a0 3d b1 0e 15 3e f3 c0 83 bd
       -0.05945081 0.07825073 0.14556386 -0.064332865
000020 1e 2d 9b 3b d1 6d 0b bc 19 73 81 3d 34 f2 c7 3a
       0.004735603 -0.008510069 0.06320781 0.0015254677
000030 17 15 ca 3c 20 94 26 bd 04 d1 0e 3d 3a 33 0b 3e
       0.02466826 -0.040668607 0.0348673 0.1359376
000040 58 55 af 3d f6 25 88 3d 18 5d 93 bf 01 c7 1e bd
       0.085612 0.066478655 -1.1512785 -0.038764004
000050 b0 c7 cd bd 78 a9 2e bd 09 86 30 bf ca 55 a5 bd
       -0.10047853 -0.042642087 -0.6895452 -0.080730036
000060 1f 3e 11 be e5 ee 98 bd f3 d8 46 bd 50 42 56 bd
       -0.14183854 -0.074674405 -0.048546743 -0.052309334
000070 67 e9 c0 bd 3c 99 96 3d ff 8a 53 3c 67 93 24 be
       -0.09419518 0.07353446 0.012911557 -0.16071855
000080 61 19 b9 3d 4e ca 86 3e 96 41 06 3e 09 a4 f2 bc
       0.09038044 0.2632622 0.13110957 -0.029619234
000090 59 cc b0 3d 54 57 bd bd 31 55 e9 bc c1 f2 43 3d
       0.08632726 -0.09245172 -0.028483005 0.04783893
0000a0 9e e9 22 bd a7 42 70 bf 3e 1c 5d 3e bc 9f bc bd
       -0.039773576 -0.93851703 0.21592805 -0.092101544
0000b0 c9 32 00 be c6 28 10 be 7a 41 15 3d 23 1c 6c bd
       -0.12519373 -0.14078054 0.036439396 -0.05764402
0000c0 38 41 de bc 62 d3 8b bd b9 e0 f1 3d b4 e8 7e bd
       -0.027130708 -0.068274274 0.118104406 -0.06223364
0000d0 17 7a 87 be 6e 47 3f bd 48 c7 9c 3d d4 fc cf bd
       -0.26460335 -0.04669898 0.076551974 -0.10155645
0000e0 48 d8 92 bf 6b e7 32 bd e0 52 41 3e 82 e9 b1 bd
       -1.1472254 -0.04367773 0.1887927 -0.08687116
0000f0 9a 9c 61 bf d8 05 b9 3c dc f8 b3 bc 0f 51 40 3e
       -0.8812958 0.022585794 -0.021969251 0.18780921
000100 48 4a 1c be 94 9d 21 3d 90 1c b0 bf d4 bc 21 bd
       -0.15262711 0.03945692 -1.3758717 -0.03948672
000110 16 2c 3f 3d 85 e8 aa be 4e 43 5d 3d 68 37 09 be
       0.046672903 -0.33380523 0.054019265 -0.13400042
000120 42 5a 7d bf fa 76 73 3c cd 75 98 bd b8 a6 23 bd
       -0.9896585 0.014859909 -0.07444344 -0.039953917
000130 3c a5 b2 bd f2 22 9e 3d e5 04 07 3e 98 ae 5e bd
       -0.08722922 0.07721509 0.13185461 -0.054365724
000140 8c c3 2d bd 1b 6e d0 be c1 a7 9e bb 20 80 a5 3c
       -0.042422816 -0.40709004 -0.004841775 0.020202696
000150 8e 2e ad bd b8 4c a3 3c 94 81 34 bd a0 00 5f bd
       -0.08456145 0.019934043 -0.044068888 -0.054443955
000160 e1 a5 81 bb d4 48 a5 bd 83 a0 e1 bc 75 61 65 3d
       -0.003956542 -0.080705315 -0.027542358 0.056001145
000170 0c a2 64 3c 25 a9 db 3d c2 a9 f3 3e a7 a1 ae 3d
       0.013954651 0.10725621 0.47590452 0.085269265
000180 59 e8 1d 3e 10 56 b8 bd 39 3e 82 3e 39 39 0a 3e
       0.15420665 -0.0900079 0.25438097 0.13498391
000190 c6 28 10 bd fb 91 d9 be 9a 5c d8 bd 04 ac ff 3d
       -0.035195135 -0.42494187 -0.10564537 0.12483981
0001a0 87 75 9a 3c 1f b2 6f bd 9d 77 99 bd 93 37 16 3c
       0.01885487 -0.05851948 -0.074935175 0.009168523
0001b0 8e 6c 86 3d 84 4f bd bd 2e 65 91 3d 73 fa 8b bd
       0.06563674 -0.09243682 0.070993766 -0.06834879
0001c0 80 28 12 bd 47 b1 ae 3d d2 51 1e 3e df 1e 91 3d
       -0.035683155 0.08529907 0.154609 0.07085966
0001d0 35 4c 8e bd 07 47 89 3c 99 a0 8b 3d 22 55 4d 3c
       -0.06948129 0.016757501 0.06817741 0.012532504
0001e0 59 33 c3 bc fa 5d a9 bd d7 32 9c 3c ea dd e9 bc
       -0.023828195 -0.08269878 0.019067211 -0.0285482
0001f0 42 69 1e 3e 68 01 af bd ad af 8f 3c a9 55 02 be
       0.1546984 -0.0854519 0.017539823 -0.1272799
000200 20 58 c0 bd 3f fe 1a 3e 85 f3 21 be 48 bc 25 bd
       -0.093918085 0.1513605 -0.15815552 -0.040462762
000210 c4 34 0e bd 06 a9 a3 bc f4 17 1e 3f c6 22 11 be
       -0.03471829 -0.019978058 0.617553 -0.14173421
000220 a3 9d 3d bd 63 f6 45 bd bd c5 99 3d 3f ed 24 bf
       -0.046292912 -0.048330676 0.07508419 -0.6442451
000230 30 66 5f bd 6a 70 b1 3c 4c 4e 0d be cf 5f 71 bd
       -0.054540813 0.021660049 -0.13799399 -0.05892926
000240 f8 59 b8 bd e2 c3 c3 bd 67 f8 7e c0 3d 04 9a 3d
       -0.09001535 -0.09558846 -3.9839113 0.0752034
000250 b7 d5 7a 3d 86 ed a2 3b f1 55 80 bf ac c2 da 3d
       0.06123897 0.0049721627 -1.0026227 0.10681662
000260 29 f0 9d 3d 04 45 ed bc b9 57 73 3e 2b 78 15 be
       0.077118225 -0.028963573 0.23763932 -0.14596622
000270 16 6f 10 3e 98 b9 55 be 34 14 34 bd af 0f 1c bc
       0.14104876 -0.2087158 -0.04396458 -0.009525224
000280 c0 58 88 bc 24 ad 85 3d 18 cf 1c 3d 81 a4 8b 3d
       -0.016643882 0.065271646 0.038283437 0.06818486
000290 a9 d1 e8 be 8c 8b cf 3d 0a 3b 8b bb 86 c0 3f bd
       -0.45472458 0.10134038 -0.0042489814 -0.046814464
0002a0 c9 55 ba bd eb d7 0c c0 3a 27 9c bc 62 23 a9 bd
       -0.090983935 -2.2006786 -0.019061673 -0.08258702
0002b0 a2 6a 94 bd cd 43 60 bf 3b d9 44 be 36 7f 37 bd
       -0.07246901 -0.87603456 -0.19223492 -0.044799052
0002c0 ca 22 58 bb 64 fe 22 bf 39 2a e9 bc a2 c5 28 bd
       -0.003297972 -0.6366942 -0.028462516 -0.041204102
0002d0 be d2 65 3e a2 d6 9e bd 74 ab 3c 3d 2f e2 56 be
       0.22443673 -0.07755782 0.046061948 -0.2098472
0002e0 18 e2 39 bc 38 34 92 3e af e8 37 bd 86 27 52 3e
       -0.011345409 0.28555465 -0.04489964 0.2052289
0002f0 71 58 7c be 7f ce cb bb 2c f1 6b bd d4 b7 a9 3d
       -0.24643113 -0.0062196846 -0.057603046 0.082870156
000300 93 26 20 bd c4 c2 84 3d 6b 05 f5 3e 66 c8 2e 3e
       -0.039099287 0.06482461 0.47855696 0.17068633
000310 a3 3e 7f bd 9f 90 c0 bf f5 ae 06 bd 1c 47 6c bd
       -0.062315594 -1.5044135 -0.032881696 -0.057685003
000320 81 06 a6 be 4a de 58 3d e0 16 0e 3f 2c b7 3c bb
       -0.32426837 0.052946366 0.55503654 -0.0028795702
000330 e1 6d 27 bd 48 e9 88 3d cf 74 11 be c1 4e 5f 3c
       -0.040876273 0.0668512 -0.14204715 0.013629616
000340 fe eb 66 3d 83 2c 03 3f ac 50 51 3d 2a 56 a9 bd
       0.056377403 0.51239794 0.051102325 -0.082683876
000350 cd 26 c9 bf bb 89 4e 3c 77 53 12 3e 90 4b 68 38
       -1.5714966 0.01260608 0.14289652 5.5383483e-05
000360 f3 99 be 3d b2 c0 a4 3d 99 fc 26 3d ce ee 6e bd
       0.09306707 0.08044566 0.04076824 -0.05833321
000370 77 2c 2e bd 27 71 9b 3e 09 a9 6a 3e df 20 e6 3b
       -0.042522874 0.30359766 0.22916044 0.0070229615
000380 8a 46 29 be 8b 48 fe bb a6 ec d3 3e 03 65 84 3d
       -0.16530815 -0.0077601126 0.41391486 0.06464579
000390 e3 f7 23 3e 8a d4 1f 3e 04 6c a5 3d 21 3f 5f 3d
       0.1601253 0.15608421 0.08077243 0.054503564
0003a0 b0 14 94 bd ee d9 06 bd 27 76 79 bd 81 94 1c 3e
       -0.07230508 -0.032922678 -0.060903694 0.15291025
0003b0 f3 de 45 bc 05 32 a2 3d 34 f8 c6 bd aa 4a 0b 3e
       -0.012077081 0.07919697 -0.0971531 0.13602701
0003c0 28 f2 72 bd 16 ec 10 3e dd f2 34 bd e8 ed 11 be
       -0.05931297 0.1415256 -0.044176925 -0.1425091
0003d0 89 09 57 bd b7 a7 c9 bd 99 f8 fc 3d 46 f1 dc 3c
       -0.052499328 -0.09846442 0.12352104 0.026970517
0003e0 2b 79 63 bd 5c cb a9 3c d5 60 06 3d e0 24 ff bc
       -0.055535477 0.020726852 0.03280719 -0.031145513
0003f0 81 34 57 3d 77 10 c1 3d 73 51 76 bd 8f 73 53 bc
       0.052540306 0.094269685 -0.06013627 -0.012905969

fc3.bias f4 [64]
000000 86 e2 2b be 0f 58 89 3e 74 dd 4a be e7 5d 35 3e
       -0.1678563 0.26824996 -0.1981104 0.17711602
000010 9c 36 99 3d 56 b5 9b be b4 b3 3a 3e fe 44 24 be
       0.07481119 -0.30411786 0.18232614 -0.16041943
000020 55 03 97 bd 54 80 f6 be ec 15 48 be 47 9d cc be
       -0.073736824 -0.48144782 -0.19539613 -0.39963743
000030 a1 d1 26 be 4e 93 75 3d 1d 85 a6 3c af f4 1f be
       -0.16290905 0.059954934 0.020327145 -0.15620683
000040 c1 3d 0e be 1d 5f d3 bd d5 b2 79 3e 10 42 18 3e
       -0.13890745 -0.10320876 0.24384625 0.14868951
000050 91 e4 d5 bd 75 b3 8e be ae a2 5f bf 59 78 69 be
       -0.10443986 -0.2787129 -0.87357605 -0.22799815
000060 dc d1 7a 3e 4d 60 d1 bd c6 a1 f8 be c8 c9 34 3e
       0.24494117 -0.10223446 -0.48560923 0.17655098
000070 91 d7 e1 bb f4 84 87 be 4d ba f8 bb e5 ac bf bd
       -0.0068921526 -0.26468623 -0.007590568 -0.09359149
000080 10 45 42 bf 77 b4 60 3d ad 27 18 be e4 ce 26 bd
       -0.7588663 0.054859605 -0.14858885 -0.04072465
000090 e9 65 85 bd f4 20 a0 3c 5f 43 f9 bd 36 d5 ef 3d
       -0.065135784 0.019546963 -0.12171053 0.11710589
0000a0 3c 9b 07 be 32 3f 32 3e 83 64 87 3c b1 09 1d be
       -0.13242811 0.1740692 0.01652742 -0.15335728
0000b0 45 2e 10 be 0e af 58 3e f9 d9 63 3e d1 be 2f be
       -0.1408015 0.21160528 0.22251119 -0.17162634
0000c0 5b 11 96 3e 1a 96 bb be 5e 40 c8 bc 2e f8 14 be
       0.29310116 -0.36637956 -0.024444755 -0.14547798
0000d0 9e 4b e5 bb 66 3c c2 3d 99 90 b7 bd 79 62 c1 bc
       -0.0069975397 0.09484176 -0.08963127 -0.023606526
0000e0 7a b9 9d be 40 ed 24 be be a5 07 3d 5e d5 10 be
       -0.3080557 -0.16106129 0.03311705 -0.14143893
0000f0 34 99 7c bc de 5e 2d be 76 ef ca bd 66 a6 5e bf
       -0.015417386 -0.1693072 -0.09908955 -0.86972654

fc4.weight f4 [6, 64]
000000 3a e4 bb be 47 d2 2d 3f 7f 0e c8 bc 89 db 4f bf
       -0.3669756 0.6789898 -0.024420975 -0.8119436
000010 ca a9 98 3e 09 41 39 3f ee 64 4b bd 56 cc 8c 40
       0.2981704 0.7236486 -0.0496568 4.3999434
000020 b9 b9 12 be d8 b7 f0 bd 88 7a ae 3f e6 db 10 3d
       -0.1432866 -0.117538154 1.3631144 0.03536596
000030 65 ea c7 3c 53 25 e7 3e f4 f2 1e bd d4 72 f6 be
       0.02440376 0.45145664 -0.038805917 -0.48134482
000040 73 c8 3d bd 2a 31 df be 93 11 0f bc 3a 12 f8 3c
       -0.04633374 -0.43592197 -0.008732217 0.030282129
000050 cf 58 24 bd 7d 2a e8 3f c0 c2 62 3e 54 da 3c 3e
       -0.040123757 1.8137966 0.22144604 0.1844266
000060 5a 71 9b 3e ce e1 a2 be 33 80 5a 3f b9 e7 9e 3e
       0.30359918 -0.318129 0.85351866 0.31036165
000070 6a 6d ad bd 66 9e 52 3e 95 8f 96 3d 09 ca 20 bd
       -0.08468135 0.20568237 0.07351605 -0.039255176
000080 f6 1a 91 c0 2d 1d ac bf 0d 97 ed 3c 9f a9 da be
       -4.534541 -1.3446404 0.02900269 -0.42707536
000090 d6 0c 7f 3d 36 e7 f4 3e 34 b5 f5 bc 94 18 32 bf
       0.0622681 0.4783265 -0.029993631 -0.69568753
0000a0 c0 5f 77 3e a5 00 ce be 21 15 79 bf 1a c9 9d bc
       0.2415762 -0.40234867 -0.97297865 -0.019260932
0000b0 db d6 a7 bf 84 3b 3d 3d 58 c6 89 bd 0d 8f 19 bd
       -1.3112444 0.046199337 -0.06727284 -0.03748994
0000c0 83 61 7c 3f 7a be 95 bd 4d 00 21 3f 55 41 cf 3e
       0.9858629 -0.07311721 0.62891084 0.40479532
0000d0 de 39 49 3f 04 6e 91 bb b9 ae ee bd d8 17 0e 40
       0.78603923 -0.0044381637 -0.116544195 2.2202053
0000e0 4b dc 03 bf 36 51 06 3d 4a cb 5f bf 46 dc 27 be
       -0.51508015 0.032792293 -0.8741957 -0.16392621
0000f0 4a 99 62 3e 3d 0f 2b 3f f0 9d 9d 3d 39 e2 22 41
       0.22128788 0.66820127 0.0769614 10.18023
000100 dd fd 2b 3d 15 93 00 3f 5d 12 dc bf fc 35 6c 3f
       0.04199015 0.5022443 -1.7193104 0.92269874
000110 7e cd c3 be 58 bc c9 bd c5 68 83 3d 12 36 e5 3f
       -0.38242716 -0.09850377 0.064164676 1.7907126
000120 05 d5 ec 3e 3c 82 21 c1 0a 58 75 3e 8a 2e 0e bf
       0.4625627 -10.0942955 0.23959365 -0.5553976
000130 5c 77 e2 3c 77 cc 09 3f ff da 50 3f 79 af a4 c0
       0.027644806 0.53827614 0.8158416 -5.14642
000140 9e 36 e0 bf 43 59 84 bf eb 22 1b 3e 2e 4c 6c 3e
       -1.7516668 -1.033974 0.15150039 0.23075935
000150 a1 43 b0 bc 22 28 d6 bf e1 0f 0e bf 57 cd b7 bf
       -0.021516623 -1.6730998 -0.5549298 -1.435954
000160 00 0a 23 bd 82 05 1f 3f 8b 59 7c 3e ff bc 93 bf
       -0.03980446 0.6211778 0.24643533 -1.1542052
000170 af b3 9c be 94 51 07 3d d3 8d f9 be 6f 49 b0 bc
       -0.30605838 0.033036783 -0.48741016 -0.02151939
000180 d4 8a c6 3d 18 d3 0e be 53 23 8d bd c1 88 0b 3f
       0.09694448 -0.13947713 -0.06891503 0.54505545
000190 45 df f4 3d f9 0e 61 3e da a5 f3 bc f7 5e fc 3f
       0.11956648 0.21978368 -0.02974217 1.9716481
0001a0 97 5d 2d be 54 01 48 3f 3a 1c ab 3e 63 de 02 bd
       -0.16930233 0.78127027 0.33419973 -0.031950366
0001b0 36 dd cc 3d 4e c3 de 3e 3e cb c7 3c 47 d8 92 be
       0.1000313 0.4350838 0.024388906 -0.28680632
0001c0 39 0e a3 be 6b 1f 8d c0 a2 69 e6 bf 97 b8 41 3e
       -0.3184679 -4.410085 -1.8000987 0.18918072
0001d0 34 ea 41 3e b4 89 62 ba 64 aa e5 bc 6a ce b2 be
       0.18936998 -0.0008641735 -0.02803535 -0.34923106
0001e0 32 6f 01 3d 4d 33 6e 3c a0 65 b5 3f dc 69 f0 3e
       0.031600185 0.014538598 1.4171638 0.46955764
0001f0 b0 18 2a 3f dc ac a0 bf 56 db d8 3f 2f 35 aa c0
       0.6644392 -1.2552752 1.6941936 -5.318992
000200 5d 98 c7 bf 64 af 20 3f 78 cc 68 c0 f9 d4 a5 c0
       -1.5593373 0.62767625 -3.6374798 -5.1822476
000210 68 46 13 c0 ec c0 32 c0 79 d8 1d c1 63 37 cc 3d
       -2.3011723 -2.793025 -9.86535 0.09971502
000220 bb f8 d3 c0 c8 50 42 3f a6 bb 82 c0 da 5e fc bf
       -6.6241126 0.7590451 -4.0854063 -1.9716446
000230 eb b5 7e bd 38 32 1e c0 c9 6c af c0 62 da 58 3d
       -0.06218521 -2.471815 -5.4820294 0.05294264
000240 e5 cc 5d bf 38 ee 1d 3f 23 41 1b c1 b3 c9 f4 c0
       -0.8664077 0.6169162 -9.7034025 -7.6496215
000250 1b 6d 82 bd 34 47 88 3b 51 b8 09 be 00 f7 5d c0
       -0.063684665 0.0041588787 -0.13449217 -3.4682007
000260 ce 3d a3 c1 4b 54 0c c1 8f 5c 0a c0 7c c2 29 c0
       -20.405178 -8.770579 -2.1618993 -2.6524954
000270 94 b1 8a c0 8a c9 a8 c0 7e bb 81 3f 52 1a 6b bd
       -4.334177 -5.274602 1.0135343 -0.057398148
000280 cd 14 05 3f a3 f4 89 bf f2 22 1e bd a3 bc 29 3f
       0.51984864 -1.0777782 -0.038607545 0.6630346
000290 65 cc 0f bf f5 7c f7 bf a4 ae 33 be 10 7a 21 3f
       -0.56171256 -1.9335009 -0.17547089 0.6307688
0002a0 e4 2f 40 3e e9 70 2f 3e da de 0f c0 16 a9 3f 3d
       0.18768269 0.17132916 -2.2479768 0.046792112
0002b0 47 04 12 bf 2c 7a 06 c1 7f 16 21 3e 68 ee b8 bf
       -0.57037777 -8.404827 0.15731238 -1.4447756
0002c0 57 bb c0 c0 ed 40 19 40 9e 1b 41 bf 52 20 6a bf
       -6.0228686 2.3945878 -0.75432765 -0.91455567
0002d0 c1 a0 fa 3f 3c ce b0 3e 38 5f ea c0 91 b5 40 3f
       1.9580308 0.34532344 -7.3241234 0.7527705
0002e0 73 0c d0 3f c9 32 80 bc 90 51 a9 bf 98 79 a6 bf
       1.6253799 -0.015649216 -1.3228016 -1.3005857
0002f0 8b e3 22 bf 01 c9 ab bf 74 c5 1f 3f 4a 63 22 3f
       -0.63628453 -1.3420717 0.62410665 0.63432753
000300 d1 ce 1e be bd c3 4e 3f dd d6 c7 c0 71 f7 91 bf
       -0.15508582 0.8076742 -6.2449784 -1.1403638
000310 95 05 12 be 85 e6 02 bf 80 94 e5 bf 42 2a 4c bf
       -0.14259942 -0.51132995 -1.7935944 -0.7975198
000320 c4 96 9e c0 95 e2 47 c0 15 3f dc 3f 22 93 e9 3e
       -4.955904 -3.1232045 1.7206751 0.45620066
000330 53 91 6c bc b2 d0 0c 3f 03 6b 03 c1 1c 68 51 3f
       -0.014438945 0.55005944 -8.213626 0.81799483
000340 44 3e e8 be 55 f3 09 3f 68 53 98 be 2d 06 55 c1
       -0.45360005 0.5388692 -0.29751134 -13.314008
000350 6d 92 e4 3c c9 20 66 c0 cb fe 96 bf a7 2a ad c1
       0.027901853 -3.595751 -1.1796507 -21.645826
000360 d1 9f c4 c0 19 09 4c bf aa 44 0c c0 6b ab e4 c0
       -6.144509 -0.7970138 -2.191691 -7.145925
000370 31 42 50 c0 a2 af 3a c0 f2 20 54 3f fd ec ed bb
       -3.25404 -2.9169698 0.8286277 -0.007260917
000380 6e f6 9a 40 64 17 8d 3e fe 2f 3f bd 36 e6 4b 3e
       4.8425817 0.27556908 -0.04667663 0.19912037
000390 9c 3e 87 c0 3f 59 f5 c0 64 55 04 bd ce 30 0a 3e
       -4.2263927 -7.6671443 -0.032307997 0.1349518
0003a0 fa af a1 bf 93 6c 64 c0 ae e1 6b c0 0f 3a 4b 3d
       -1.2631829 -3.5691268 -3.6856494 0.049615916
0003b0 b4 c2 ad 3e d9 d9 10 c1 80 76 d5 bd 0c e6 bc be
       0.3393761 -9.053185 -0.10422993 -0.36894262
0003c0 87 66 d2 c0 8a 8a 01 c0 05 fd a4 be 3b 8e 9f bf
       -6.5750155 -2.0240808 -0.3222429 -1.246528
0003d0 ad 46 a9 bf 15 ed 84 be 90 d7 6d bf 06 69 82 3f
       -1.3224694 -0.2596213 -0.9290705 1.0188301
0003e0 10 0b 93 c0 69 d7 c3 bc 73 be 94 c0 37 5b 91 3d
       -4.5951004 -0.023906427 -4.648248 0.07097476
0003f0 0f 61 0c 3f b8 18 1a c0 9d b1 01 3f ce 36 6c c0
       0.548356 -2.4077587 0.5066164 -3.690845

fc4.bias f4 [6]
000000 7c a4 f5 bd b2 34 89 3e ac 35 91 bd c6 75 0a 3f
       -0.119942635 0.26798016 -0.07090315 0.5408596
000010 b4 5a be 3e ef 34 9b c0
       0.37178576 -4.8502116
