linearNet/checkpoints/place_600_critic.pt (torch, 273078 bytes, 9 tensors)

fcs1.weight f4 [256, 3]
00000000: 0223 18bf 96e2 3e3c 12ab 863f 103c e3bb
00000010: 340f fb3c 90c1 fbbb e941 6abd 0f23 973d
00000020: bd9f de3f e47e 333d d832 303c 604d 403d
00000030: 60c3 b0bc 9a2b 353d 08cd acbc 20ec 41bb
00000040: c022 64bd f03f 35bd 2845 063f 8295 4a3e
00000050: 380f 96bf 0cc9 c43e 4b12 113d 1947 1540
00000060: d0c8 dabf 73cb 80be 4674 7e3e 5abf 44bd
00000070: f224 f33c 4cb0 c8bc 2005 c0bc 03fb cebc
00000080: c669 4ebd a4be 513d 2037 95bc 867f 01bd
00000090: 40bc 2bbc 649d b3bc 50b3 fcbb 916c f7be
000000a0: 090f b6bd 000c 8d3f 5085 87bd 472f e0bd
000000b0: 1eed fe3f cb8b f6c0 df25 69bb b4aa 263e
000000c0: 7478 d4bc 74fe 7c3d 08c5 74bc b42c 183f
000000d0: 782c 983e e14b 91bf 302b 5a3c d84d c1bc
000000e0: 328d 1b3d f00a 1abc e31e 58bd e097 f63c
000000f0: 217c edbe 9605 4cbe 9361 843f 00f0 09bd
00000100: e06a a1bc 34ea 183d 310e 83be f8bd 8dbe
00000110: a890 d3bf 4577 793e 381a be3d 7a8a 1740
00000120: 60d6 31bc c4ff 54bd 9a25 e03c fc61 823c
00000130: 0078 48bd a000 6b3b a156 7abf 7da5 d2be
00000140: 3d8b f5bf edad 2a3d f00e dcbb 4001 89ba
00000150: dbd3 1cbe 8af9 1ebe 25f1 dc3f e12a 143e
00000160: 81c5 05be 5f9b babf 57cb e2be 79f4 97be
00000170: 513d c9bf 2e33 b6c0 48a0 38bf 419c 80be
00000180: e88b f5bf 6e8f 97be 5521 853f 2833 05bd
00000190: aa42 673d f8ae 8cbc a818 ab3c c3bf 613d
000001a0: 9035 4a3d 4049 85bc 16d2 323d 4a2d a8bc
000001b0: 42c1 7bbd a154 a63c e46d 303d 5274 a2c0
000001c0: 0f89 96be 179e 683e e4ff 893c 0c92 6f3d
000001d0: de7f 39bd e890 d83c 93d8 57bd 6c6c 533d
000001e0: c0ff 073b 68fa cc3c fc61 4abd 00d5 a33a
000001f0: 68c1 84bc 24ec d23c 2123 11c1 f68a 9c3e
00000200: 9ebc 073c aea9 c63e d803 8d3c 441c 3240
00000210: 92d7 0b3d f660 9e3d 6e11 dc3f 5e3c 2c3d
00000220: 348f 8a3c 1224 413d 8902 5e3e ef13 8b3c
00000230: f741 1640 bc29 70bd 4308 a0be 616c c4bf
00000240: 7605 4a3e 9d50 b5bf 2c45 b3bf a5e0 6bbf
00000250: 41e1 87be 98e3 083f c74f e43e 2dc8 853e
00000260: d907 18c0 bc45 f6bc 003a 7e3b 301f 9e3c
00000270: ca84 413d 67af 113d 5898 f43c 1095 c5c0
00000280: 21b5 26bc 962c 0e3e c8de 38bd 0809 06bd
00000290: 5198 723d c665 293f 594e c33e 01a9 0b40
000002a0: 59f0 f8bc 01b0 1dbd 7ffc fd3f a6de 24c0
000002b0: 9bfd 05be d81a 26c0 22ef e3bf b42f 43bf
000002c0: ccc3 a8bf 04b9 b43c 5029 e83b 4808 4bbc
000002d0: 908c 5e3d d8c2 053c 16e8 6cbd a05e 63bd
000002e0: bacc 2dbd e2ba 033d a4b2 57bd 68b8 82bc
000002f0: a087 02bd dafb 5f3d 0881 38bd 90a5 aebc
00000300: da69 67bd b87b 6d3c 382e 753c 2057 223f
00000310: ec7b 5e3e bca3 a3bf a020 643d 8895 513e
00000320: 64ed 2ac0 1eec d63e 589e 413e fbf1 99bf
00000330: 32cf e33e 000d 503e 0ad9 0ac0 71bf 6c3f
00000340: 0680 fabf 8f7d dcbf d2de 51bd 0c5d aa3c
00000350: c22c 2d3d 8e8a fb3d 48e8 14bd 84a6 0a40
00000360: 8f08 2dbf 1fdc 37bf d20b ca3f 3978 09be
00000370: 9a56 e03d 9d1c 9e3f 7b57 1bbf 9dac b9be
00000380: c684 f4bf d080 efbf 9b0d f3bf f0bc 883e
00000390: 2bb5 a1bf 85cb 95be d3a4 3c3f ce9f 3dbd
000003a0: 34d1 e23c 28d9 4dbc c6db 263d 00f8 2d3c
000003b0: 7848 1bbd daa5 73bd b8be 3fbc fc73 17bd
000003c0: 4c46 4b3d c0fe 54bc 6037 fbbc c058 d53c
000003d0: 8bd6 f4bb a9eb 4cbd 7816 503d e4b7 0bbe
000003e0: cc32 b9bf 5f4d 813e 62ae 05bd 04d5 13c0
000003f0: 05d4 a23e 795b c3bd 9881 8ebf e8ad d63c
-0.5942842 0.011650702 1.0520957 -0.0069346502 0.030646898 -0.0076829866 -0.057191763 0.07379734
1.7392498 0.043822184 0.01075431 0.04694879 -0.021577537 0.044231035 -0.02109386 -0.0029590204
-0.055697203 -0.04425043 0.52449274 0.19783595 -1.1723394 0.38434637 0.035417836 2.3324645
-1.7092533 -0.2515522 0.24849042 -0.04803405 0.029680703 -0.024498127 -0.023439944 -0.025266176
-0.050393842 0.0512072 -0.018214762 -0.031615756 -0.010481894 -0.021925636 -0.0077118054 -0.48325017
-0.088895865 1.1019287 -0.06617224 -0.109465174 1.9916112 -7.7045646 -0.0035575551 0.16276056
-0.025936343 0.061766103 -0.014939554 0.5944321 0.29721427 -1.1351281 0.013315961 -0.02359669
0.03797645 -0.009402022 -0.05276383 0.030101717 -0.46383765 -0.19924006 1.0342277 -0.033676147
-0.019704282 0.03733273 -0.25596765 -0.27683997 -1.652852 0.24361904 0.092823446 2.367827
-0.010854334 -0.05200173 0.02736168 0.015915863 -0.048942566 0.0035858527 -0.97788435 -0.41141883
-1.9183117 0.041669775 -0.006715648 -0.0010452643 -0.15315191 -0.15524879 1.7261091 0.14469482
-0.13063623 -1.4578665 -0.4429576 -0.29678705 -1.5721837 -5.6937475 -0.7211957 -0.25119212
-1.9183321 -0.29601616 1.0400797 -0.03251949 0.05646006 -0.017173275 0.02088578 0.05511452
0.049367487 -0.01627028 0.043657385 -0.020529408 -0.061463602 0.020304026 0.04307355 -5.0766993
-0.29401442 0.22716556 0.016845651 0.05848889 -0.04528796 0.026436284 -0.052696776 0.05161707
0.0020751804 0.025021747 -0.04940985 0.0012499392 -0.016205505 0.025747366 -9.071076 0.3057477
0.008284716 0.3880133 0.017213747 2.7829752 0.03414113 0.077333376 1.7192819 0.042049758
0.016913988 0.04715354 0.21680655 0.016977279 2.3477762 -0.05863355 -0.31256303 -1.5345575
0.19728646 -1.4165226 -1.4005485 -0.92139655 -0.26539043 0.5347228 0.44592115 0.26129285
-2.375479 -0.030062549 0.0038791895 0.01930198 0.04724578 0.035567667 0.0298578 -6.174446
-0.01017502 0.13884196 -0.045134336 -0.032723457 0.05922729 0.6617092 0.38145712 2.1821902
-0.030388044 -0.03849793 1.9842681 -2.5760894 -0.13085024 -2.5953884 -1.7807353 -0.76244664
-1.3184752 0.022060879 0.007085003 -0.012392111 0.05433327 0.00816413 -0.057838522 -0.055510163
-0.04243157 0.032160647 -0.0526606 -0.015957072 -0.031867623 0.054683544 -0.04504493 -0.02131918
-0.056497432 0.014494829 0.014964633 0.6341419 0.2172696 -1.2784343 0.055695176 0.20467198
-2.6707392 0.41977018 0.1890806 -1.2026972 0.44494015 0.20317459 -2.169497 0.92479616
-1.957032 -1.7225817 -0.05123789 0.020796321 0.042279013 0.122822866 -0.036354333 2.1664133
-0.67591184 -0.71820253 1.5784857 -0.13424768 0.10954018 1.2352482 -0.6068036 -0.36264506
-1.9103019 -1.8711185 -1.8988527 0.26706648 -1.2633413 -0.29256836 0.73689 -0.04629498
0.027687646 -0.012563981 0.040736936 0.01061821 -0.03791091 -0.05948434 -0.011703186 -0.036975846
0.049627587 -0.01300019 -0.030666053 0.026043296 -0.0074718646 -0.05002943 0.050802678 -0.13644367
-1.4468627 0.25254342 -0.032637008 -2.3098764 0.31802383 -0.095389314 -1.1133299 0.026205972

fcs1.bias f4 [256]
00000000: 5ed8 893e 145a bfbd e49a 473e bc79 36be
00000010: d42a 86be 1404 7fbe 31c9 513f 6503 243e
00000020: 8ce6 d53e dbfb d0be b81b 1fbe 64a2 c9bd
00000030: ebbb 7dbe b731 653e 185c c43c bc97 6e3e
00000040: 38a0 afbd 5279 0b3f 2381 0abf 34a1 31be
00000050: 2c5d 363e ead5 d5be a3bb 0d3f edeb 253e
00000060: 91ac 7bbd 0309 a6be 0387 163f 59b5 12bf
00000070: 036a 383e 1039 bf3e c211 de3e ab1c 213d
00000080: cbca 92bb 20fd 45be e062 c1be 0b28 fabe
00000090: 15e0 a1be b01c af3e 7db9 e4bd 90cc edbd
000000a0: 4e51 b7be 8c21 a2be f86f ba3d 8a18 913d
000000b0: 362d a43e e0c4 ddbd 3304 8d3d 8c42 243f
000000c0: 8404 983d 838b 083f a48f 323e 1fae 94be
000000d0: db74 0ebf 46e5 3c3e 2f00 d4bd 8520 d43e
000000e0: 929e a7bc 1904 423e f858 a23e ce9e 0dbf
000000f0: 36ff 82be ba82 8fbe 305a 94bd 5016 74be
00000100: 5609 05be 864c db3e 1187 213e 5ec7 fb3e
00000110: 3ad8 863e 2d6c 553e 2609 63be 03a7 d0bc
00000120: a1f5 9fbc e925 ca3e dc0a 0d3f 17bf 813e
00000130: 03c2 21be d3ef 0dbf 98ec 55be aefa d6be
00000140: 8d40 13bf 80ee a1bc 7541 bb3e 8d57 9c3e
00000150: ba0d 243f 38ca fdbe 98f3 d3be 1ce8 ba3e
00000160: 3880 e43e 486e 393f eb18 a83e b817 7e3d
00000170: 0af5 53be e8e9 e7bd 0c9f b2bd acab 583f
00000180: 5acf e9be 961b 973e a62e 3ebe 755a 18bd
00000190: beb5 b4be f614 8d3b 0434 6b3e ae8f 333f
000001a0: eb56 4e3f bf40 103f 1221 31be 8d65 433f
000001b0: a0f4 1fbe a1e5 d83e f6ed 1f3f d6b0 a33d
000001c0: 903b 0cbd 9aef 6abe 70ff 5cbd 5f79 12bf
000001d0: db30 bbbc 7f83 87be cb7a b43e a45d 7cbe
000001e0: 41d2 c53e c8ca 03be ef43 12bf 254b 02bf
000001f0: 1890 bdbe 194d 0ebf 7603 6f3e 7425 9fbe
00000200: 260c fcbe f6c6 f1be fc6f 0b3f ca6c ff3d
00000210: 8218 1c3f ef95 ac3e 0fb7 9c3c 4af7 183f
00000220: 8428 0bbe 4909 153f ba77 d9be c403 6e3c
00000230: 5bf2 cf3e 83f2 663c bcde 2f3f 181a c2be
00000240: ea8c e9be 20ae 9dbc fd46 34bd 569b d53e
00000250: fc53 acbe 04f3 67be b45c c83e 0d70 89be
00000260: 082b 863d c2f1 0bbf 20f1 393e e2f6 a6be
00000270: b011 f1be 7ce6 edbe b7cf e13e 901a 8dbd
00000280: d096 1c3f e8e0 893e 4532 05bf 50ca 92be
00000290: fa79 0ebe d883 a9be 5323 363f 3263 3f3e
000002a0: e6f2 5abe 2f6e 04bf 5a92 81bd 7099 50be
000002b0: 8646 c8be 8c0a 0ebe f4b8 62be 3d36 113b
000002c0: c0c1 f3bc 69ec 1d3e e864 5dbe 370f d63e
000002d0: 3a72 33be e611 e33e a26a 0bbf a6dc e4be
000002e0: 5c08 493f e3e6 313d c08c 37bd 4458 52be
000002f0: f62d 043f 8c1f b1be bbd9 6bbe f0d3 debe
00000300: ed54 f63e 5a3a 89bc 8932 babc b02b 40be
00000310: 2482 263e 4cf6 1cba e1dc 87be 62da 9d3e
00000320: b2bf 5bbe 7abf 46be a2b7 c8be 0efb a33d
00000330: 91a9 213f 9cbe 24be 3a02 88be c83a d4be
00000340: 71ea 9cbe 25e5 513f 823a 403f 44a6 b8be
00000350: 8697 d03e b78b 093e d832 9cbd f8d3 28be
00000360: 6c8d 893e 29a2 c5be 2bfa af3e db18 00bf
00000370: a8dd 0fbe fcf1 4dbe ae2c 9c3d 5452 aabd
00000380: aabf 1ebe 40fe 56bd d302 903e ff09 b33e
00000390: 00d0 a9bb 7aba c23e ead3 0d3e eeb4 b7be
000003a0: 3ad1 b13e ac72 633e 24a6 b3bd b15a 90be
000003b0: 738d d53e 0a03 103f c8ff debd 7ef2 91be
000003c0: 827e 85be 3661 1f3f cdf0 943e b012 4cbd
000003d0: 54c1 86be 6ba9 09bf 7896 96be ab82 d53e
000003e0: c1f7 03bf 9e51 07bf 8a23 b43e 6cab c53e
000003f0: 0efe 0f3f 7417 47be 256b ab3e fa8e 2abc
0.26922888 -0.09343353 0.1949268 -0.17819875 -0.2620455 -0.249039 0.8194762 0.1601692
0.41777456 -0.4081715 -0.15537918 -0.09845427 -0.24778716 0.22382246 0.023969695 0.2330007
-0.08575481 0.54481995 -0.54103297 -0.1734665 0.1780898 -0.41764766 0.55364436 0.1620328
-0.06144387 -0.3242875 0.5879976 -0.57307965 0.1800919 0.37348223 0.43372923 0.03933398
-0.004479741 -0.19334841 -0.37770748 -0.48858675 -0.31616274 0.34201574 -0.111681916 -0.11611283
-0.35804218 -0.3166622 0.091033876 0.070847586 0.32065743 -0.108285666 0.068855666 0.6416404
0.07422736 0.5333788 0.17437607 -0.29039094 -0.5564706 0.18446836 -0.103515975 0.4143106
-0.020461354 0.18946876 0.31708503 -0.5532044 -0.25585335 -0.28029424 -0.072437644 -0.23836637
-0.12991843 0.4283182 0.1577418 0.49175543 0.26336843 0.20842047 -0.22171459 -0.025470262
-0.019526305 0.39482048 0.55094695 0.25341102 -0.15796666 -0.5544407 -0.20891035 -0.41988128
-0.5752037 -0.019767046 0.36573377 0.30535546 0.64083445 -0.49568343 -0.41396785 0.3650521
0.44629073 0.724339 0.3283151 0.06203434 -0.20698944 -0.11323911 -0.08721742 0.8463695
-0.4566601 0.29513234 -0.18572482 -0.03719564 -0.35294908 0.0043054773 0.22969061 0.7014111
0.80601376 0.56348795 -0.17297772 0.7632683 -0.15620661 0.42362693 0.62472475 0.07992713
-0.03423649 -0.22942963 -0.05395454 -0.5721645 -0.022850445 -0.2646751 0.35249934 -0.24645096
0.38636974 -0.12870324 -0.5713491 -0.5089591 -0.37023997 -0.5558639 0.23341164 -0.31083262
-0.4922802 -0.47222108 0.5446775 0.12471922 0.60974896 0.3370814 0.019130258 0.59752333
-0.13589674 0.58217293 -0.42474157 0.014527265 0.4061459 0.014095905 0.6869924 -0.37910533
-0.4561532 -0.019248068 -0.044013012 0.41720074 -0.33657825 -0.22651297 0.39133227 -0.268433
0.06551176 -0.5466577 0.18158388 -0.32610232 -0.47083807 -0.46464908 0.44103786 -0.06889832
0.6116762 0.26929402 -0.5202983 -0.28669977 -0.13913718 -0.331084 0.7114765 0.18690184
-0.21381721 -0.51730627 -0.063267425 -0.20371032 -0.39116305 -0.13871211 -0.22140867 0.0022157573
-0.029755473 0.15422215 -0.21620524 0.41808483 -0.17524043 0.44349593 -0.54459584 -0.4469959
0.7852838 0.04343308 -0.044811964 -0.20541483 0.5163263 -0.3459438 -0.23032276 -0.4352107
0.48111668 -0.016751457 -0.022729175 -0.18766665 0.16260582 -0.0005987629 -0.26535705 0.30830675
-0.21459845 -0.1940898 -0.392026 0.08006869 0.6314936 -0.16088337 -0.265642 -0.41451097
-0.30647615 0.8199027 0.75089276 -0.3606435 0.40740603 0.13432203 -0.07626885 -0.1648711
0.2686571 -0.3860028 0.3437055 -0.50037926 -0.14049399 -0.20111841 0.076257095 -0.08316484
-0.15502802 -0.052488565 0.28127155 0.34968564 -0.0051822662 0.38032895 0.1385037 -0.35880226
0.3472994 0.22211713 -0.08771923 -0.28194192 0.4170948 0.5625464 -0.1088863 -0.2850532
-0.2607308 0.6225771 0.29089966 -0.04982251 -0.26319373 -0.53774136 -0.29411674 0.41701254
-0.5154992 -0.5285891 0.35183364 0.38607347 0.5624703 -0.1944254 0.33480182 -0.010410065

fcs2.weight f4 [128, 256]
00000000: 7f91 793d 48e9 d3bc 3653 88bd 2390 05bd
00000010: 0223 baba b279 203d 00ff 33bb 9c2b 83bd
00000020: 1817 b5bc b832 e23c c0c5 39bc 075b 9d3d
00000030: 009e 2f3b b716 aa3d 1920 02bd 6f70 ac3d
00000040: 6492 c13c 30e2 28bd 8ea0 203d 500b a4bb
00000050: acb2 b3bd d730 a5bd 0bed adbd 07ca 843d
00000060: 9740 963d 7c3e a23c 4691 533d 4d04 9bbd
00000070: 38c9 0d3d 6325 7ebd 2c45 33bb d06b f33c
00000080: ec91 3dbd 5752 8f3d 80cb 073c aca7 09bd
00000090: 00c6 41bc 50fb 00bd 27ec ac3d 68e2 033d
000000a0: 94ed a7bd 0810 5e3c 5a6a afbd c2ca 293d
000000b0: ed0d 9bbd cdc1 a93d 2fcc a3bd a2ba 5d3d
000000c0: feb4 083d ce53 2c3c 693e 56bd cd21 51bd
000000d0: ae95 1a3d 7b54 2ebd ba8a 3dbd 1ee5 513d
000000e0: 923d 373d 12f2 343d 9dc6 aa3d 23a9 8c3d
000000f0: 5284 463d c041 43bb 8ee9 863d 7663 6d3d
00000100: d1a7 a83d ba00 90bd 0a64 443c 700f 883c
00000110: e0b2 59bd 7e26 6abd 306b 043d 8857 f73c
00000120: 20ce 6dbb d4f2 d93c b3d7 9d3d 103a 39bd
00000130: 3888 13bd 405f 783b 5a33 713d 1efe 76bd
00000140: deb9 94bd e1f0 a6bd 54f1 ac3c 73ea a4bd
00000150: 26ee 40bd bcb3 f43c 3f8f 61bd d661 84bd
00000160: f8c1 8dbd fe76 74bd de35 06bc 80b6 d83a
00000170: c48f 82bd 5b8c 8238 d46b 75bd afad 883d
00000180: f04c 5e3d 758c 53bd c0b5 81bb eee1 733d
00000190: 3483 d8bc b5eb a1bc 6576 2dbd b47a 82bc
000001a0: fc08 9cbc c0ea cdba 477f 533d 42a7 08bd
000001b0: 1050 d0bb 3101 a73d 5801 68bc 1bca 32bd
000001c0: dc2a 9ebd 7303 30bd 5002 f53b 57fa 04bd
000001d0: dd42 b13d 40cf cfbb 608b 18bc 246c e3bc
000001e0: 1ad7 323d 48bc a53d cd82 93bd f810 683c
000001f0: bfae 243d 2658 76bd 5006 5f3c 6ef5 413d
00000200: 622f a7bd 1028 4b3c 24df 1fbd d07e 723c
00000210: cee1 a2bd c16a cc3c 9048 e83b 339a a0bd
00000220: 8692 1ebd f02f d63c b26d 7ebd 1fa9 a8bd
00000230: c299 0cbd 78e3 ddbc 238e 923d 8372 963d
00000240: fdf8 48bd f06a 89bc 535a 80bd fa47 3ebd
00000250: f4dd bf3c 0545 6ebd 50df 2d3c 5be2 9e3d
00000260: b7b1 aebd ec19 dabc fa3d 293d 7eac 663d
00000270: 54d1 813c c2b4 183d 23d5 11bd c715 94bd
00000280: 19cf 1c3d 404d 37bb 1ce2 6ebd cad4 073d
00000290: 30bc 64bc 105b ecbc 156a 98bb e4a6 cfbc
000002a0: 20bb ac3c d705 a6bd b84c 983c 1efb 453d
000002b0: 7ed0 47bd d4a7 babc 5392 94bd 8e9d 3e3d
000002c0: 6ed3 2b3d 3901 b03d 385c 5f3c b5f7 a03d
000002d0: c87d 26bc 4d76 adbd ce14 00bd bbbd febc
000002e0: 488f e23c b5af aebd cb3d 05bd 8832 c13c
000002f0: 0813 21bc f406 47bd d673 82bd a02d 41bc
00000300: 4fe2 c9bc 3091 d9bc b022 77bd 642e 80bd
00000310: 2fcc 81bd 1fdf a13d 8e5a 0fbd 651e 9fbd
00000320: e087 7e3b 6af3 30bd 7ae0 4a3d b0e2 e0bc
00000330: 9cec 7ebd 04d0 c3bc d494 d33c d250 733d
00000340: b41e 843d 9209 ebbc 156a 983d d851 ae3c
00000350: 4643 2b3d 5004 2f3c 4330 94bd 1e29 8bbd
00000360: c071 a13a 061a acbd 0e3b ffbc 60e7 a8bd
00000370: d52e abbd 05b2 913d a807 74bc e064 05bc
00000380: f850 57bc 175d 27bd 4048 ab3b 6cfc ae3c
00000390: 50aa 803c b63e 733d 8585 84bd 232e a33d
000003a0: 6d86 883d 73fd 863d e0a9 1f3c 5e0a 7ebd
000003b0: 0a4d 1e3d 9e00 613d d947 11bd 9a95 483d
000003c0: 7637 243d 2197 ac3d 805d 183c 587e afbc
000003d0: 7cfe 6dbd 841b 5dbd ade4 903d f5ab e33c
000003e0: 32ff 253d f8e4 9fbc 188e a3bd 3273 1e3d
000003f0: 1716 9c3d d344 87bd 521e 953d d062 0dbc
0.06092977 -0.025868073 -0.06656496 -0.032608163 -0.0014201107 0.039178558 -0.0027465224 -0.06404802
-0.022105739 0.027612075 -0.011338651 0.07683378 0.0026797056 0.08305114 -0.031768892 0.084198825
0.023629375 -0.041231334 0.039215617 -0.0050062314 -0.08774313 -0.08065956 -0.08492478 0.06483846
0.07336538 0.019805185 0.051652215 -0.0756918 0.034615725 -0.062047374 -0.0027354462 0.029714495
-0.04628174 0.06998127 0.008288264 -0.03360717 -0.011826992 -0.03148967 0.0844348 0.03219834
-0.08199611 0.013553627 -0.08565207 0.04145313 -0.075710155 0.08288918 -0.07997929 0.054133065
0.033375733 0.0105180275 -0.052305613 -0.051057626 0.037740402 -0.042561036 -0.046274878 0.051243894
0.044736452 0.04417617 0.08338664 0.06868198 0.048466034 -0.0029793829 0.06587516 0.05795618
0.082351334 -0.070313886 0.011986742 0.016608924 -0.053149104 -0.057165615 0.032328784 0.030193105
-0.003628619 0.026605047 0.07707157 -0.04522139 -0.03601858 0.003789857 0.058886863 -0.06030094
-0.07262014 -0.08151413 0.021111168 -0.0805253 -0.047102116 0.02987086 -0.05506825 -0.06463973
-0.06921762 -0.059683792 -0.008191554 0.0016533881 -0.06375077 6.225026e-05 -0.059917286 0.066737525
0.054272592 -0.051647622 -0.003958434 0.059541635 -0.02642975 -0.019765714 -0.042349238 -0.01592765
-0.019047253 -0.001571022 0.051635053 -0.033362634 -0.0063572004 0.08154524 -0.014160477 -0.043649774
-0.077230185 -0.04297204 0.0074770823 -0.032465305 0.08655331 -0.006341845 -0.009310573 -0.027761526
0.043662168 0.080925524 -0.07202683 0.014164202 0.040205713 -0.06014266 0.013612345 0.0473532
-0.081633344 0.012399688 -0.039031163 0.014800742 -0.07953225 0.024953248 0.0070887282 -0.07841911
-0.038713954 0.026145905 -0.062116332 -0.08235382 -0.034326322 -0.027086005 0.07156017 0.0734606
-0.04906558 -0.016774625 -0.06267228 -0.04645536 0.023421265 -0.05817129 0.010612324 0.07758018
-0.0852999 -0.026623689 0.04131887 0.056316845 0.015846886 0.03728176 -0.035603654 -0.07230716
0.03828344 -0.0027969629 -0.058321103 0.033161916 -0.013960883 -0.028852016 -0.004651318 -0.025348134
0.021085322 -0.081065826 0.01859127 0.048335187 -0.048782818 -0.022785105 -0.07254472 0.046536975
0.041949682 0.08593983 0.0136328265 0.07859746 -0.0101618245 -0.0846983 -0.03126984 -0.03109633
0.027656212 -0.08529607 -0.032529633 0.023583665 -0.009831198 -0.048590615 -0.0636975 -0.011790663
-0.024644045 -0.026558489 -0.060335815 -0.06258848 -0.06337773 0.07903885 -0.03499847 -0.07769469
0.0038838312 -0.043200888 0.049530484 -0.027451843 -0.062237367 -0.0239029 0.025827803 0.059403248
0.06451169 -0.028691087 0.074421085 0.02127926 0.041812204 0.0106821805 -0.07235768 -0.06794952
0.0012317225 -0.08403401 -0.03115609 -0.08247256 -0.08358542 0.07114033 -0.0148944035 -0.008141726
-0.013141863 -0.04086026 0.0052271187 0.021360599 0.015706211 0.059385978 -0.06470779 0.07967784
0.06666265 0.0659131 0.009745091 -0.062021606 0.03864769 0.05493223 -0.03546891 0.048970796
0.040091954 0.08427263 0.009299636 -0.02142255 -0.058104023 -0.05398132 0.070748664 0.027791956
0.040526576 -0.01951836 -0.079860866 0.038684078 0.07621401 -0.06604924 0.07281174 -0.008629516

fcs2.bias f4 [128]
00000000: b493 42bd e6c6 2d3d 7ee0 48bd 25ec 2c3d
00000010: 6c33 42bd 998a 9dbc 6ac6 4dbd 4e4d 36bd
00000020: c794 9abd 4137 43bc 671b 1c3d 45d0 f73a
00000030: fe45 ad3b 378a 2e3d bcd9 7ebd 5ff5 9e3d
00000040: 8c6f e2bc 5cac f3bc 3cd8 3d3c 5557 683e
00000050: 5080 2f3d bbdd 95bc d043 3dbd c7a5 90bd
00000060: 6a0b 74bd 1163 3a3f 3187 443d 102a f03c
00000070: d5e3 05bc 74a9 b5bc da37 94bd a7b4 79bd
00000080: 2a4f 20bd 9487 b3bb 97b8 07bd 673f 5dbd
00000090: 0644 e63c 079d a53c 5475 7fbd db7b 333d
000000a0: 8a4c a83c 4d53 85bd 6cbb 363f 4a50 623c
000000b0: df86 f13c a221 44bd e587 863b a057 d6bb
000000c0: deae dc3b 7936 1e3d 3aea babc d998 a73c
000000d0: 3433 383f 8cf7 d9bc 8cd3 583d 18e7 15bc
000000e0: 4c53 053d 9bd4 bbbd 18e4 18bc cb88 633c
000000f0: be04 413c 516f 39bd 4df3 4d3c 35fd 3e39
00000100: 007a ec3a 6737 093d 0040 93b6 57fa 9abd
00000110: b7ce ad3c 60df e0bb 839a e23b 558e 103d
00000120: aaa5 9f3b 577f efbc ab35 6bbd 4347 32bd
00000130: c514 77bb 7382 903e 855f 2c3c 2de3 963c
00000140: bc02 3abd d910 b0bd 7371 8d3c 0b53 cebd
00000150: 48d8 12bd 6a21 623d e1f0 26bd 9053 503d
00000160: fcc3 b43d 62bd 1dbd 0d6c 433c 235f bd3c
00000170: 9532 e53c 7b32 74bd fb73 173d 5f86 4abd
00000180: 722e 3c3c 71a0 8a3e a1fe 89bd 9dfc 6dbc
00000190: 7266 c4bc 5022 4ebd d845 e7bc a019 f2bb
000001a0: 03aa 2a3d 33ae 28bc 9c69 7fbd fc6e 063d
000001b0: 4dab f6bc 5bcd 7ebd e58f 5abd b00b 963b
000001c0: d8d6 003d 20c6 88bd 31e3 5fbd 03a5 b2bd
000001d0: 2715 e6bc bb6b 8cbc 92e9 4dbc 279b 083d
000001e0: 0b30 833e 5618 2e3f 3517 e3bc cda4 353e
000001f0: f4e5 64bd ad34 64bd 2c39 b53c e6fc 6abd
-0.047504142 0.042426012 -0.049042217 0.042217392 -0.04741232 -0.019231128 -0.05023805 -0.044507317
-0.07547908 -0.011915029 0.03811207 0.0018906674 0.0052878847 0.04261228 -0.062219366 0.077616446
-0.02764108 -0.029745273 0.011587199 0.22689565 0.042846978 -0.018294206 -0.04620725 -0.070628695
-0.059581198 0.72807413 0.04798049 0.029316932 -0.008171995 -0.022175528 -0.07237215 -0.0609633
-0.039137997 -0.0054788087 -0.033135023 -0.054015543 0.028108608 0.020216478 -0.062367752 0.04381929
0.02054431 -0.06510029 0.71379733 0.013813088 0.029483257 -0.047883637 0.0041055554 -0.0065412074
0.006734713 0.038626168 -0.022816766 0.020458626 0.7195313 -0.026607297 0.05293612 -0.009149335
0.03255014 -0.09171411 -0.009331726 0.013887594 0.011780916 -0.045272175 0.012570214 0.00018214139
0.001804173 0.0335001 -4.388392e-06 -0.0756728 0.021216733 -0.006862566 0.006915392 0.03529199
0.0048720436 -0.029235525 -0.05742423 -0.04352499 -0.0037701589 0.28224525 0.0105208205 0.018418873
-0.045412764 -0.085969634 0.01726601 -0.10074433 -0.035850793 0.055207647 -0.040757064 0.05086094
0.088264436 -0.038510688 0.011927617 0.023116654 0.027978221 -0.059618454 0.036975842 -0.049444553
0.011485683 0.27075532 -0.0673802 -0.01452556 -0.023974631 -0.05032569 -0.028231546 -0.0073883086
0.041666042 -0.010295439 -0.062356576 0.032820687 -0.03011098 -0.06220756 -0.053359885 0.00457903
0.03145489 -0.06678414 -0.054660026 -0.0872288 -0.028086258 -0.017141214 -0.0125678945 0.03335109
0.2562259 0.68005884 -0.027721027 0.17738648 -0.055883363 -0.055714298 0.022121988 -0.05737009

fca1.weight f4 [128, 2]
00000000: 1dce 1abf df2e 853f 3041 aabb 451f 473d
00000010: 1c7c f13c 7b97 25bd be5c 483e aa1f 153f
00000020: d5c8 16bf dd6a 273f b093 15bd c881 1abc
00000030: b8f8 1fbf f939 6e3f 8717 cfbc d482 283f
00000040: 2907 93bd 17bd 953d 23c8 28bd 0844 7a3c
00000050: 7ecf 52bd d8e8 04bc 00d1 54bc 643b 6c3d
00000060: 5417 e9bc 6b1b 4a3f cdfa 823d 1f88 7ebd
00000070: a5fe d03b 30dc 173c 2346 893d 0ebe 2a3d
00000080: 8cb9 95bd 89f3 2ebf a36f 113c ef2d cc3d
00000090: 38b1 23bc 2009 b4bc f8fa 0b3d 7cf6 9c3c
000000a0: 49f6 e8be 6fae 5a3f 59af e03d 5f68 a13e
000000b0: 86b4 6c3d 2014 333c 43ee 3dbe 0c2c 113e
000000c0: e560 a1bd f2e2 74bd 0369 fc3d 2db7 543f
000000d0: 00d6 e3ba 1e7f 6e3d b099 783c 2552 813d
000000e0: d5df 473f 211b 9d3f 18de 7a3c 43fe e13b
000000f0: f0f8 91bb 306e 8cbc 7585 adbc e571 2ebf
00000100: ed7a 9bbd 4f24 7d3f 8679 70bd 8894 7e3c
00000110: 91e0 933c 6637 073f 6564 c23d 16f9 1d3f
00000120: b913 2a3f 54ab 0bbe 80f4 5a3a 4312 aebd
00000130: fbb4 6bba bde2 793e 8372 843d 9227 143d
00000140: deb2 86bd e45d 7f3c d663 3dbd 00af 80b9
00000150: 9c73 a1bd 4baf a33d 1f27 803d 9c04 1abf
00000160: 287f edbc ace4 453e 1027 b3bb 6053 273c
00000170: 6cf9 76bd 09c4 093c 192f a5bd e8c5 653e
00000180: 3ddc a9bd c6b9 043d b8c1 2ebc 9408 83bd
00000190: 4dba 97bc 53a7 4fbd c812 66be 23b0 513f
000001a0: 5401 88be 04c4 323f bab2 5e3d 1f96 9e3d
000001b0: 879c a33d fd0c 853d 1fa4 89be 25b8 0c3c
000001c0: efac a3bd 26e6 423d 7735 18be f2e1 ce3d
000001d0: 7604 833d 0928 823e 00c8 3338 d4b7 a9bd
000001e0: 7d01 d3be 1436 863f 8382 883d 60b8 813b
000001f0: 20ba 99bb 1c09 b33c fd88 f83e e502 6c3f
00000200: 4001 2fbb 5931 8f3d 9d3a dbbd d54e 213e
00000210: 6cde cfbc 054c 033e 408f 6cbb 2790 91bd
00000220: 178f 853f 9139 7b3f 3895 a5bd 0677 48bd
00000230: 820d 163f 5207 8a3f 6207 7cbd de5d 053d
00000240: 3de0 8c3d 1aad b03d 7853 12bc 29a8 883d
00000250: f7a1 ef3e 9b0b 5cbf 5251 353d 61b9 9f3d
00000260: 9f63 c7bd f34f 2a3f 7f43 6abd 0c9d 97be
00000270: 8816 1dbc bad6 a0bd 5d0c 8e3c 77dd b63e
00000280: 3add 483d caed 383d 8d98 99be 6df1 adbd
00000290: 819c da3d 7103 9e3f 37ae 843d 84d1 153e
000002a0: 0d85 41bf a77d d83e 6969 ad3d 9d38 81bd
000002b0: 6641 39bd 9f2f 1d3d d004 03bd ce29 89bd
000002c0: eb70 d8bc 668a 4dbd b800 8abd c087 deba
000002d0: 48c4 3e3f 08f3 54bf be2d 073c 3d7d 46bf
000002e0: eacd 023e eb27 3f3f 6e46 7a3d 8c59 85bd
000002f0: fc51 033d 7dca 5abd 5a8f 063f b350 13bf
00000300: f254 84bd f745 8b3d 2eb0 243d 2f49 003b
00000310: e3e5 f4be 815d 633f 39cd 32be ffc4 18bf
00000320: dd25 663f 9aa2 143f fc9b 0fbf 34cc 6c3f
00000330: 901a 333f 6e15 6bbf 3858 8dbd 30c0 a53d
00000340: d239 783d 90bd f13c 799d cd3e 7652 c5be
00000350: c71c e6be 57c0 543f f870 2d3c 1ec2 2a3d
00000360: 8018 503a 7ff5 5dbd 8876 43bd f85a 3abd
00000370: 0a36 7e3d 272d 49be cd06 2a3e fbcf c23e
00000380: 6c4c e23c c1cc 56bd 7a9e 81bc 17e2 7e3e
00000390: 6bfb a8be 7ae3 533f cdd6 6d3f 1ead 253f
000003a0: 80b6 993e 0567 1b3f 6981 b03d cad7 46bd
000003b0: c15d 0bbf 9f40 753f 4097 88bd 5eb8 52bd
000003c0: bc11 833c f945 9f3d aab6 febe 1c84 e2bd
000003d0: 6ef3 323d 3750 9f3d 982c 43bd 7ef0 68bd
000003e0: 84e0 273e a053 d7be 7e63 82bd cf72 32bd
000003f0: 4eb4 ab3e 8f32 d23f 531a 993d 240b 86bc
-0.60470754 1.0404929 -0.0051957592 0.048613805 0.029478125 -0.040427666 0.19566628 0.5825144
-0.58900195 0.65397435 -0.0365178 -0.009430356 -0.6248889 0.9305721 -0.025279773 0.6582463
-0.071791 0.07311457 -0.04120649 0.015275009 -0.05146741 -0.008112155 -0.012989283 0.057673827
-0.028453507 0.78948087 0.06395493 -0.062141534 0.0063780122 0.009268805 0.06702831 0.041685157
-0.07310781 -0.68340355 0.008876714 0.09969699 -0.009990983 -0.021977007 0.03417489 0.019160502
-0.455004 0.85422415 0.10970945 0.3152494 0.057789348 0.010930091 -0.18547921 0.14176959
-0.07879809 -0.059786744 0.12324717 0.83092004 -0.0017382503 0.058226697 0.015173361 0.06314496
0.78075916 1.2273904 0.01531174 0.0068967654 -0.0044547245 -0.017142385 -0.021181801 -0.6814254
-0.075918056 0.9888353 -0.058709644 0.015538342 0.018051418 0.52818906 0.09491805 0.617082
0.66436344 -0.13639575 0.00083524734 -0.08499577 -0.0008991507 0.244029 0.06467154 0.03617055
-0.06577085 0.01558635 -0.04623779 -0.00024544448 -0.07883379 0.07992419 0.06257462 -0.60163283
-0.028991297 0.19325513 -0.005467303 0.010212749 -0.06029646 0.008408555 -0.08065624 0.22438776
-0.0829396 0.03240373 -0.010666303 -0.063981205 -0.018521452 -0.050696682 -0.22468102 0.8190939
-0.26563513 0.69830346 0.054369666 0.07743477 0.079888396 0.06496618 -0.26883027 0.008588825
-0.07991969 0.047582768 -0.14864145 0.101016894 0.06397335 0.2542117 4.286319e-05 -0.082870156
-0.41212073 1.0485253 0.06665518 0.003958747 -0.0046913773 0.02185493 0.48542014 0.92191917
-0.0026703626 0.06991834 -0.10704539 0.15752728 -0.025374614 0.12821968 -0.0036096126 -0.07107573
1.0434293 0.98134714 -0.08085102 -0.048941635 0.5861436 1.0783484 -0.06153048 0.03256022
0.068787076 0.086267665 -0.008931033 0.06672699 0.46803257 -0.8595521 0.044267006 0.0779903
-0.09735798 0.6652824 -0.057193276 -0.29612005 -0.009587891 -0.07853456 0.01733988 0.3571584
0.049039103 0.04514865 -0.299992 -0.08493314 0.10674382 1.23448 0.06478541 0.14630705
-0.75593644 0.42283365 0.08467371 -0.06309626 -0.045228384 0.038375493 -0.03198701 -0.06697427
-0.026421031 -0.050180815 -0.06738418 -0.0016977713 0.7451825 -0.83183336 0.008250652 -0.7753485
0.12773862 0.74670285 0.061102323 -0.0651122 0.03206061 -0.053415764 0.5256249 -0.5754501
-0.064615145 0.06800454 0.04020708 0.001957487 -0.4783164 0.8881455 -0.17461099 -0.5967559
0.89901525 0.5806061 -0.5609739 0.9249909 0.69962406 -0.91829574 -0.06901592 0.080932975
0.060602017 0.029509336 0.40159205 -0.38539475 -0.4494383 0.8310599 0.010586016 0.04168903
0.0007938221 -0.0541892 -0.047720462 -0.04549691 0.062063254 -0.1964613 0.16604157 0.38049302
0.027624331 -0.052441362 -0.015822638 0.24890934 -0.33004317 0.82768977 0.92905885 0.6471728
0.3002205 0.6070407 0.08618433 -0.048545636 -0.5443993 0.9580173 -0.06669474 -0.051445358
0.015999667 0.07777018 -0.49748737 -0.11060354 0.043689184 0.07778972 -0.04764995 -0.056869976
0.1639424 -0.42055988 -0.06366633 -0.04356652 0.33536 1.6421679 0.07475724 -0.016362734

fca1.bias f4 [128]
00000000: 4e3c 833e 9832 01be a07e 32bf dada 603f
00000010: fb7b 50be 8af9 81be 42a1 843e 191d 1e3f
00000020: 5844 94be bee1 68be a89d 8ebd 4c34 c1be
00000030: 1d48 323f 477f eabe 769d 26bf a1fc 2ebf
00000040: e616 2a3f 7d39 933f 2a98 bdbe 1ad0 2fbf
00000050: 3755 b83e ffc2 313f f66f d1be 013b 903f
00000060: 8e0a 65be 19ba 343f f130 2dbf 109f b3bd
00000070: a284 143f 34d5 0dbf 3113 a6be 73c8 2b3f
00000080: 8c5e 8b3e 95c6 dabe b0b8 013f 5214 053f
00000090: e076 0c3f 9d1e 09bf ce24 823f b11d c1be
000000a0: f544 d1be 1056 53bd 089d 21bf 5acf 913f
000000b0: 01a6 6f3f 5c14 f0be 4363 9fbd c9ab 963f
000000c0: d0f5 52be d7b8 a9be 1e8a 19bf dcd2 a23e
000000d0: e7af fc3e dc33 2dbe 540a 06bf 9681 763f
000000e0: 895b 19bf 4788 723f e88c 943f db8c dbbe
000000f0: 124d dd3e 6213 3abe 285d 9fbe 506c c73e
00000100: de19 99be 8eff 883f 451b 8e3f ac93 02bf
00000110: f196 f63e d5a4 06bf 97ec ef3e 3635 19bf
00000120: c456 f6be 5673 8bbe 7ede fd3e 9343 0ebf
00000130: e7a8 d23e fbb3 6a3f 78f4 f4be f5ef 863f
00000140: 8c4e bbbe 386a 613f 20ac 853e ca52 903f
00000150: 579d d9be 06ab 2cbf 51f9 913f 448a 1abe
00000160: c834 d4be 9848 fbbd b5f2 7c3e e187 0b3f
00000170: 53ca 2a3f 25a4 63be 08c6 debe e944 2a3e
00000180: 959f 81be 4607 843f 1737 bf3e f19f 9a3f
00000190: 8773 f73e 81c3 b43e 1208 be3e aeb6 d0be
000001a0: df20 e6bd ad96 583f 917d b03e 503f 28be
000001b0: 8ea3 1dbf ae01 ffbe d91c 823f 3887 603f
000001c0: 6ff8 efbe 3931 813f 1960 ae3e c771 fd3e
000001d0: 8aec 803f 6cc8 39be 94d1 723e b054 f7bd
000001e0: 6727 1abe 2291 5e3f ac34 debe bc81 d2be
000001f0: d54e d83e ca7c 1ebf 7d56 a5be a118 2bbf
0.25631946 -0.12616956 -0.69724464 0.8783394 -0.20359795 -0.25385696 0.2590428 0.6176315
-0.28958392 -0.22742364 -0.06963664 -0.37735212 0.69641286 -0.4580023 -0.65084016 -0.6835423
0.6644119 1.1501919 -0.37030154 -0.6867691 0.36002514 0.69438165 -0.40905732 1.1268007
-0.22367308 0.7059646 -0.67652804 -0.08770573 0.5801488 -0.5540345 -0.32436517 0.67102736
0.2722057 -0.4272963 0.50672436 0.5198413 0.5486889 -0.5356234 1.0167482 -0.37717965
-0.40872923 -0.051595747 -0.63130236 1.1391404 0.93612677 -0.46890533 -0.077826045 1.1771175
-0.20601583 -0.33148834 -0.59976375 0.31801498 0.49352953 -0.16914314 -0.5235951 0.9629148
-0.59905297 0.9473919 1.1605501 -0.42880902 0.43222862 -0.18171456 -0.3112576 0.38949823
-0.29902548 1.0702989 1.1102072 -0.5100658 0.48162034 -0.52595264 0.4686019 -0.5984682
-0.48113072 -0.27236432 0.4958381 -0.5557186 0.41144487 0.9168088 -0.47842765 1.0541979
-0.36583364 0.880527 0.26107883 1.1275265 -0.42502853 -0.6744846 1.140421 -0.15091807
-0.4144652 -0.122697055 0.2470196 0.5450421 0.6671497 -0.22230585 -0.4351046 0.1662785
-0.25317064 1.031472 0.37346718 1.208006 0.48330328 0.35305408 0.37115532 -0.40764374
-0.112367384 0.84604913 0.344708 -0.16430402 -0.6157769 -0.4980597 1.0165054 0.8770633
-0.46869227 1.0093147 0.34057692 0.49500868 1.0072186 -0.18142861 0.2371276 -0.120767
-0.15054093 0.86940205 -0.4339956 -0.41114604 0.42247644 -0.61909163 -0.32292548 -0.66834456

fc2.weight f4 [128, 256]
00000000: 06ab e0bc 26ab 473d 9017 a63c 79ae a6bc
00000010: a156 7bba 486c 88ba 3df8 953d 81cf 92bd
00000020: 1fe2 943d aa1d 22bd ee5e 5bbd 00b0 8fbd
00000030: e4e1 d3bc 30a5 b3bb 2c1e 8a3c da6b 44bd
00000040: cdd6 ab3d 9a6b 5a3d 52ca 4d3c e356 32bc
00000050: 7043 673c a060 23bb b7f5 113d 1885 4cbc
00000060: cc45 bbbc c6c9 51bd 6750 533d 9c2f d03c
00000070: 582e 8dbd 271d 51bd e86a 123c 00ae 4fbb
00000080: 61be 2abd 3adc 593d b84f 1b3c d899 5d3c
00000090: 3871 73bd 9619 683d 09d8 903d 34b2 e63c
000000a0: a0f6 083b 5ed5 19be 9a51 3c3c 70d2 43bc
000000b0: 1461 f6bc 3a5f 293d 07a3 a43d 6074 9a3c
000000c0: 68f9 f9bc 502c f23c fc0c 153d 3ea7 2b3d
000000d0: 385d 4bbd 280e 06bd 6f6f 713d e6ea 743d
000000e0: fdc1 a83d 528d 593d 1ac0 8dbd 1616 513d
000000f0: 5761 91bd d818 d43c b586 64bd d034 69bc
00000100: 2efd 7d3d 22e6 b0bd 69f9 af3d 0888 323c
00000110: 9f76 47bd f441 8bbd a0b4 71bc 5c4d 8bbc
00000120: 8c60 97bc 0c77 c03c 63bd 8a3d 0668 96bd
00000130: b0da 813c 5a65 1ebd a374 a53d c052 09bd
00000140: f373 34bd ef8a 37be 6535 8c3d c0b8 f83a
00000150: c2e9 2a3d 13e9 34bd 2ee7 653d 5fed 9abd
00000160: 6a68 5f3d 327a 6f3d 09c4 09be 2bec 30bd
00000170: 41f3 01bd 2cd3 29bc 6076 013c d8da e03c
00000180: 40e6 4dbc 2901 94bd 2e72 7cbd 48f4 d0bc
00000190: c1dc d5bc 54f8 7ebc 0707 50bd 4588 a33d
000001a0: 2018 c63c 7cd0 593d 42c0 2b3d 70e1 52bd
000001b0: a403 0a3d 690e 3fbd 87b0 8c3d f0af 89bb
000001c0: 206c f73b 8ad9 1c3d c08c 9e3c edd7 8b3d
000001d0: 1ff5 403d dfd5 8a3d c1e3 b43d a6b9 7fbd
000001e0: 04e2 043d 1fd9 53bd 690a 26be 97c5 d3bb
000001f0: 5528 993d b381 78bd 701a 6cbc 7206 183d
00000200: d633 23be 4c2b 973c c895 6dbc 6b16 ebbd
00000210: 33b9 9fbd dc25 97bd dd80 2bbd 1e51 dcbd
00000220: 4001 b83c bbee 0b3d 96b9 dcbc 5cd4 8cbd
00000230: 794d 93bd 0179 b1bd 04e5 86bd fafc 1f3d
00000240: ca39 4dbd d628 acbd 6ec3 a8bd f035 ecbc
00000250: 93a9 1fbd bee3 5bbd 51c7 92bd 32d0 14be
00000260: 4821 083d 9536 0fbd a614 7a3d aa51 98bd
00000270: 265e b6bd d504 abbd e6a0 7bbd 1b1e 333c
00000280: 7b59 58bd 18df babc 6e74 22be e1ad 55bd
00000290: 773d a4bd f466 52bd fe72 10be 6f02 adbd
000002a0: 6058 37bc d0c5 9fbb 9460 843c ab17 a9bd
000002b0: 8826 cbbd b17d 7b3d c275 e3bc a6e7 dbbd
000002c0: 5e04 52bd 1839 f53c f97b 8d3d 05c0 18be
000002d0: 3d8f edbd 2f75 a63d 008e 96ba ac50 513c
000002e0: 0026 0c39 7172 943c bded 04be 6021 c83c
000002f0: 14d7 a9bd 52ce 433d d222 36bd 8d61 0fbd
00000300: b5e6 2abd 9f7e 66bd aa7e bb3c 9d92 a73d
00000310: 5da9 3dbd f182 a7bd 8a62 963c b1ea 01bd
00000320: 2e98 83bd d787 a93d 7462 6cbc 2c23 84bd
00000330: 2608 1abe 93d6 02bd c4fd 103d 55a5 05bd
00000340: c877 3d3c 0aad 94bd e052 c1bd d823 7bbd
00000350: 2c7f 62bd e055 8a3c c708 f9bc bb9b 90bd
00000360: 2e6a 04bd fa09 1ebd 6b3d cfbd a92e 9e3c
00000370: 72e0 f3bd 58cb 1bbc f4a7 f9bc 9331 173d
00000380: 60bd 83bd dac5 0abc 9e5b acbd db20 1fbd
00000390: 4761 91bd 2702 1bbe 99a8 dfbd 808b feba
000003a0: c2c3 8bbd 1d57 5b3d 9259 02be 2ded 3abd
000003b0: 9c9f 843d 888c 1dbc 2ca6 46bd 8ff6 d2bd
000003c0: 6ed2 88bd fcf8 ebbd 0c2f 8dbb 0bb4 e1bd
000003d0: c5da 47bd c865 9bbd 8954 7cbd 1623 5e3d
000003e0: 3eea 733d 18d5 9bbc 9072 45bc c07c 89bc
000003f0: 819f 93bc 2002 e5bb 00a6 b93c 46eb 1c3d
-0.0274253 0.048747204 0.020274907 -0.020346867 -0.0009587799 -0.0010408247 0.07322738 -0.071684845
0.07269692 -0.03957907 -0.05355733 -0.07015991 -0.025864549 -0.0054823384 0.01686009 -0.047954418
0.083905794 0.053325273 0.012560444 -0.010884973 0.014115199 -0.002492942 0.035634723 -0.012482904
-0.02286043 -0.051217817 0.05159035 0.025413327 -0.06893605 -0.051053192 0.008936621 -0.0031689405
-0.041685466 0.05318854 0.009479456 0.013525449 -0.059434146 0.056665026 0.070724554 0.028161146
0.0020898953 -0.150228 0.011494065 -0.011952028 -0.030075587 0.04135058 0.080389075 0.01885432
-0.030514434 0.029562145 0.036389336 0.04190754 -0.049649447 -0.032728344 0.058944162 0.05979433
0.08240125 0.05311329 -0.06921406 0.051046453 -0.07098644 0.025890753 -0.05579253 -0.014233783
0.06200903 -0.08637644 0.08592493 0.01089669 -0.04869711 -0.06799689 -0.014752537 -0.017004661
-0.018478654 0.023494266 0.06774404 -0.0734406 0.015851349 -0.038670875 0.08078887 -0.033526182
-0.04405589 -0.17924093 0.06846122 0.0018975958 0.041726835 -0.04416759 0.056128673 -0.07564806
0.054542936 0.058466144 -0.13453688 -0.043193977 -0.031726126 -0.010365289 0.007901758 0.027448103
-0.012567103 -0.07226784 -0.061632328 -0.025507107 -0.02610624 -0.015562136 -0.05078795 0.07984976
0.024181426 0.05317734 0.0419314 -0.051484525 0.03369488 -0.046644602 0.068696074 -0.0042018816
0.0075507313 0.0382934 0.019354224 0.06828294 0.047108766 0.06779074 0.08832503 -0.062432908
0.032442108 -0.051720735 -0.16214909 -0.0064627635 0.07478396 -0.060670566 -0.0144106 0.03711552
-0.15937743 0.018453263 -0.014501043 -0.11478885 -0.07798996 -0.07380268 -0.04187094 -0.107576594
0.022461534 0.034163218 -0.026943963 -0.06876442 -0.07192511 -0.08665658 -0.0658665 0.039059617
-0.05010394 -0.08406226 -0.082404 -0.028834313 -0.038980078 -0.05368399 -0.07166923 -0.14532545
0.033234864 -0.034964163 0.061054848 -0.07437451 -0.08904676 -0.08350531 -0.06143274 0.010932471
-0.05281971 -0.022811458 -0.15864727 -0.052167777 -0.08019536 -0.051367715 -0.14106366 -0.0844773
-0.011190504 -0.004875876 0.016159333 -0.082564674 -0.09919459 0.061399166 -0.027766112 -0.10737543
-0.051273696 0.029934451 0.069084115 -0.14917 -0.11599586 0.0812782 -0.0011486411 0.012775581
0.00013365597 0.018120976 -0.12981315 0.024429977 -0.08292976 0.047804184 -0.0444668 -0.03500514
-0.041723926 -0.0562731 0.022887547 0.08182261 -0.046304096 -0.08179272 0.018357534 -0.03171796
-0.0642551 0.082778625 -0.01442777 -0.06452021 -0.15042171 -0.031942915 0.03539826 -0.032628376
0.011564203 -0.07259567 -0.09439635 -0.06131348 -0.05529706 0.016886652 -0.030399693 -0.07060953
-0.032327823 -0.038583733 -0.101191364 0.019309359 -0.11908044 -0.00950893 -0.030475594 0.036912512
-0.06432605 -0.008470023 -0.08415912 -0.038849693 -0.07098632 -0.1513754 -0.10920829 -0.0019420236
-0.06824447 0.053549875 -0.12729481 -0.045636345 0.064757556 -0.009616025 -0.048498318 -0.103009336
-0.06680761 -0.115220994 -0.004308587 -0.110206686 -0.04879262 -0.075877726 -0.061604057 0.05423268
0.059549563 -0.01902251 -0.01205124 -0.016783118 -0.018020393 -0.0069887787 0.022662163 0.03831031

fc2.bias f4 [128]
00000000: 36f7 bfbd 7cf2 c5bc 17d7 f03c 7c44 4d3f
00000010: 53c9 463e a31b 45be 36c7 2bbd ef79 413b
00000020: 76c6 22be 441e 843f 5a82 353f 02a0 3abd
00000030: 714b b0bc 67b1 e6bd 5db6 c53e 3946 56be
00000040: 510a 703f 3d1b 8fbc 4069 943e 5f25 b7bd
00000050: f2e6 ac3e 3da9 85be fdec 6dbd 7f39 88bd
00000060: 1cc6 783f 9df6 783f 5290 1ebd 84cc 3d3d
00000070: 10f1 7abe a6d1 9e3e 52d7 6c3f 79be f23e
00000080: fae0 283d 0c23 7cbc 5b09 83bd 6a93 7ebe
00000090: 4a4f 14be a2c5 283d 7224 1a3d 7848 1bbd
000000a0: f16d 43bd c9af 80bd fd3a 723f 6455 103f
000000b0: 80e8 74be 04cc cfbc f183 b13c c635 dcbd
000000c0: a0b0 c1bd 59b6 c2bd 27d5 b73c 64f5 093f
000000d0: 04c0 183d f965 fd3c cae3 823f 2ee0 47be
000000e0: 86ff 663d a6cb d13e d756 ddbc b474 a0bd
000000f0: a4d5 173c 7382 83be f51a 293f 90dd 08bb
00000100: 09c4 09bd 94be f73d 2b67 9fbd 9436 8f3c
00000110: d8a4 25bd 6330 75bc 9ffc 37be 3863 943e
00000120: 04c0 983c 3a5c c4ba 0853 283f 15b5 3dbd
00000130: 25ec ac3c ac25 68bd f86a 443f 700c 09bd
00000140: 75cb eabe 5ce7 16bc bad4 f3bc 2cd0 b83e
00000150: 7430 40be 12cb cc3e d7dc 863f 43be 333d
00000160: a961 80bd cfcf 5c3f a07b 0a3d 52f7 30bb
00000170: bf75 413f d461 8dbd bfb4 a3bd 65ef 3f3b
00000180: d7bd efbd a858 debb 6a36 82be ea1a 3c3d
00000190: cd14 05be 268b 19be caa9 01bc f00e 833f
000001a0: 0f24 5dbe dba5 df3e 8132 823c ffd3 7d3f
000001b0: 6859 363f 8350 ba3e d2ad 973e cf02 88be
000001c0: c90d ccbd 7840 263f 3010 c33c e2a5 81be
000001d0: b331 4fbe 939a 7ebd 4cc8 6e3f 536e 32bd
000001e0: d848 883f 5d68 9ebd d4bc a13c 858e 64bb
000001f0: d9c7 5fbd 09b3 bb3e 7064 fabc 5473 2abd
-0.093733236 -0.024163477 0.029399438 0.80182624 0.19412737 -0.19248824 -0.04193803 0.002952214
-0.1589602 1.0321736 0.70902026 -0.04556275 -0.021520348 -0.112643056 0.38615695 -0.20925225
0.9376574 -0.017469043 0.2898655 -0.08942675 0.33769947 -0.2610568 -0.058087338 -0.066515915
0.9717729 0.972513 -0.038711853 0.04633762 -0.2450602 0.31019324 0.9251605 0.47410944
0.04123018 -0.015389215 -0.06398269 -0.24860922 -0.14483371 0.041204102 0.037632413 -0.03791091
-0.04771227 -0.06283528 0.9462126 0.56380296 -0.23916817 -0.025365837 0.02166936 -0.10752444
-0.09457517 -0.09507436 0.022440506 0.5389006 0.037292495 0.030932413 1.0225766 -0.19519112
0.05639603 0.40975684 -0.027018948 -0.07834759 0.0092672445 -0.25685462 0.6605676 -0.0020884015
-0.03363422 0.12096897 -0.077833496 0.01748208 -0.04044041 -0.01496515 -0.17967461 0.28981948
0.018646248 -0.0014981099 0.65751696 -0.04631527 0.021108696 -0.05667655 0.7672572 -0.033459127
-0.4585835 -0.009210434 -0.029764522 0.36096323 -0.18768483 0.3999868 1.0536145 0.04388262
-0.06268627 0.8625459 0.033809304 -0.0027002883 0.7557029 -0.06903425 -0.07993459 0.0029286977
-0.11706131 -0.006785471 -0.2543214 0.045924105 -0.12996216 -0.14994487 -0.007914016 1.0238934
-0.21595787 0.43681225 0.015893223 0.99151605 0.71230173 0.3638955 0.29624802 -0.26564643
-0.09963567 0.6494212 0.02381143 -0.2532187 -0.20233802 -0.062159132 0.9327438 -0.043562245
1.064723 -0.077347495 0.01974336 -0.0034874987 -0.05463395 0.3666003 -0.03056547 -0.04161389

fc3.weight f4 [1, 128]
00000000: 3d39 d13c 0cb1 853c 97b4 5d3c 50d5 453f
00000010: 4ec4 073c 48d2 933d a44d 01bc 9db7 c7bc
00000020: 3354 62bc c0dc 2f3f 0e02 763f 32ec 81bc
00000030: 3fcb 38bc 90bb 9c3b 5deb 293f 40d1 37bf
00000040: be0a 2c3f 3852 d43c 361b a53e 7eeb bf3c
00000050: 4602 dd3e 8907 02bf f240 603c f4e9 bcbb
00000060: 43d4 4a3f d935 4d3f 0aba e0bc 8a01 833b
00000070: 686b 393e f08a 8a3e b0a7 573f de5a 423f
00000080: 705c a6bb 60af 163f 5c03 843c fd77 cebf
00000090: 4784 4bbf 3c88 203c 7e1f 713f abc8 d93a
000000a0: 2dfb 5b3a bfca 11bc 7108 6f3f 76ba de3e
000000b0: 887d a9be 410a c53c 6638 903b 2c88 04bf
000000c0: ca8d 14bd f405 aabc 17a8 383c b25d 1b3f
000000d0: 41c5 393b c7e4 37bb 7476 453f 3c22 fdbd
000000e0: bfdb 07bc 3121 e33e ed9c b4bb 9a57 bb3b
000000f0: 2376 b23b 7dfc b5bb 02fa 7d3f bd32 abbc
00000100: b9ff 813c 9540 103e caa9 01ba d086 d53b
00000110: 0a87 7ebc 79d5 0abc 988d 9dbe 74d2 973e
00000120: 0456 633c 3f54 b73c a6e8 783f 8f6d 543c
00000130: 03cc 163c b988 00bc 5b02 393f 5de8 643b
00000140: a19b edbd 47b1 ae3c aac7 0bbc b63e 2c3f
00000150: 1bb5 99bf 8cf7 c93e 9e7a 423f 0dd4 3fbc
00000160: 718a 57ba dec3 1c3f 2b52 7fba 2ef0 e4bc
00000170: dd38 323f 0322 b33c 458b d1bb fb59 7f3c
00000180: 9bce bc3e 28f1 a4bc e0ad d5be 8d5b 1040
00000190: ad27 98bc 8e73 d3bd 9bf7 753c 9930 483f
000001a0: 1b45 973e 5d3b 943e e50a 063c db57 6d3f
000001b0: df42 7b3f c2e2 b33e 55d8 563e 454d f83b
000001c0: 92e7 7240 585d 543f d258 6bbc 5046 00c0
000001d0: 3e04 1abf fc95 03bc 0ba9 523f 0a1f 9ebc
000001e0: b607 373f 3ea9 1240 052c 23bb 44e1 6d3a
000001f0: ed51 0f3d ebf8 c53e f74e c13f a2cb a7bb
0.025539989 0.016319774 0.0135318255 0.77278614 0.008286549 0.07217842 -0.007892046 -0.024379546
-0.01381402 0.6869621 0.96096885 -0.015859697 -0.011278926 0.0047831014 0.6637476 -0.71803665
0.6720389 0.025918111 0.32247323 0.023427721 0.43165797 -0.5079275 0.013687359 -0.005765194
0.79230136 0.8016029 -0.02743246 0.003997986 0.18107378 0.27059126 0.84240246 0.759199
-0.0050769374 0.5886135 0.016114883 -1.6130368 -0.79498714 0.009798106 0.9418868 0.001661559
0.0008391615 -0.008898436 0.93372256 0.43501633 -0.33103585 0.024052741 0.0044012545 -0.5177028
-0.036268033 -0.020754792 0.0112705445 0.6068984 0.0028346332 -0.0028059946 0.7713387 -0.12360045
-0.008292138 0.4436126 -0.005511871 0.00571723 0.005446212 -0.0055537806 0.99209607 -0.020898217
0.015869008 0.14087136 -0.000494626 0.006516315 -0.0155351255 -0.008473747 -0.3077209 0.2965275
0.013875488 0.022379039 0.97229993 0.012965574 0.009203914 -0.007845097 0.7226922 0.0034928538
-0.116019495 0.021324767 -0.00853149 0.6728319 -1.2008394 0.39446676 0.7596835 -0.011708272
-0.00082222285 0.6123637 -0.0009739722 -0.027946558 0.69618016 0.021866804 -0.006394776 0.015585418
0.36876377 -0.020134524 -0.4173422 2.2555878 -0.018573606 -0.10324775 0.015012647 0.78199154
0.2954491 0.2895154 0.008181308 0.9271218 0.9814891 0.3513394 0.20980962 0.0075775706
3.795384 0.8295493 -0.014364438 -2.0042915 -0.60162723 -0.0080313645 0.8228919 -0.01930191
0.7149614 2.2915797 -0.0024898064 0.00090744 0.03499024 0.38666472 1.5102223 -0.0051207105
