linearNet/checkpoints/place_600_actor.pt (torch, 172448 bytes, 8 tensors)

fc1.weight f4 [256, 3]
1.1252123 0.6372912 -2.1519225 -0.036689915 0.037409313 0.02505197 -1.356925 -0.7415056
2.2597487 -4.259328 -0.34567255 0.16822194 -3.6157854 -0.34433195 1.295825 0.9275606
0.19039825 -2.8110402 1.9692341 0.11322865 -2.9567099 -0.027497655 0.026002996 0.058424555
-2.8952732 -0.19077462 2.0311608 -0.0049565956 -0.059223566 0.056986667 -1.0471531 -0.9208507
2.5180175 0.045967586 -0.037913524 0.027290933 -0.9314924 -0.5288853 2.2212114 1.444583
0.22304793 -2.7953947 1.656018 0.19857883 -2.7399776 -1.5531943 0.37985933 3.1209593
0.0013428852 0.049017258 -0.05442416 -0.01353009 -0.03436207 -0.058446735 -2.8322449 -0.57559866
2.3914647 1.590481 0.2146718 -2.6620429 -0.0069145337 0.018720768 -0.026331624 -1.0431879
-1.1417118 2.1424887 -3.610111 -1.4402726 0.3742073 -0.008679226 -0.05721318 0.05466018
0.021605067 0.00575462 0.0070624202 0.0487049 0.033224694 -0.024879768 -0.7445014 -0.4524498
0.1845607 0.029121902 0.003841406 0.006554723 -1.6014407 0.46089235 3.142293 1.3212843
0.06577409 -2.4141712 -0.006046526 0.017972253 0.028594255 -1.5003207 -0.81774133 2.4064822
-0.012726508 -0.02086392 0.01696685 0.01430966 -0.037308306 -0.012894504 1.0832682 0.20326494
-2.714266 -0.005524352 -0.051985234 -0.025209673 1.1150256 0.1640793 -3.2230737 -1.1926794
-0.9951701 2.342954 1.2157421 0.18401389 -3.1300106 1.0230916 0.21093822 -2.9028652
-0.010322697 -0.01821144 0.014871784 0.042139284 0.010398902 0.04874419 0.0053959712 0.030329347
0.058266155 -4.0659924 -0.4275274 1.402663 -0.011551809 0.0056394637 -0.03475316 0.051387176
-0.0073639825 -0.042302117 -1.6865143 -0.3607245 2.458279 1.409568 0.16604365 -2.6426349
-0.46600652 -1.474599 2.981632 -0.0065859184 -0.06236074 -0.04252463 -1.6268346 -0.3221166
2.6053348 0.05198983 -0.024572551 -0.058105964 0.035200216 -0.01567208 -0.043773316 -0.03128273
0.007265574 -0.04986105 -0.020980641 -0.009966388 -0.039213754 0.85835034 0.15445441 -3.1705327
-0.011403456 0.03969308 0.05159633 -1.2429353 -0.6256409 2.6879108 -1.023614 -0.8995224
2.2952456 0.049313247 0.023377568 -0.046122797 -0.043631673 -0.01120916 -0.055269435 1.2559761
0.24106508 -2.8719168 0.37240332 0.06375767 -3.1751673 -0.7702752 -1.2904072 2.4812913
-0.45739704 -0.2849884 -0.0143830655 -3.7362583 -0.8498667 1.1758065 0.0007100105 0.0006475977
0.00061600655 1.021106 0.22254293 -3.1166887 -0.023004092 0.035555765 0.019929998 -0.7454664
-0.99321413 2.7630482 0.0005038902 0.01144208 -0.051989242 -1.4870721 -1.0078586 1.8561221
0.021342933 0.0074206414 0.0063906983 -0.048454456 -0.040875122 0.039460648 1.6312386 0.18199205
-2.6134012 0.047236703 -0.048440963 -0.05274523 -0.0076978803 -0.038675494 0.017388456 0.051818296
0.028922044 0.0009802356 -1.0750521 -0.8791753 2.3095677 -1.2265251 -0.3808472 2.8794436
-5.116088 0.015030464 0.87914735 -1.3146477 -0.6737219 2.4206135 -0.058169298 -0.04642497
0.042344272 -0.04986433 -0.022124164 -0.04421647 0.058824956 0.053008646 0.023848005 -0.018452741
00000000: f506 903f 8425 233f 19b9 09c0 2a48 16bd
00000010: 823a 193d ca39 cd3c b8af adbf 50d3 3dbf
00000020: b99f 1040 6a4c 88c0 fefb b0be 5f42 2c3e
00000030: 0769 67c0 474c b0be 98dd a53f 9d74 6d3f
00000040: c2f7 423e 15e8 33c0 dd0f fc3f 6ce4 e73d
00000050: bc3a 3dc0 c342 e1bc 3c04 d53c 964e 6f3d
00000060: 284c 39c0 6c5a 43be 8afe 0140 f06a a2bb
00000070: 6994 72bd da6a 693d 1d09 86bf dfbc 6bbf
00000080: 3327 2140 8248 3c3d 364b 1bbd 3c91 df3c
00000090: 4976 6ebf 0765 07bf 5428 0e40 19e8 b83f
000000a0: ad66 643e bfe7 32c0 66f8 d33f 4058 4b3e
000000b0: cb5b 2fc0 12cf c6bf ec7c c23e ccbd 4740
000000c0: c003 b03a 52c6 483d deeb 5ebd 50ad 5dbc
000000d0: 3ebf 0cbd d865 6fbd 8043 35c0 6f5a 13bf
000000e0: c20d 1940 e294 cb3f edd2 5b3e e95e 2ac0
000000f0: 5093 e2bb 4c5c 993c 6bb5 d7bc 2e87 85bf
00000100: 9d23 92bf 891e 0940 0f0c 67c0 da5a b8bf
00000110: 1998 bf3e 5033 0ebc 5e58 6abd 5ae3 5f3d
00000120: 1cfd b03c 4091 bc3b e06b e73b ca7e 473d
00000130: 9e16 083d a8d0 cbbc a597 3ebf 80a7 e7be
00000140: 7bfd 3c3e 0e91 ee3c 19c0 7b3b 00c9 d63b
00000150: 02fc ccbf 15fa eb3e 541b 4940 d81f a93f
00000160: 91b4 863d c881 1ac0 f021 c6bb 8c3a 933c
00000170: 803e ea3c 820a c0bf 7f57 51bf ce03 1a40
00000180: d882 50bc d0ea aabc 10fe 8a3c 1073 6a3c
00000190: 98d0 18bd 7843 53bc 88a8 8a3f af24 503e
000001a0: 89b6 2dc0 a005 b5bb 78ee 54bd 8484 cebc
000001b0: 29b9 8e3f 6704 283e d746 4ec0 b8a9 98bf
000001c0: 78c3 7ebf f5f2 1540 709d 9b3f 236e 3c3e
000001d0: 1852 48c0 aaf4 823f 3000 583e 8bc8 39c0
000001e0: 8820 29bc 2830 95bc c8a8 733c 3e9a 2c3d
000001f0: 2860 2a3c fda7 473d b0d0 b03b 4075 f83c
00000200: 7ea8 6e3d 9c1c 82c0 dfe4 dabe 768a b33f
00000210: cc43 3dbc 40cb b83b 5459 0ebd 5c7b 523d
00000220: 904d f1bb fc44 2dbd b3df d7bf e2b0 b8be
00000230: 7154 1d40 b96c b43f 5907 2a3e ee20 29c0
00000240: 6898 eebe a9bf bcbf 0fd3 3e40 b0ce d7bb
00000250: fa6d 7fbd 4e2e 2ebd 1e3c d0bf 78ec a4be
00000260: cebd 2640 4af3 543d 604c c9bc 8500 6ebd
00000270: 1a2e 103d bc62 80bc a64b 33bd 5222 00bd
00000280: 0d14 ee3b 1a3b 4cbd 98df abbc 104a 23bc
00000290: 9a9e 20bd d9bc 5b3f 4c29 1e3e 02ea 4ac0
000002a0: 90d5 3abc 3695 223d ac56 533d 8118 9fbf
000002b0: 012a 20bf bb06 2c40 c905 83bf 1a47 66bf
000002c0: 4ee5 1240 b0fc 493d 5082 bf3c 42eb 3cbd
000002d0: 20b7 32bd a0a6 37bc 3462 62bd d3c3 a03f
000002e0: c4d9 763e 7ccd 37c0 a6ab be3e 6293 823d
000002f0: f135 4bc0 c130 45bf 102c a5bf 7acd 1e40
00000300: f22f eabe 00ea 91be f3a6 6bbc db1e 6fc0
00000310: dd90 59bf d480 963f 0020 3a3a 8cc3 293a
00000320: 807b 213a 9ab3 823f 4be2 633e d477 47c0
00000330: 1473 bcbc eca2 113d 3c44 a33c e3d6 3ebf
00000340: 4843 7ebf c8d5 3040 8017 043a 9077 3b3c
00000350: acf2 54bd 6158 bebf 8301 81bf 6995 ed3f
00000360: 60d7 ae3c da28 f33b 1069 d13b 2e78 46bd
00000370: ac6c 27bd 7da1 213d 6dcc d03f 205c 3a3e
00000380: f741 27c0 467b 413d 086a 46bd 620b 58bd
00000390: 803e fcbb 326a 1ebd 3c72 8e3c 6c3f 543d
000003a0: eced ec3c 407b 803a 4f9b 89bf a211 61bf
000003b0: f5cf 1340 c6fe 9cbf 67fe c2be ce48 3840
000003c0: feb6 a3c0 5642 763c cd0f 613f 6046 a8bf
000003d0: 0a79 2cbf 55eb 1a40 ee42 6ebd 1c28 3ebd
000003e0: 3071 2d3d 8a3e 4cbd bc3d b5bc 541c 35bd
000003f0: 70f2 703d 981f 593d e45c c33c 342a 97bc

fc1.bias f4 [256]
0.059347592 -0.54450333 0.04335494 0.20493992 0.03435843 0.07367125 0.08904822 -0.47454324
0.029583635 -0.496677 0.11199562 -0.13893278 0.03461735 0.055301704 0.060954455 0.2029794
-0.57435375 -0.212744 0.1563226 0.05953633 -0.3235531 0.018384976 0.21546274 -0.011732161
-0.23002821 -0.4170822 -0.057234235 -0.48974612 0.19619513 0.07859536 -0.47860512 -0.02925429
-0.3779805 -0.47911698 0.08145264 -0.4380253 0.10378592 0.11072314 0.06272448 0.072928384
-0.46273422 -0.0974018 -0.33458215 0.027333008 -0.32658154 -0.54433453 0.039729256 0.063820265
0.12754445 -0.22836685 0.030326378 -0.22854951 -0.52168 -0.16677365 -0.28473583 0.10397058
-0.239611 0.09414918 0.1096014 -0.22257683 -0.30336764 0.05987784 0.14822899 0.076526135
-0.021889158 0.050553527 -0.31223658 0.08028214 -0.2247689 0.015860096 -0.51257676 0.16905516
-0.3349333 -0.53793424 0.060709473 -0.33754563 -0.2744302 -0.13677564 0.103835635 0.15459779
0.121339455 0.008374889 -0.3027806 -0.29320613 -0.28028572 -0.023668885 -0.410595 -0.22542557
-0.017409204 0.049336515 0.069775805 0.078098014 -0.17820674 -0.31977573 -0.0779846 0.1153163
0.073053636 0.1137002 -0.09120178 -0.08057761 -0.3096946 0.058845885 0.111087926 0.07417319
-0.17264593 0.118272774 0.024010474 0.023925265 -0.1723714 0.124023095 -0.020300932 -0.062919855
-0.0904721 0.057239376 -0.23293051 0.16035701 0.06599067 0.09916844 -0.30878264 0.080315106
0.09433235 -0.31394154 0.09249034 -0.34283546 -0.52261883 -0.2438085 0.008392639 0.13748656
-0.057821512 -0.28067946 -0.38484025 -0.20373076 0.084398516 -0.28643864 -0.5725398 -0.5384626
-0.36646074 -0.29343578 0.079694554 -0.2488617 0.114158586 -0.053037763 -0.05291335 -0.45222905
0.078163646 -0.19282109 0.103757285 -0.55124277 -0.24488139 -0.16973618 0.12299579 0.022528335
0.078559294 -0.21524793 -0.12782171 -0.052877616 0.065191135 -0.048566937 -0.41983226 -0.1788488
-0.009701059 0.07839943 -0.53633714 -0.28665733 -0.34808606 -0.50520027 0.11112217 0.04571176
-0.40755132 0.12437033 -0.21512339 0.09758922 -0.3824082 0.16146365 -0.048777718 0.117552064
0.051145982 -0.19187728 -0.31128713 0.055198655 0.008006324 -0.4442582 0.07402465 -0.34638196
0.095357746 0.07439979 0.076354556 -0.41989607 -0.03192067 -0.53088635 -0.36943498 0.09128825
0.02158941 0.10876951 0.008804198 0.10872534 -0.11280969 0.08938341 0.038458526 0.102223024
-0.39371455 0.03360027 -0.40928 -0.122761935 -0.22500299 0.088828325 0.057909716 -0.12028505
0.1096772 -0.029026449 -0.10421312 -0.23670918 -0.04685349 0.13870892 -0.03942712 -0.04693389
0.041403808 -0.14710972 0.14606711 0.0017763526 0.04394442 -0.0052254857 -0.10692319 0.009652898
0.053727243 -0.2567186 -0.45307565 0.08740441 -0.13718396 -0.48279777 0.0354822 -0.22615707
-0.12312616 0.10148422 0.061545968 -0.5492403 -0.09612563 0.13401337 -0.42527115 -0.08906911
-0.0962798 -0.38948202 0.054946195 0.06789492 0.09026599 -0.21485686 0.11653624 -0.28695536
-0.27562058 -0.0146562755 0.10709978 -0.03743034 0.008060171 -0.2192818 -0.2500689 0.015168132
00000000: 7616 733d 9264 0bbf f394 313d c5db 513e
00000010: 6dbb 0c3d f4e0 963d ea5e b63d 55f7 f2be
00000020: 6159 f23c 734c febe f65d e53d 6544 0ebe
00000030: ecca 0d3d 0a84 623d 61ab 793d d5d9 4f3e
00000040: d908 13bf 90d9 59be 0813 203e 5edc 733d
00000050: c0a8 a5be 179c 963c 44a2 5c3e 4038 40bc
00000060: 848c 6bbe cc8b d5be 726e 6abd 01c0 fabe
00000070: 60e7 483e 9bf6 a03d bb0b f5be b1a6 efbc
00000080: a986 c1be d24e f5be a4d0 a63d da44 e0be
00000090: b68d d43d d0c2 e23d b175 803d 7a5b 953d
000000a0: 80eb ecbe 987a c7bd 5a4e abbe 79e9 df3c
000000b0: b235 a7be 8259 0bbf 25bb 223d 33b4 823d
000000c0: 039b 023e 00d9 69be 066f f83c e208 6abe
000000d0: d28c 05bf b6c6 2abe e5c8 91be 87ee d43d
000000e0: 965c 75be 49d1 c03d b376 e03d 2eeb 63be
000000f0: 0153 9bbe 7742 753d 57c9 173e bcb9 9c3d
00000100: e450 b3bc 3711 4f3d 79dd 9fbe f66a a43d
00000110: d229 66be 08ed 813c 3b38 03bf cc1c 2d3e
00000120: 617c abbe 0fb6 09bf 7faa 783d c8d2 acbe
00000130: 1d82 8cbe ea0e 0cbe c7a7 d43d e24e 1e3e
00000140: d280 f83d d536 093c 0f06 9bbe 1d1f 96be
00000150: 9c81 8fbe 40e5 c1bc 8239 d2be f6d5 66be
00000160: bf9d 8ebc 1615 4a3d 9ee6 8e3d daf1 9f3d
00000170: d47b 36be a5b9 a3be 64b6 9fbd f42a ec3d
00000180: 259d 953d a7db e83d 00c8 babd e005 a5bd
00000190: 4a90 9ebe 6208 713d 1182 e33d 1de8 973d
000001a0: 18ca 30be ff38 f23d 9db1 c43c ebfe c33c
000001b0: 2182 30be d2ff fd3d 244e a6bc 20dc 80bd
000001c0: 7049 b9bd d673 6a3d 5685 6ebe a134 243e
000001d0: 1e26 873d d318 cb3d c218 9ebe 3f7c a43d
000001e0: 5231 c13d f2bc a0be 936b bd3d 2188 afbe
000001f0: 59ca 05bf efa8 79be 4881 093c 47c9 0c3e
00000200: 40d6 6cbd 38b5 8fbe c809 c5be cc9e 50be
00000210: 21d9 ac3d 16a8 92be f891 12bf afd8 09bf
00000220: bea0 bbbe 373d 96be e636 a33d 9ad5 7ebe
00000230: facb e93d 203e 59bd abbb 58bd 918a e7be
00000240: 4314 a03d e472 45be b37e d43d 3f1e 0dbf
00000250: 30c2 7abe 52cf 2dbe 37e5 fb3d 588d b83c
00000260: b2e3 a03d f469 5cbe b2e3 02be 3396 58bd
00000270: ee82 853d 20ee 46bd 41f4 d6be 2424 37be
00000280: 31f1 1ebc e18f a03d 644d 09bf c0c4 92be
00000290: 5638 b2be ce54 01bf 0594 e33d 413c 3b3d
000002a0: 91aa d0be dfb5 fe3d 4e49 5cbe dbdc c73d
000002b0: 02cb c3be ba56 253e 25cb 47bd 23bf f03d
000002c0: 737e 513d 7a7b 44be 0761 9fbe fc17 623d
000002d0: f52c 033c d075 e3be 3c9a 973d fa58 b1be
000002e0: ec4a c33d eb5e 983d c75f 9c3d 9efc d6be
000002f0: 40bf 02bd 2be8 07bf 9526 bdbe 56f5 ba3d
00000300: 46dc b03c 8dc2 de3d 7c3f 103c 64ab de3d
00000310: c408 e7bd a60e b73d b086 1d3d 4e5a d13d
00000320: f494 c9be 70a0 093d 268d d1be 9c6a fbbd
00000330: 2f67 66be a0eb b53d bd32 6d3d 0258 f6bd
00000340: 719e e03d e0c8 edbc b06d d5bd e463 72be
00000350: 72e9 3fbd b609 0e3e 557e 21bd c03d 40bd
00000360: 0a97 293d eea3 16be 9e92 153e 81d4 e83a
00000370: 10ff 333d 8d3a abbb 8cfa dabd 3027 1e3c
00000380: 1911 5c3d 9f70 83be 88f9 e7be 1501 b33d
00000390: f479 0cbe 4531 f7be c955 113d b895 67be
000003a0: 9129 fcbd f5d6 cf3d a017 7c3d 039b 0cbf
000003b0: 84dd c4bd cd3a 093e 24bd d9be de69 b6bd
000003c0: 582e c5bd 306a c7be 430f 613d 7e0c 8b3d
000003d0: 60dd b83d 7003 5cbe 8daa ee3d d0eb 92be
000003e0: 241e 8dbe e020 70bc 2157 db3d 8e50 19bd
000003f0: cf0e 043c 688b 60be 0809 80be c283 783c

fc2.weight f4 [128, 256]
0.7253213 0.049066745 -0.14070196 0.19141638 -0.0068106223 0.7483282 1.2224509 -0.06347039
-0.7133313 -0.059221137 -0.17459397 -0.0062607527 -0.34591636 1.3345402 1.007486 -0.8002689
-0.0034855306 0.043933935 -1.0644577 1.5105314 0.0015958473 0.058399234 -0.36220673 -0.07695575
0.026080944 0.087849714 0.07030831 -0.055383425 -0.5763623 0.4733947 -0.014742844 -0.21176025
-0.07698859 0.033722967 0.48042232 -0.025424503 0.99678296 -0.15241499 1.3684548 0.6730994
0.08063281 -0.01568903 -0.02126196 0.06509191 -0.016815834 -0.021680214 -0.16933623 0.88290375
-0.5843084 -0.0057687536 -0.15902703 -0.0073316987 0.0032169 0.07706412 -0.05740039 1.121896
-0.02386564 -0.2698876 -0.3377123 -0.038435124 0.054106466 0.8209916 1.0474429 -0.117697254
0.11594371 -0.15967149 0.00068728626 1.0769734 -0.011334375 -0.4492029 -0.068979025 -0.25629064
-0.06786655 -0.014795922 0.62838995 -0.057177067 -0.04459789 -0.008609429 -0.16970493 -0.5343472
0.14191216 -0.18330899 -0.084878094 0.07467299 -0.026913121 -0.04071985 0.016616449 0.06029866
-0.110952966 0.31586397 1.5714016 1.0583496 -0.025288902 -0.06476747 0.017773464 0.24328785
0.66781217 0.12691991 -0.08290898 -0.056848858 -0.084472045 -0.13384798 -0.1084495 -0.004045275
-0.028347231 -0.27459398 1.1545343 1.1615944 -0.072762385 1.1859787 -0.1139158 0.045843534
-0.013400167 0.6097963 -0.52443826 -0.50102544 0.9908649 0.37574285 0.67907614 1.312057
1.3976121 -0.020066977 1.1113684 0.06486262 0.028509922 -0.05070842 -0.27360672 -0.3190791
-0.009008691 0.07450386 0.07637316 -0.071042515 0.7852087 0.047076322 0.088246725 -0.040144607
0.0882703 0.04820784 0.013278726 0.06666704 -0.8096658 -0.062157974 -0.45576656 0.08045816
-0.06450656 0.042068385 2.4071283 -0.056218635 -0.08281585 -0.012015656 -0.3132251 -0.3313031
0.07245657 0.05662086 0.018866196 0.43652186 -0.38757122 -0.060015384 -0.08654561 -0.015958913
0.091961145 1.2420363 0.051430576 0.040926896 -0.018545248 -0.078377396 -0.29357183 0.11250149
-0.07516678 0.9275372 0.04167872 0.4171329 -0.039951198 -0.33861506 1.705728 1.0927176
0.99175394 0.08555647 -0.006465271 0.76171005 -0.20923305 -0.074252926 1.8455473 0.08509046
-0.26755312 1.5688953 1.1616333 -0.018930875 0.02963041 0.072409876 -0.026620433 -0.14098288
-0.37344435 -0.4902528 -0.108374186 1.1408825 -0.045795437 -0.20341337 0.08426343 0.099537924
-0.061551902 0.08378211 0.078235835 -0.035480745 0.06598515 0.34712845 0.8894207 0.63290536
-0.1538992 0.04726363 -8.6464956e-05 0.07738925 0.40517324 1.0044484 -0.020343142 0.08449649
-0.06612868 0.0051336437 -1.3705854 -0.016525477 0.011847374 -0.045141786 -0.06671339 0.6912467
2.39785 -0.012902617 0.037252314 1.2164973 -0.08136624 0.06549633 -0.4911676 -0.005943079
-0.054029487 -0.29225472 0.13216972 -0.04272174 0.003525734 0.012784244 -0.031175032 0.9917447
0.0047784597 0.06704735 0.90069884 -0.61669713 -0.19514214 0.009320162 -0.35251763 -0.015162855
0.076552264 -0.028115 -0.41098762 0.07305016 -0.11271436 0.024575986 0.0069943666 0.45279905
00000000: a8ae 393f 36fa 483d 2d14 10be a802 443e
00000010: a42b dfbb 7092 3f3f 4579 9c3f c4fc 81bd
00000020: e19c 36bf dd91 72bd c3c8 32be 0027 cdbb
00000030: f31b b1be 37d2 aa3f 4df5 803f 6cde 4cbf
00000040: 806d 64bb 12f4 333d 2640 88bf 1859 c13f
00000050: c02b d13a 0934 6f3d 2973 b9be fa9a 9dbd
00000060: b4a7 d53c 8dea b33d cefd 8f3d bbd9 62bd
00000070: 7b8c 13bf ca60 f23e f88b 71bc aed7 58be
00000080: 32ac 9dbd 1821 0a3d eaf9 f53e 0c47 d0bc
00000090: 2b2d 7f3f ad12 1cbe 8729 af3f 3e50 2c3f
000000a0: d122 a53d 4886 80bc 902d aebc e84e 853d
000000b0: 5cc1 89bc b49a b1bc 7a66 2dbe fb05 623f
000000c0: 3c95 15bf d007 bdbb fbd7 22be bf3e f0bb
000000d0: a0d2 523b cbd3 9d3d ac1c 6bbd 4a9a 8f3f
000000e0: e081 c3bc b52e 8abe a0e8 acbe 266e 1dbd
000000f0: be9e 5d3d 812c 523f 9c12 863f 420b f1bd
00000100: e573 ed3d ec80 23be 002b 343a 44da 893f
00000110: d0b3 39bc ecfd e5be e044 8dbd 8738 83be
00000120: 9efd 8abd 986a 72bc 2ade 203f 8032 6abd
00000130: 47ac 36bd 900e 0dbc 21c7 2dbe faca 08bf
00000140: 6c51 113e 5ab5 3bbe 91d4 adbd 27ee 983d
00000150: e878 dcbc dcc9 26bd 381f 883c bafb 763d
00000160: 4f3b e3bd ecb8 a13e b023 c93f 0078 873f
00000170: ac2a cfbc cfa4 84bd a899 913c 7320 793e
00000180: bdf5 2a3f 4bf7 013e 2fcc a9bd 59da 68bd
00000190: aeff acbd 720f 09be c51a debd 3a8e 84bb
000001a0: 7438 e8bc 9597 8cbe c8c7 933f 20af 943f
000001b0: 7204 95bd 26ce 973f b04c e9bd 6ec6 3b3d
000001c0: 608c 5bbc 9c1b 1c3f 9641 06bf 3443 00bf
000001d0: 52a9 7d3f 5e61 c03e efd7 2d3f 7cf1 a73f
000001e0: f4e4 b23f 8063 a4bc 5241 8e3f b1d6 843d
000001f0: a48d e93c a2b3 4fbd 2e16 8cbe 565e a3be
00000200: 3099 13bc 7b95 983d 8869 9c3d bd7e 91bd
00000210: 7003 493f 1ad3 403d b3ba b43d ac6e 24bd
00000220: 0fc7 b43d 9675 453d 038f 593c bb88 883d
00000230: 4246 4fbf 5c99 7ebd 3c5a e9be 3fc7 a43d
00000240: 041c 84bd e64f 2c3d 640e 1a40 8345 66bd
00000250: 5b9b a9bd 50dd 44bc 0a5f a0be 8fa0 a9be
00000260: 1c64 943d 46eb 673d 488d 9a3c cb7f df3e
00000270: bc6f c6be b1d2 75bd d33e b1bd 44bc 82bc
00000280: 2056 bc3d 0cfb 9e3f dea8 523d f6a2 273d
00000290: 34ec 97bc 5484 a0bd 0c4f 96be 2e67 e63d
000002a0: 0af1 99bd 1473 6d3f 4eb7 2a3d 7292 d53e
000002b0: dea3 23bd f45e adbe 4c55 da3f 2cde 8b3f
000002c0: 96e3 7d3f 3b38 af3d a0da d3bb 6eff 423f
000002d0: 3041 56be eb11 98bd e53a ec3f e843 ae3d
000002e0: b9fc 88be 90d1 c83f 66b0 943f ec14 9bbc
000002f0: 79bb f23c a14b 943d 1813 dabc d15d 10be
00000300: 1934 bfbe 6a02 fbbe 49f3 ddbd 7008 923f
00000310: ff93 3bbd 984b 50be 4e92 ac3d 8ada cb3d
00000320: d91d 7cbd f495 ab3d 1c3a a03d 4254 11bd
00000330: 3923 873d d2ba b13e 13b1 633f 1606 223f
00000340: c097 1dbe 8297 413d 8554 b5b8 417e 9e3d
00000350: de72 cf3e c491 803f a9a6 a6bc 7f0c ad3d
00000360: 796e 87bd 2038 a83b 586f afbf 7060 87bc
00000370: 7d1b 423c 98e6 38bd 08a1 88bd 8bf5 303f
00000380: 6076 1940 8065 53bc e295 183d 2fb6 9b3f
00000390: 58a3 a6bd f122 863d 527a fbbe 29be c2bb
000003a0: 064e 5dbd 69a2 95be 8057 073e fefc 2ebd
000003b0: 0010 673b 0175 513c c862 ffbc fbe2 7d3f
000003c0: a094 9c3b 1f50 893d 3394 663f dddf 1dbf
000003d0: 57d3 47be 98b3 183c 317d b4be a06d 78bc
000003e0: 6fc7 9c3d 6e51 e6bc f86c d2be 539b 953d
000003f0: c9d6 e6bd 9453 c93c 0031 e53b 47d5 e73e

fc2.bias f4 [128]
0.4812206 -0.03150705 -0.08157373 -0.052216206 -0.096326075 0.3718253 -0.0075766398 0.006548446
-0.01956641 -0.024720414 0.0013551499 -0.039192423 -0.053881433 -0.009275627 -0.022399528 0.009331506
-0.07579946 -0.03307542 -0.07103103 -0.060374696 -0.05662328 -0.025314605 -0.07657433 0.13866453
-0.06488422 -0.025439404 -0.06223364 -0.06770057 -0.007610168 -0.019450923 -0.014088764 -0.06932482
-0.05087334 0.0027475948 0.015006128 0.023118516 -0.22066669 -0.073869735 0.0061023366 -0.082713686
-0.06486187 -0.031857233 -0.06646376 0.60666364 -0.0469225 -0.0011485103 -0.2461182 -0.037378184
-0.019612975 -0.045257274 -0.030895162 -0.041043915 -0.27995172 0.014810547 -0.00101661 0.039323844
-0.027812446 -0.042426016 0.024183964 -0.047067787 -0.019417396 0.009336163 0.010302888 -0.08623041
-0.10688368 0.29826444 0.0046229116 0.3124026 -0.053423412 0.01654702 -0.032103103 -0.0058359755
-0.00032455556 -0.07652963 0.21149865 -0.07502459 -0.050994296 0.0020877027 -0.1305284 -0.049563766
-0.05946199 -0.0381307 -0.03845853 0.002038342 0.022732945 0.01401705 0.5551369 -0.07140356
0.78518754 -0.056928758 -0.055069815 -0.06107135 -0.07601553 -0.032453287 -0.0019943367 -0.022043759
-0.08848051 -0.022803728 -0.06444463 0.022775786 -0.034163218 -0.040231794 -0.061361913 -0.041945446
-0.024735315 0.026283192 -0.015198915 -0.022125715 0.16703267 -0.05152702 -0.04260856 -0.086826466
-0.020080505 0.019557094 0.20857345 -0.19384426 -0.0065256287 -0.1093126 0.32972667 -0.20949067
-0.007592938 -0.03525474 -0.056472965 -0.069525994 0.3855546 0.00075702945 -0.080806315 -0.016444573
00000000: 8c62 f63e 890d 01bd 2110 a7bd a9e0 55bd
00000010: 9b46 c5bd e35f be3e 7645 f8bb 5994 d63b
00000020: bc49 a0bc 7782 cabc 499f b13a 3c88 20bd
00000030: c7b2 5cbd cdf8 17bc 377f b7bc 2ce3 183c
00000040: bf3c 9bbd 177a 07bd b778 91bd 754b 77bd
00000050: d0ed 67bd 9360 cfbc 01d3 9cbd 13fe 0d3e
00000060: 05e2 84bd 4c66 d0bc b4e8 7ebd 99a6 8abd
00000070: b75e f9bb 8b57 9fbc 8fd4 66bc 2cfa 8dbd
00000080: 9060 50bd fe10 343b 43dc 753c 0b63 bd3c
00000090: 73f6 61be 0449 97bd 1cf6 c73b cb65 a9bd
000000a0: 4dd6 84bd bb7c 02bd 271e 88bd 4f4e 1b3f
000000b0: cf31 40bd 9c89 96ba 6906 7cbe de19 19bd
000000c0: 64ab a0bc b15f 39bd da17 fdbc aa1d 28bd
000000d0: d555 8fbe f0a7 723c c53f 85ba 0a12 213d
000000e0: edd6 e3bc e7c6 2dbd 731d c63c 27ca 40bd
000000f0: 3b11 9fbc b5f6 183c 72cd 283c 9299 b0bd
00000100: d5e5 dabd 1eb6 983e cb7b 973b 3cf3 9f3e
00000110: 82d2 5abd 9e8d 873c 8b7e 03bd b63b bfbb
00000120: 1c29 aab9 91bb 9cbd 1a93 583e 7ea6 99bd
00000130: 65df 50bd d7d1 083b 3da9 05be 6003 4bbd
00000140: 6a8e 73bd f02e 1cbd b186 1dbd b495 053b
00000150: 713a ba3c c5a7 653c 741d 0e3f 083c 92bd
00000160: 0d02 493f 212e 69bd e390 61bd f425 7abd
00000170: 08ae 9bbd bded 04bd 6bb3 02bb 1d95 b4bc
00000180: 4535 b5bd e2ce babc 8cfb 83bd 4994 ba3c
00000190: bbee 0bbd 18ca 24bd a156 7bbd fdce 2bbd
000001a0: b7a1 cabc d94f d73c df04 79bc fd40 b5bc
000001b0: 9d0a 2b3e ff0d 53bd 5086 2ebd 13d2 b1bd
000001c0: df7f a4bc 3336 a03c 4794 553e 1c7f 46be
000001d0: f1d4 d5bb 49df dfbd efd1 a83e b984 56be
000001e0: 2ece f8bb 4667 10bd 3250 67bd a563 8ebd
000001f0: 6a67 c53e 6373 463a c87d a5bd c5b6 86bc

fc3.weight f4 [64, 128]
-0.11675583 0.016234092 0.051418982 0.06965573 -0.07281919 -0.19835937 0.042072106 -0.029533552
0.04439424 0.033619314 -0.10408968 -0.11077294 -0.044961378 0.056091815 0.028398544 0.030021569
-0.04597543 -0.010946095 0.09656449 -0.0069526457 0.111701116 0.084732816 0.08169326 -0.027823621
0.09265289 0.057945773 -0.020538721 -0.031849783 0.020019036 0.023210973 -0.11502727 0.06938442
-0.055529773 0.018802712 0.019950116 -0.042770848 -0.1293214 -0.037953705 0.06777508 -0.016125828
-0.040046185 0.043919872 -0.09493588 -0.041215282 -0.108440876 -0.001176916 -0.102040745 0.1049614
-0.023487464 0.038904294 0.10014827 -0.047844246 -0.11689739 0.090313375 -0.09624642 -0.06753666
-0.12410965 0.113595024 -0.1048124 -0.08481478 -0.090715714 0.11926457 0.08829424 0.052953824
-0.007588747 -0.05309911 0.042026773 -0.01167847 -0.088483736 -0.046654277 -0.027059928 -0.18579753
-0.008139399 -0.061225772 -0.06220011 -0.07665629 -0.063353285 -0.039129093 -0.29142576 0.018776635
-0.011383966 -0.10772561 -0.08904676 -0.030778319 0.07148197 -0.08894403 0.036208425 0.08786955
0.04564843 -0.11616552 0.040116303 0.03442958 0.0043924064 -0.0066662603 0.062531665 0.08911516
0.022556841 -0.071262956 0.041735962 0.037422884 -0.05901867 0.026668765 0.028725153 -0.04597634
0.022753434 0.079584405 0.045007672 -0.05753523 0.06741744 -0.017925397 -0.0904776 -0.07481597
-0.017049942 -0.0031360984 0.05761422 -0.14659207 -0.037411198 -0.06899153 -0.096199416 -0.042504247
-0.11761266 -0.07717039 -0.057715967 -0.08450802 -0.14164482 0.024591887 0.00968262 -0.061477397
-0.11700195 -0.12028332 -0.075804695 0.026886698 0.037039176 -0.09421753 -0.12051672 0.041107476
0.121991426 -0.050231576 -0.076234445 -0.07636288 0.040884733 0.013807833 -0.064940795 -0.09618652
0.041910753 -0.08465172 0.019065604 -0.013755605 -0.10137828 -0.055908382 0.030808717 -0.09076787
-0.09909402 0.12296048 0.10847068 -0.035491854 0.0012037605 0.09654015 -0.035211742 -0.10176785
0.029062644 -0.120126694 0.06447443 0.04677801 -0.1059151 0.07745351 0.06294599 -0.035428986
-0.006847918 -0.074282855 -0.0786473 -0.11564328 -0.07844275 -0.0796649 -0.021501722 0.046804056
-0.0827584 -0.06548165 0.06269829 -0.06317592 -0.023907423 -0.06910324 -0.047523797 0.03219996
-0.037781283 0.011194885 -0.08652446 -0.117925584 -0.083317935 -0.04792975 0.113864966 0.07501741
-0.04995865 -0.14295614 -0.07152277 0.01149779 -0.039878443 -0.04786043 -0.1220348 -0.05014731
-0.113999076 0.08373962 -0.05185485 0.00016455352 -0.09614901 0.11894879 -0.0029177666 -0.008669328
0.08329567 0.031767383 -0.040669605 0.05235839 -0.042258378 0.08509046 0.05044569 -0.075239286
-0.024593752 0.10839014 -0.012086645 -0.019399107 0.09383239 -0.08380501 0.046242982 0.08038993
-0.12237364 -0.045407906 -0.094269685 0.12413945 -0.057469025 -0.009498775 0.016257823 0.027806431
-0.1005937 -0.042044356 0.05119559 0.07144131 -0.12130074 -0.05192615 -0.11077294 0.07440969
0.07824497 -0.12359373 0.045175314 -0.095893934 0.06380598 -0.03849951 0.017815499 0.0026465035
0.04973927 -0.0806126 0.054157108 -0.078377396 0.061130136 0.029520974 0.0849884 0.078584194
00000000: ae1d efbd 5cfd 843c b69c 523d aaa7 8e3d
00000010: 3a22 95bd b81e 4bbe cd53 2c3d 59f0 f1bc
00000020: bcd6 353d 68b4 093d f82c d5bd ecdc e2bd
00000030: 6c29 38bd 88c0 653d 10a4 e83c cbef f53c
00000040: bc50 3cbd 4057 33bc 9ac3 c53d 05d3 e3bb
00000050: 8ec3 e43d 6688 ad3d cc4e a73d 5dee e3bc
00000060: ccc0 bd3d 8c58 6d3d d240 a8bc eb74 02bd
00000070: f6fe a33c f024 be3c 6b93 ebbd 6b19 8e3d
00000080: 3073 63bd 2508 9a3c 6d6e a33c 7c30 2fbd
00000090: d46c 04be 5875 1bbd a9cd 8a3d 501a 84bc
000000a0: 7807 24bd 53e5 333d be6d c2bd 5bd1 28bd
000000b0: 4016 debd bf42 9aba bdfa d0bd 01f6 d63d
000000c0: c868 c0bc 1c5a 1f3d 891a cd3d 54f8 43bd
000000d0: e667 efbd 38f6 b83d d81c c5bd a950 8abd
000000e0: 332d febd 82a4 e83d e2a7 d6bd 5fb3 adbd
000000f0: 29c9 b9bd fc40 f43d 9cd3 b43d 1ce6 583d
00000100: 06ab f8bb 747e 59bd 4424 2c3d 0e57 3fbc
00000110: f636 b5bd 8e18 3fbd c8ac ddbc b541 3ebe
00000120: 1d5b 05bc e0c7 7abd 8bc5 7ebd f9fd 9cbd
00000130: 5ebf 81bd d445 20bd c235 95be 75d1 993c
00000140: d083 3abc 3f9f dcbd 265e b6bd d022 fcbc
00000150: 2465 923d 4a28 b6bd 494f 143d f3f4 b33d
00000160: d9f9 3a3d 30e8 edbd fe50 243d 0806 0d3d
00000170: 2dee 8f3b a570 dabb 9a10 803d 0282 b63d
00000180: 20c9 b83c 50f2 91bd 54f3 2a3d bd48 193d
00000190: 90bd 71bd 7478 da3c 0351 eb3c b051 3cbd
000001a0: 6965 ba3c 26fd a23d f759 383d 10aa 6bbd
000001b0: 2812 8a3d 48d8 92bc 524c b9bd 1e39 99bd
000001c0: 52ac 8bbc 0087 4dbb e3fc 6b3d 3b1c 16be
000001d0: 7c3c 19bd 6e4b 8dbd 3304 c5bd ef18 2ebd
000001e0: e8de f0bd 820b 9ebd 9467 6cbd 8a12 adbd
000001f0: 570b 11be ed74 c93c daa3 1e3c b9cf 7bbd
00000200: b89e efbd 1a57 f6bd 7e3f 9bbd 7e41 dc3c
00000210: 64b6 173d 1ff5 c0bd 78d1 f6bd 5060 283d
00000220: a4d6 f93d a0bf 4dbd ce20 9cbd 2464 9cbd
00000230: c076 273d 403a 623c aeff 84bd 70fd c4bd
00000240: 9caa 2b3d e25d adbd 782f 9c3c 305f 61bc
00000250: 6a9f cfbd 3000 65bd 9062 fc3c 81e4 b9bd
00000260: cef1 cabd b4d2 fb3d e025 de3d e85f 11bd
00000270: 80c7 9d3a d8b6 c53d 303a 10bd aa6b d0bd
00000280: c814 ee3c fc04 f6bd 2c0b 843d 4c9a 3f3d
00000290: 04ea d8bd f29f 9e3d d4e9 803d fc1d 11bd
000002a0: 8064 e0bb 9c21 98bd d611 a1bd 62d6 ecbd
000002b0: 98a6 a0bd 5a27 a3bd 6124 b0bc 9cb5 3f3d
000002c0: 3c7d a9bd 3e1b 86bd f667 803d 6062 81bd
000002d0: 80d9 c3bc 0086 8dbd 50a8 42bd 1be4 033d
000002e0: 8cc0 1abd c06a 373c bc33 b1bd f882 f1bd
000002f0: 98a2 aabd fc51 44bd 0932 e93d baa2 993d
00000300: 71a1 4cbd 1863 12be 887a 92bd 3a61 3c3c
00000310: 9457 23bd 4c09 44bd 62ed f9bd 4467 4dbd
00000320: 5978 e9bd ae7f ab3d c065 54bd 008c 2c39
00000330: c6e9 c4bd 6c9b f33d 0038 3fbb cc09 0ebc
00000340: ec96 aa3d 841e 023d 2c95 26bd c075 563d
00000350: 1f17 2dbd e843 ae3d 24a0 4e3d 0e17 9abd
00000360: d678 c9bc a6fb dd3d 1007 46bc e0ea 9ebc
00000370: 322b c03d f6a1 abbd 4869 3d3d 7aa3 a43d
00000380: 089f fabd a4fd 39bd 7710 c1bd d33c fe3d
00000390: a464 6bbd c0a0 1bbc 202f 853c 50ca e33c
000003a0: 1204 cebd b436 2cbd 78b2 513d d24f 923d
000003b0: 866c f8bd 84b0 54bd ecdc e2bd 1c64 983d
000003c0: e63e a03d b61e fdbd c009 393d 0a64 c4bd
000003d0: b6ac 823d aab1 1dbd cff1 913c f670 2d3b
000003e0: 68bb 4b3d 3818 a5bd d8d3 5d3d 5484 a0bd
000003f0: 9863 7a3d f8d5 f13c 660e ae3d c0f0 a03d

fc3.bias f4 [64]
-0.11607037 -0.11598841 -0.34441495 -0.1261027 -0.116718575 -0.15812571 -0.11826832 -0.1337173
-0.18644264 -0.08995575 -0.07801976 -0.11832047 -0.106363945 -0.27221668 -0.16163117 -0.038644798
-0.33195913 -0.1417247 -0.24401309 -0.06566654 -0.26215953 -0.10755446 -0.12370515 -0.099598385
0.055925053 -0.15363333 0.17470777 -0.14943823 -0.16189575 -0.0133920545 -0.7741894 -0.1021972
-0.30258718 -0.148112 -0.24633284 0.21327195 -0.105030365 -0.091289416 -0.21022084 -0.5698576
-0.09981299 -0.007078398 0.11267641 -0.11744129 -0.124508 -0.021816855 -0.15542476 -0.39927524
-0.050241906 -0.000848465 -0.08374188 -0.059119258 -0.13182482 -0.21039966 -1.478617 0.678033
-0.11267286 -0.050569605 -0.22118707 -0.7420577 -1.6697177 -0.0033523724 0.021221453 -0.019441154
00000000: 4db6 edbd 558b edbd 2857 b0be 1121 01be
00000010: 260a efbd b5eb 21be a936 f2bd 30ed 08be
00000020: d2ea 3ebe b83a b8bd d3c8 9fbd 0152 f2bd
00000030: 57d5 d9bd fc5f 8bbe a482 25be 024a 1ebd
00000040: 8cf6 a9be 4820 11be 91de 79be 2e7c 86bd
00000050: c639 86be 8345 dcbd 2059 fdbd 3dfa cbbd
00000060: ab11 653d 0e52 1dbe 98e6 323e 5606 19be
00000070: 00c8 25be 596a 5bbc 4731 46bf c44c d1bd
00000080: b5ec 9abe acaa 17be ad3e 7cbe f663 5a3e
00000090: 291a d7bd f2f5 babd 2244 57be 30e2 11bf
000000a0: c16a ccbd e8f1 e7bb e4c2 e63d 0f85 f0bd
000000b0: 0dfe febd 43b9 b2bc ab27 1fbe ce6d ccbe
000000c0: 75ca 4dbd 866b 5eba dd80 abbd 0927 72bd
000000d0: 16fd 06be 0273 57be 5243 bdbf 9293 2d3f
000000e0: 07c1 e6bd 1322 4fbd dd7e 62be 7ef7 3dbf
000000f0: 4fb9 d5bf 7ab3 5bbb 9dd8 ad3c 0e43 9fbc

fc4.weight f4 [2, 64]
-0.016010573 0.031358037 0.089262836 0.012136687 0.014242434 -0.0073056207 -0.021257712 -0.026007518
-3.5248501 0.0042918227 -0.003663521 -0.40449724 -2.629605 0.32900295 -0.51737285 -0.023617715
-0.7724493 -3.4271708 -0.21526355 0.008758737 0.2308741 -0.015718132 -0.15554397 0.27256373
-0.4206618 0.0009590299 0.2793006 -0.03215526 -0.028382422 0.65368927 -0.059091736 -0.026519751
0.05589362 -0.009049313 0.17405067 -0.09403706 -3.9932504 0.018016668 -0.05537902 -0.269938
-0.014653153 -0.63594747 0.020267023 0.013955583 0.39313722 -0.5493662 0.06803316 -0.036353383
-0.039229676 -0.005346954 0.024694337 -0.018536353 0.021544563 0.022257965 1.451279 0.27195925
-0.059119258 0.0043430463 0.04011252 -0.0025902423 1.9093313 0.03527891 -0.30382934 -0.33356524
-0.019011332 -0.018330857 -0.12317831 0.0072450847 0.00678873 -0.024081519 0.006494429 0.022736672
-1.4944866 0.012998171 0.049597293 0.046486635 -2.5183344 -3.4129126 -1.0692323 0.21431872
2.1258864 -2.598787 3.7504919 0.008409485 0.07814643 -0.0023168114 -0.40470627 0.1272948
-0.6601146 0.087333106 0.4040286 0.9057936 0.014684819 -3.60854 0.3267718 -0.00044312607
-0.777193 0.016159587 -3.5463452 9.689595 -2.4521542 -0.029718127 0.04852067 0.51037145
-0.05330028 -1.6349013 0.6199232 -0.083667375 -2.9933028 -2.9548805 -3.2754045 -0.5160761
-0.12153171 3.1735115 0.0023640764 -0.015598456 -0.017992454 0.14198755 1.0071526 10.637056
0.013337176 -0.023340177 -2.1649988 0.13107975 0.5419026 2.3988793 8.057911 -2.2336698
00000000: 9b28 83bc 4971 003d 6fcf b63d f4d8 463c
00000010: 1959 693c fd63 efbb a724 aebc b80d d5bc
00000020: 2597 61c0 6ba2 8c3b af17 70bb 431a cfbe
00000030: 734b 28c0 1373 a83e 8c72 04bf f079 c1bc
00000040: 3dbf 45bf c456 5bc0 0c6e 5cbe ce80 0f3c
00000050: 436a 6c3e 50c3 80bc eb46 1fbe 798d 8b3e
00000060: fc60 d7be 6867 7b3a 7d00 8f3e 3cb5 03bd
00000070: 4182 e8bc 2e58 273f 2d0a 72bd f33f d9bc
00000080: b5f0 643d 9243 14bc 573a 323e 8196 c0bd
00000090: 6a91 7fc0 b197 933c 1cd5 62bd 5035 8abe
000000a0: c713 70bc 74cd 22bf 0707 a63c f5a5 643c
000000b0: 4849 c93e 43a3 0cbf f854 8b3d 49e7 14bd
000000c0: 4caf 20bd 8035 afbb c74b ca3c 8dd9 97bc
000000d0: 397e b03c 5656 b63c 83c3 b93f 3e3e 8b3e
000000e0: 0927 72bd 1d50 8e3b 074d 243d 0ec1 29bb
000000f0: f864 f43f 9e80 103d 858f 9bbe 10c9 aabe
00000100: a7bd 9bbc 982a 96bc e944 fcbd 2d68 ed3b
00000110: ff73 de3b 9b46 c5bc 38cf d43b 4242 ba3c
00000120: 564b bfbf 48f6 543c 8826 4b3d c568 3e3d
00000130: 642c 21c0 296d 5ac0 9bdc 88bf 5e76 5b3e
00000140: 860e 0840 8752 26c0 0f08 7040 f0c7 093c
00000150: 3c0b a03d a5d5 17bb a935 cfbe 9159 023e
00000160: 45fd 28bf b3db b23d d6dc ce3e 17e2 673f
00000170: 9898 703c 52f2 66c0 a24e a73e 6053 e8b9
00000180: 1ff6 46bf 1c61 843c 52f7 62c0 9508 1b41
00000190: 18f0 1cc0 6e73 f3bc 9cbd 463d b4a7 023f
000001a0: 6551 5abd 7244 d1bf 49b3 1e3f cd59 abbd
000001b0: 4692 3fc0 c31c 3dc0 3aa0 51c0 901d 04bf
000001c0: 9ee5 f8bd d01a 4b40 9fee 1a3b ab90 7fbc
000001d0: e964 93bc 2f65 113e 60ea 803f 6231 2a41
000001e0: 2c84 5a3c e633 bfbc 578f 0ac0 c539 063e
000001f0: 21ba 0a3f 3d87 1940 34ed 0041 72f4 0ec0

fc4.bias f4 [2]
-0.22270884 0.8407914
00000000: c90d 64be 1b3e 573f
